4-optimizer/Optimizer/cnn_gru_model_20250808_225347_best.pth (torch, 516955 bytes, 104 tensors)

cnn_features.0.weight f4 [32, 1, 3, 3]
0.24441831 0.26826197 0.36070767 0.19451363 0.027403979 -0.050102983 -0.30577677 -0.12562855
-0.14395839 -0.23059267 -0.0720465 0.12760822 -0.3229414 -0.011623504 0.40322918 0.13022782
-0.17455173 0.0044938545 0.026510233 -0.2616733 -0.13449223 0.09274515 -0.19661555 -0.047181323
0.099190466 0.26228434 0.08648959 -0.11152897 -0.055632748 0.26197794 -0.04822487 0.29942045
0.05240622 0.2832425 -0.0066298153 0.07382731 -0.18215725 -0.1509151 0.09666895 0.05712115
0.23267534 0.1347908 -0.028467625 0.069194436 0.013611691 0.086298145 -0.23736618 -0.34425023
0.050888877 0.14388071 0.08319195 0.024033707 -0.18564492 0.1828296 0.16325085 -0.29966506
0.18296492 0.36168417 0.22691973 0.073950365 -0.18853778 -0.17416067 -0.08004292 -0.077676676
0.2519342 -0.017740177 0.297254 0.2020814 0.16322485 -0.14482543 -0.29380974 -0.30262023
-0.35645464 -0.0023272587 0.29012895 0.15505534 -0.0033750336 0.020136988 -0.00943833 0.2583503
-0.28563088 0.058124658 0.08304619 -0.18520275 0.23811258 -0.021664102 -0.23091011 0.19443631
0.08950996 -0.33716923 -0.053494133 -0.13129373 -0.09950152 0.12458739 0.2113802 0.036409635
-0.23150057 -0.59838325 -0.24063209 0.075971596 -0.017796218 -0.267244 0.22809795 0.069250144
-0.3745862 0.1720029 0.15125294 -0.36691687 0.13922547 -0.21412341 0.033701736 0.010111727
0.20391828 -0.21353285 -0.28224427 -0.4572076 -0.4102223 0.25137472 0.104092896 0.20214733
0.105165936 -0.09847157 0.17964616 -0.092967354 0.1803158 -0.3681634 -0.38941845 0.15240185
0.18514562 0.08835807 -0.030356336 0.0012428677 -0.25736016 0.20593013 0.19203319 -0.075910196
-0.35344896 -0.10983676 0.29070634 0.20672634 0.08018452 0.1522612 -0.040804204 -0.10139304
-0.13964257 0.004666636 0.09648408 -0.3603385 -0.3860778 -0.11008244 0.07401232 0.23047867
-0.18537414 -0.07388823 -0.612621 -0.3364525 0.021099223 -0.036547154 0.0020754938 -0.18639533
0.037500218 0.113989405 0.28577915 0.05129426 0.1463279 0.14317806 -0.054857623 -0.14905296
0.10253708 -0.15833864 -0.43200403 -0.16936477 0.29523584 0.21535793 0.01426666 -0.120948866
0.07846498 -0.086972654 0.21767406 0.34376314 -0.101106085 0.0685419 -0.067059286 -0.33642176
0.20607199 0.13494307 -0.3681646 0.18284047 0.20846005 -0.3350569 0.22753745 0.042361103
-0.11877668 0.15903261 -0.071731 -0.0844627 -0.17171124 0.26802748 0.22466 0.23931177
-0.07718067 0.011770465 -0.051747363 0.21820627 -0.12603435 -0.25449374 -0.22923669 -0.017940529
-0.31570646 0.20687063 -0.06508294 0.38821056 0.26201203 0.25489292 0.26546767 0.07049651
-0.14533152 0.07924915 -0.30801928 0.11344289 0.29011324 -0.04061775 0.16977619 0.13999434
-0.28009126 -0.14016616 0.18211079 0.22814985 -0.1993064 -0.121238835 0.05863684 0.09053287
-0.15199988 0.23906565 0.1649127 -0.16580379 -0.2933729 0.07717202 -0.10005032 -0.2104991
0.22804339 0.043237865 0.18515944 -0.012001099 -0.319025 -0.22199947 0.11497199 -0.1872315
-0.03843038 0.1932333 0.25185898 -0.18940945 0.028778568 -0.062415518 0.13852656 0.19402255
00000000: cb48 7a3e a259 893e adae b83e 952e 473e
00000010: 4f7e e03c c938 4dbd c68e 9cbe c5a4 00be
00000020: d469 13be 7c20 6cbe 1e8d 93bd bbab 023e
00000030: 9358 a5be 8270 3ebc 0e74 ce3e 715a 053e
00000040: b0bd 32be 2f41 933b fd2b d93c 0bfa 85be
00000050: 55b8 09be 2bf1 bd3d 9655 49be 3441 41bd
00000060: 5f24 cb3d 224a 863e 7421 b13d 4d69 e4bd
00000070: 2adf 63bd f921 863e 7187 45bd a34d 993e
00000080: e8a7 563d 2905 913e ec3e d9bb c632 973d
00000090: 6e87 3abe 7d89 1abe 5ffa c53d def7 693d
000000a0: 7242 6e3e 9906 0a3e f034 e9bc d0b5 8d3d
000000b0: 9203 5f3c 15bd b03d 1f10 73be 9141 b0be
000000c0: db70 503d 7755 133e 8b60 aa3d 56e2 c43c
000000d0: b419 3ebe af37 3b3e 3b2b 273e b36d 99be
000000e0: 285b 3b3e ab2e b93e a55d 683e 4a73 973d
000000f0: 0c10 41be 2d57 32be 8bed a3bd f314 9fbd
00000100: 85fd 803e d953 91bc ad31 983e 6dee 4e3e
00000110: 6a24 273e 1e4d 14be 3b6e 96be 0af1 9abe
00000120: 3981 b6be ec84 18bb c88b 943e d4c6 1e3e
00000130: ab2f 5dbb 53f6 a43c 3aa3 1abc 7e46 843e
00000140: 363e 92be 1f14 6e3d 1f14 aa3d caa5 3dbe
00000150: c9d3 733e ea78 b1bc b373 6cbe 501a 473e
00000160: ff50 b73d 72a1 acbe aa1c 5bbd dd71 06be
00000170: 74c7 cbbd ac27 ff3d 0d74 583e 4522 153d
00000180: 7c0e 6dbe a52f 19bf 4268 76be ff96 9b3d
00000190: 60c9 91bc 35d4 88be 8292 693e 05d3 8d3d
000001a0: c3c9 bfbe 8721 303e 0de2 1a3e 87dc bbbe
000001b0: 1f91 0e3e 2b43 5bbe d50a 0a3d a8ab 253c
000001c0: f4cf 503e 5ba8 5abe 5282 90be 1d17 eabe
000001d0: a808 d2be 30b4 803e a82e d53d b6ff 4e3e
000001e0: 3d61 d73d 76ab c9bd 2af5 373e ab65 bebd
000001f0: b4a4 383e ea7f bcbe db61 c7be 3b0f 1c3e
00000200: d096 3d3e 13f5 b43d daad f8bc b8e7 a23a
00000210: b6c4 83be 59df 523e 59a4 443e ce76 9bbd
00000220: 43f7 b4be 18f2 e0bd 76d7 943e 12b0 533e
00000230: c837 a43d 5cea 1b3e 4f22 27bd 27a7 cfbd
00000240: 76fe 0ebe 95ea 983b 7299 c53d 4a7e b8be
00000250: fdab c5be e772 e1bd c593 973d 9a02 6c3e
00000260: b8d2 3dbe b652 97bd bbd4 1cbf 8143 acbe
00000270: 47d8 ac3c 78b2 15bd 0205 083b 6bde 3ebe
00000280: d499 193d 4773 e93d a551 923e ee19 523d
00000290: fbd6 153e 459d 123e 63b2 60bd 57a1 18be
000002a0: f6fe d13d 8623 22be a22f ddbe f56d 2dbe
000002b0: 2729 973e ca86 5c3e b6be 693c 0ab4 f7bd
000002c0: 3fb2 a03d b81e b2bd f3e5 5e3e b901 b03e
000002d0: b510 cfbd b25f 8c3d 6156 89bd 793f acbe
000002e0: 8904 533e 842e 0a3e 1280 bcbe 883a 3b3e
000002f0: 8d76 553e 948c abbe 94ff 683e d682 2d3d
00000300: 3041 f3bd 72d9 223e b4e7 92bd c8fa acbd
00000310: 12d5 2fbe e63a 893e 450d 663e 250e 753e
00000320: e610 9ebd e9d8 403c 0bf5 53bd 7771 5f3e
00000330: 260f 01be 014d 82be 06bd 6abe 04f8 92bc
00000340: 47a4 a1be e5d5 533e 344a 85bd 89c3 c63e
00000350: 7126 863e 5381 823e 61eb 873e 7960 903d
00000360: c9d1 14be 614d a23d b4b4 9dbe bf54 e83d
00000370: b989 943e cc5e 26bd cfd9 2d3e ad5a 0f3e
00000380: 1f68 8fbe b887 0fbe 407b 3a3e 1da0 693e
00000390: fa16 4cbe 114c f8bd 2f2d 703d 4c69 b93d
000003a0: dba5 1bbe a0cd 743e e0de 283e 78c8 29be
000003b0: f934 96be 5d0c 9e3d 2fe7 ccbd 138d 57be
000003c0: 3584 693e 301a 313d 709a 3d3e 42a0 44bc
000003d0: 3f57 a3be d453 63be 6f76 eb3d 9db9 3fbe
000003e0: 2d69 1dbd f3de 453e a9f3 803e 8df4 41be
000003f0: 08c1 eb3c 6aa7 7fbd e8d9 0d3e d9ad 463e

cnn_features.0.bias f4 [32]
0.27652338 0.02514167 -0.22928672 0.045128923 0.19649684 0.19588488 0.21150707 -0.12139192
0.05668496 0.18377072 0.28198215 -0.02582183 -0.06737576 -0.1898304 -0.11985936 0.18569572
-0.21420681 0.21601829 -0.036108322 0.028653396 -0.09114999 -0.1395732 -0.2373877 0.03279507
0.26515207 0.15120323 0.24918441 -0.05776575 -0.021617016 -0.039406672 0.037363242 0.09366713
00000000: 7994 8d3e e7f5 cd3c 23ca 6abe 1bd9 383d
00000010: 7836 493e 0c96 483e 4f95 583e 549c f8bd
00000020: 7d2e 683d 642e 3c3e f75f 903e 4d88 d3bc
00000030: 4dfc 89bd e662 42be d378 f5bd 0527 3e3e
00000040: 0859 5bbe e633 5d3e 52e6 13bd 87ba ea3c
00000050: d9ac babd 47ec 0ebe c315 73be 2054 063d
00000060: 03c2 873e 05d5 1a3e 332a 7f3e c79b 6cbd
00000070: 2b16 b1bc e468 21bd 330a 193d 8dd4 bf3d

cnn_features.1.weight f4 [32]
0.899261 0.8756673 1.045044 0.811728 0.59189963 0.9974129 0.612826 0.6146551
0.82740784 0.61817455 0.9092526 0.7112564 0.822155 0.8559241 0.70964086 0.7093536
0.7891161 1.1738912 0.5605505 0.8719353 0.79731935 0.7656565 0.73839647 0.73487747
0.61307263 0.7771766 1.0819956 0.6970212 1.0337064 0.97210735 0.99491084 0.88858473
00000000: f835 663f bb2b 603f 00c4 853f 68cd 4f3f
00000010: bc86 173f 7456 7f3f 2ae2 1c3f 095a 1d3f
00000020: 00d1 533f b040 1e3f c7c4 683f e614 363f
00000030: c078 523f d81d 5b3f 06ab 353f 3398 353f
00000040: 8303 4a3f 1142 963f 3d80 0f3f 2737 5f3f
00000050: 1f1d 4c3f 1002 443f 8d07 3d3f ee20 3c3f
00000060: 54f2 1c3f 0cf5 463f d57e 8a3f fb6f 323f
00000070: 7e50 843f 07dc 783f 7ab2 7e3f 4a7a 633f

cnn_features.1.bias f4 [32]
-0.06442479 -0.1235236 -0.023845935 -0.1576821 0.29154238 -0.038708013 -0.29943115 -0.29297394
-0.13561264 0.3007132 0.054230437 -0.22896855 -0.14821531 -0.10536912 -0.3283699 -0.19705799
-0.15137047 -0.00047898 0.30444872 -0.09362659 0.14507973 -0.19213551 0.19083118 -0.24180682
0.30606446 0.1600944 -0.007832394 0.2201641 -0.06356609 -0.007916752 0.032179743 0.07561063
00000000: 25f1 83bd f1f9 fcbd 8d58 c3bc 6b77 21be
00000010: 0b45 953e 4b8c 1ebd 0a4f 99be ae00 96be
00000020: 0ade 0abe 15f7 993e bc20 5e3d bb76 6abe
00000030: c1c5 17be c4cb d7bd 1920 a8be 92c9 49be
00000040: dc00 1bbe 9b1f fbb9 b4e0 9b3e 4cbf bfbd
00000050: c88f 143e 2cbf 44be 4069 433e 359c 77be
00000060: 7bb4 9c3e c9ef 233e 7153 00bc b372 613e
00000070: f02e 82bd 44b5 01bc e8ce 033d bfd9 9a3d

cnn_features.1.running_mean f4 [32]
-20.217754 5.7942524 2.020916 -32.436398 -10.572114 8.035901 -11.0393305 -3.0515285
-3.0564213 4.0356336 41.880802 14.535467 51.216625 -20.018194 -7.1957555 -2.620383
33.06612 46.36965 3.2262256 -34.064705 3.4528806 3.100377 1.5771978 -45.290676
-1.6473497 -8.017802 2.311308 18.336855 -22.758738 0.7615929 1.858049 -32.06033
00000000: f6bd a1c1 846a b940 b056 0140 dfbe 01c2
00000010: 6127 29c1 0d93 0041 19a1 30c1 3e4c 43c0
00000020: 689c 43c0 e923 8140 f185 2742 4691 6841
00000030: d3dd 4c42 4325 a0c1 a143 e6c0 5bb4 27c0
00000040: b543 0442 867a 3942 7b7a 4e40 4242 08c2
00000050: fffb 5c40 946c 4640 9ee1 c93f a729 35c2
00000060: 5bdc d2bf eb48 00c1 78ec 1340 e1b1 9241
00000070: e511 b6c1 c1f7 423f 8dd4 ed3f c73d 00c2

cnn_features.1.running_var f4 [32]
114.914185 15.2229185 22.130129 144.22595 21.857574 18.716408 39.46466 45.515022
4.923554 16.10313 271.06607 49.2019 393.85522 73.839745 16.164345 17.448357
164.4175 318.00427 34.280582 166.69914 14.489523 7.4117665 31.328693 289.00232
13.54431 17.793434 25.50861 69.7669 71.22345 19.702274 14.058979 152.61855
00000000: 10d4 e542 1391 7341 810a b141 d839 1043
00000010: 50dc ae41 34bb 9541 d0db 1d42 620f 3642
00000020: c18d 9d40 36d3 8041 7588 8743 bfce 4442
00000030: 78ed c443 f3ad 9342 9450 8141 3c96 8b41
00000040: e16a 2443 8c00 9f43 511f 0942 fbb2 2643
00000050: 16d5 6741 312d ed40 2aa1 fa41 4c80 9043
00000060: 7eb5 5841 f458 8e41 a211 cc41 a788 8b42
00000070: 6872 8e42 429e 9d41 94f1 6041 599e 1843

cnn_features.4.0.weight f4 [32, 1, 3, 3]
0.10412396 0.19513895 -0.17478138 0.16375145 0.072051436 0.10638954 -0.039149575 0.33702344
0.26296347 -0.309162 -0.156501 -0.34089625 -0.22309244 -0.1169048 -0.3056592 -0.12774125
-0.051618915 -0.13471317 -0.118916236 0.20463952 -0.1587257 -0.14472431 0.29435632 0.46656126
0.1891587 -0.16920103 -0.055462625 0.11876764 -0.13905752 -0.10129673 0.091524504 0.33761925
-0.24171 0.20038083 0.04150582 -0.09554582 0.06530637 -0.01201135 -0.0906006 0.18079959
0.24167901 -0.28148076 -0.11024218 0.24389446 -0.3036282 -0.018662713 -0.06626603 -0.14746448
0.18209742 0.2244125 0.024863219 -0.08776775 -0.035602923 -0.23939556 -0.07182327 0.011679839
-0.102513686 0.31248915 0.4451565 0.070545055 0.16403691 0.013394583 0.2839699 0.04683908
0.002739987 -0.3305284 0.22247308 -0.22519107 0.34579265 -0.14068228 -0.07277609 0.20629911
-0.1649029 -0.031164384 0.078835025 -0.11844005 0.3647364 0.12824263 0.15490177 -0.18018952
-0.2803799 -0.2720634 -0.2084033 -0.11414921 0.1117823 0.09690238 -0.07633352 -0.49479473
-0.3684954 -0.089064196 0.17846474 -0.050283074 -0.1377471 -0.17923538 -0.2753008 -0.30078784
0.036718138 0.059471186 0.117523365 0.04781671 -0.09965885 -0.31944486 0.108431086 -0.061800692
0.06111982 0.062122982 0.24486926 0.3753722 -0.117172085 -0.3136885 0.087959394 0.010485919
0.29602188 0.17642564 0.0030702339 0.22396356 -0.030992098 -0.022578403 -0.094781086 -0.049881622
0.21213992 0.02491112 0.3650675 -0.23517592 -0.24449949 0.019920519 0.0753766 -0.13049464
0.27095068 -0.28429535 0.04515694 0.31066844 -0.017503608 -0.19168842 0.20903389 -0.3088649
-0.2819313 -0.0027998113 -0.0058024013 0.1752273 0.26471004 0.14415999 0.062913984 0.16655083
-0.12212153 -0.13777162 -0.22459885 -0.15193695 0.082798734 0.34620187 -0.15383996 0.2497006
0.028688507 -0.41529003 -0.3106514 -0.00866594 -0.15405874 -0.118197516 0.22828625 0.06055232
-0.21170501 -0.042185824 0.25476995 -0.17300732 0.075184815 -0.12788683 -0.13328874 0.10781584
0.16942535 -0.26700658 -0.11079373 -0.09399348 0.08869581 -0.111520745 -0.24412379 -0.2745695
-0.055021882 0.06701487 0.05719298 0.30486804 -0.47780502 0.29082024 -0.22466624 -0.017463747
-0.049779702 -0.17941785 -0.20298105 0.12976635 -0.1605111 0.086143255 -0.3912796 -0.21328352
-0.06973415 -0.26980558 -0.0038219783 0.092619024 -0.40168533 -0.12667298 0.12344326 0.100171916
0.19006117 -0.22357616 -0.28675956 -0.14889573 -0.00043284494 0.27019304 0.23594715 -0.3452667
0.07601278 0.23456492 -0.0036539084 -0.058259435 0.1643227 0.24699427 -0.0441778 0.04905085
-0.006166885 -0.27644426 0.027982756 -0.07072084 -0.19211298 0.08543852 -0.09726271 -0.3441503
-0.10481982 0.012450948 0.4763899 -0.020984018 -0.18672031 0.12435685 -0.010868187 -0.04482565
0.2747909 -0.28940338 0.03459544 0.1310162 -0.14280388 -0.00524776 -0.22306637 -0.19262418
-0.27756113 -0.16685775 -0.28974995 -0.22108184 -0.35051078 -0.06315404 -0.25728124 -0.13754587
-0.13870975 0.22827113 0.26649672 -0.015092778 -0.23745972 -0.38830858 -0.33881974 0.22047268
00000000: f13e d53d 81d2 473e e4f9 32be 76ae 273e
00000010: b48f 933d c2e2 d93d 4e5b 20bd 568e ac3e
00000020: 26a3 863e 7b4a 9ebe cc41 20be f489 aebe
00000030: 5872 64be c96b efbd 5d7f 9cbe 9ace 02be
00000040: 5b6e 53bd 40f2 09be 5b8a f3bd 068d 513e
00000050: fd88 22be 9c32 14be dfb5 963e 1ee1 ee3e
00000060: d1b2 413e 0943 2dbe c72c 63bd 733c f33d
00000070: 1865 0ebe a974 cfbd 3371 bb3d 6edc ac3e
00000080: d482 77be a230 4d3e 0202 2a3d 87ad c3bd
00000090: 59bf 853d 41cb 44bc cf8c b9bd 8723 393e
000000a0: b47a 773e 3f1e 90be a7c6 e1bd 78bf 793e
000000b0: 2875 9bbe 8ce2 98bc 7cb6 87bd ee00 17be
000000c0: bf77 3a3e 64cc 653e f3ad cb3c 94bf b3bd
000000d0: 5fd4 11bd 1c24 75be 1418 93bd cc5c 3f3c
000000e0: b2f2 d1bd 94fe 9f3e 8eeb e33e ed79 903d
000000f0: 4bf9 273e f474 5b3c 8164 913e 56da 3f3d
00000100: 5b91 333b 053b a9be fccf 633e 7d98 66be
00000110: bc0b b13e 040f 10be a10b 95bd 1340 533e
00000120: 4edc 28be 734c ffbc 4274 a13d b290 f2bd
00000130: bbbe ba3e 0952 033e 929e 1e3e 9a83 38be
00000140: f48d 8fbe e54b 8bbe ad67 55be 10c7 e9bd
00000150: 1eee e43d c174 c63d c054 9cbd bc55 fdbe
00000160: 6eab bcbe 4a67 b6bd 76bf 363e a0f5 4dbd
00000170: 930d 0dbe 7b89 37be 3af4 8cbe dd00 9abe
00000180: c265 163d 0f98 733d 17b0 f03d 74db 433d
00000190: f019 ccbd 478e a3be 1e11 de3d b922 7dbd
000001a0: c758 7a3d ab74 7e3d 02bf 7a3e c930 c03e
000001b0: ebf7 efbd c79b a0be 0e24 b43d 22cd 2b3c
000001c0: 2e90 973e eca8 343e fa35 493b b456 653e
000001d0: 24e3 fdbc 58f6 b8bc 961c c2bd ac50 4cbd
000001e0: 353b 593e 6812 cc3c 21ea ba3e f5d1 70be
000001f0: 135e 7abe 5b30 a33c 0c5f 9a3d 63a0 05be
00000200: 0cba 8a3e 298f 91be 7cf6 383d ef0f 9f3e
00000210: ba63 8fbc f849 44be fb0c 563e 8a23 9ebe
00000220: 4d59 90be 0a7d 37bb 1222 bebb c96e 333e
00000230: 1388 873e ad9e 133e 0cd9 803d 4d8c 2a3e
00000240: da1a fabd 0114 0dbe 3efd 65be 5c95 1bbe
00000250: 6292 a93d 5f41 b13e 3988 1dbe 84b1 7f3e
00000260: 2904 eb3c e5a0 d4be b30d 9fbe 96fb 0dbc
00000270: 93c1 1dbe 8a11 f2bd dfc3 693e b605 783d
00000280: 33c9 58be 0bcb 2cbd 3571 823e d528 31be
00000290: 7ffa 993d c4f4 02be d87c 08be 8dce dc3d
000002a0: d77d 2d3e 16b5 88be d3e7 e2bd a77f c0bd
000002b0: 26a6 b53d fd64 e4bd 96fb 79be 6094 8cbe
000002c0: a05e 61bd 183f 893d 3043 6a3d aa17 9c3e
000002d0: dca2 f4be 64e6 943e e80e 66be 2210 8fbc
000002e0: cde5 4bbd 50b9 37be 44da 4fbe 78e1 043e
000002f0: 065d 24be e06b b03d cd55 c8be ff66 5abe
00000300: c7d0 8ebd f523 8abe 287a 7abb 0baf bd3d
00000310: b3a9 cdbe 90b6 01be d2cf fc3d ef26 cd3d
00000320: 659f 423e 26f1 64be 26d2 92be 1f78 18be
00000330: 77ef e2b9 be56 8a3e 219c 713e ccc6 b0be
00000340: 97ac 9b3d c931 703e 6976 6fbb 72a1 6ebd
00000350: 3644 283e 11ec 7c3e c8f3 34bd 8be9 483d
00000360: 9513 cabb 1a8a 8dbe 183c e53c 16d6 90bd
00000370: 44b9 44be 64fa ae3d ac31 c7bd 7834 b0be
00000380: c6ab d6bd 10ff 4b3c 61e9 f33e ade6 abbc
00000390: 9c33 3fbe ceae fe3d 7b10 32bc 1a9b 37bd
000003a0: 65b1 8c3e ae2c 94be f3b3 0d3d 1c29 063e
000003b0: 2e3b 12be 67f5 abbb 836b 64be 463f 45be
000003c0: 7e1c 8ebe c2dc 2abe 1b5a 94be 4763 62be
000003d0: 2676 b3be e856 81bd 5eba 83be d3d8 0cbe
000003e0: ee09 0ebe e8bf 693e 4272 883e b347 77bc
000003f0: a428 73be 62d0 c6be c879 adbe 97c3 613e

cnn_features.4.1.weight f4 [32]
0.7449634 1.0459214 0.89919055 0.8913768 0.93449765 1.0107765 0.7586077 0.8741102
0.9414348 0.94673866 0.82842577 0.9309305 0.8902101 0.9899911 0.8854706 0.9248551
0.8138019 0.92746884 0.9193282 0.7772125 1.0787671 0.9608418 0.95597315 0.8564625
0.8768957 0.8290715 1.0302818 0.8655107 0.9157711 1.0545981 0.96906143 0.93199265
00000000: ecb5 3e3f c1e0 853f 5a31 663f 4531 643f
00000010: 3d3b 6f3f 2061 813f 1d34 423f b0c5 5f3f
00000020: df01 713f 775d 723f b613 543f 7651 6e3f
00000030: cfe4 633f 0f70 7d3f 34ae 623f 4ec3 6c3f
00000040: 5255 503f 996e 6d3f 1859 6b3f 66f7 463f
00000050: 0a15 8a3f baf9 753f a8ba 743f 2041 5b3f
00000060: 3d7c 603f 083e 543f 46e0 833f 1c92 5d3f
00000070: fa6f 6a3f 12fd 863f 6914 783f 1297 6e3f

cnn_features.4.1.bias f4 [32]
-0.29470152 0.22626074 -0.12023114 -0.17552681 -0.14165817 -0.34407878 -0.29176328 0.06225451
-0.51887995 -0.1164058 -0.090744205 0.029554486 -0.05701974 -0.282663 -0.27109993 -0.08561053
-0.1661959 -0.010761663 -0.13443154 -0.0046475506 -0.11690965 0.28373668 0.009653478 -0.24187842
-0.2855151 -0.14046928 0.11511035 -0.10735636 0.032057337 0.0038279102 0.051119756 -0.054271966
00000000: 1ee3 96be e5b0 673e be3b f6bd 4dbd 33be
00000010: d70e 11be 182b b0be ff61 95be 96fe 7e3d
00000020: 51d5 04bf 2a66 eebd 19d8 b9bd 401c f23c
00000030: 888d 69bd 34b9 90be 9ccd 8abe 9354 afbd
00000040: 422f 2abe b051 30bc 6ca8 09be 7b4a 98bb
00000050: 546e efbd ef45 913e 9f29 1e3c faae 77be
00000060: 092f 92be 2ed7 0fbe fabe eb3d a7dd dbbd
00000070: 8e4e 033d addd 7a3b f362 513d 484c 5ebd

cnn_features.4.1.running_mean f4 [32]
0.4464685 -0.8060111 0.30172104 0.06262546 -0.03702431 -0.08308735 0.19599748 0.0076992493
-0.028634053 -0.8321382 -0.26564735 0.11228926 0.11750495 0.004560402 0.074717134 0.06473345
-0.016487313 -0.5317845 -0.12036911 -0.10987509 -0.53072613 -0.4425914 0.118098505 0.073239006
-0.65448576 0.20270063 -0.7186828 -0.3486467 -0.618887 -0.10809536 0.097252525 -0.1142263
00000000: 8597 e43e be56 4ebf 2e7b 9a3e c741 803d
00000010: cea6 17bd b329 aabd 90b3 483e fc49 fc3b
00000020: f691 eabc 0207 55bf ee02 88be e9f7 e53d
00000030: 6fa6 f03d 6d6f 953b 4c05 993d f992 843d
00000040: 6710 87bc 0723 08bf 1484 f6bd 3106 e1bd
00000050: abdd 07bf 579b e2be a1dd f13d 55fe 953d
00000060: 618c 27bf c190 4f3e 99fb 37bf d281 b2be
00000070: 616f 1ebf 1a61 ddbd 552c c73d 7aef e9bd

cnn_features.4.1.running_var f4 [32]
0.23213002 0.5947895 0.39828014 0.016559506 0.02196542 0.071051836 0.08322752 0.016954174
0.08131221 0.21070713 0.12141418 0.031431302 0.033197064 0.056880783 0.09367874 0.10548006
0.011562165 0.48827595 0.03200383 0.03389394 0.30260786 0.4072817 0.19265772 0.015782518
0.111100584 0.13663529 0.64997244 0.16186403 0.5896195 0.34755456 0.4804585 0.037903983
00000000: 7eb3 6d3e 2044 183f 60eb cb3e cda7 873c
00000010: d3f0 b33c a083 913d 3173 aa3d 7be3 8a3c
00000020: 0487 a63d 9cc3 573e ffa7 f83d 1cbe 003d
00000030: a5f9 073d d3fb 683d a4da bf3d ee05 d83d
00000040: 3c6f 3d3c 4eff f93e 7316 033d 5fd4 0a3d
00000050: 6bef 9a3e 3a87 d03e 1148 453e 574a 813c
00000060: b488 e33d 1fea 0b3e 9864 263f afbf 253e
00000070: 4ef1 163f acf2 b13e a8fe f53e 3541 1b3d

cnn_features.4.3.weight f4 [64, 32, 1, 1]
0.044133496 -0.02155064 0.17934997 -0.0579893 -0.20818119 0.13947435 -0.023631882 -0.12390344
-0.10945616 0.14516969 0.11058869 0.0133544775 -0.19841339 0.22386396 0.2051531 0.047158726
-0.23584954 0.08334502 -0.13870373 0.02919228 0.18587911 0.073492914 -0.22580476 -0.11143923
-0.02891595 0.053685687 0.27961576 -0.050223485 -0.10611302 0.16199367 -0.1934714 0.051556863
0.040583167 0.030888388 -0.12360283 0.06462779 0.30483827 0.07642272 -0.12735993 -0.016881825
0.086529635 0.06047775 0.09140869 -0.030720914 0.01892925 0.08009547 -0.03223695 -0.12550083
0.14164953 0.18493588 0.13132682 0.14761534 0.06237626 -0.027819725 0.1270001 -0.010837487
0.10932993 0.16829899 -0.07560652 0.19840579 0.07076773 0.22632806 0.1599155 -0.01610417
-0.02973458 0.30938855 -0.046627328 0.07899387 -0.041711934 0.09865809 -0.09510975 -0.06666018
-0.08092993 0.37171465 -0.32289734 0.17306101 0.19983973 0.06189968 0.16457146 0.09026361
0.04886587 -0.13085657 0.006133141 -0.043778595 0.10021216 0.33864385 -0.009866526 0.14616135
0.060965337 0.06933963 0.014800793 0.12715833 0.17015462 0.11724283 0.065524854 0.102373034
0.2877387 0.12676369 0.14793177 -0.10296024 0.049158443 -0.039553195 0.114491336 -0.09800427
-0.05378743 0.13740242 0.014100378 0.015265573 -0.040366672 0.027566485 0.022004005 0.0083179185
-0.19974671 0.0024697795 0.028037326 0.11387835 0.43155348 0.05322716 -0.07733556 -0.020318793
-0.039330773 0.08646862 0.06916956 0.0019509618 -0.09415169 -0.07189991 -0.039715357 0.0065023187
0.00396382 0.07205458 -0.14935537 -0.089331284 0.16412847 0.012088578 0.06725917 -0.07816635
0.103671804 -0.105502106 0.1259074 -0.14438927 0.07253965 -0.18440236 -0.035849374 0.10307366
-0.08584018 -0.025650758 0.08378905 0.011668452 0.42141208 -0.24956751 -0.0036533978 -0.10770568
-0.017308729 0.050701898 -0.026680246 -0.059790738 -0.031568427 0.06049321 -0.02848482 -0.19505157
-0.19153072 0.19460413 -0.25721073 -0.34482655 0.089339375 0.070150845 -0.2513544 0.16856284
0.00403816 -0.09387092 -0.11430444 0.06931511 -0.016048066 0.051279552 -0.12586929 0.10853859
-0.05409534 0.11747506 0.18447797 0.2245553 0.22660258 -0.0054770517 -0.030702004 -0.16452634
-0.12919062 0.04925316 -0.10014291 0.03932264 0.19736543 0.10795715 -0.01557301 0.10736745
0.01995861 0.056714375 0.101489425 -0.043062076 -0.11141781 -0.2064034 -0.20509784 0.018765386
-0.07350075 -0.047157526 -0.23494788 0.0677345 0.15459406 -0.008923888 -0.1626679 -0.17606248
0.04139283 -0.27428752 0.15960957 0.08219333 -0.1012518 0.0883023 0.1430974 -0.123640105
0.053891223 -0.13878474 -0.27973372 -0.34165984 0.09535341 0.14014125 -0.06831372 -0.16399097
0.24160884 0.24916163 0.012699054 -0.012730407 -0.048144873 0.010851625 0.28479287 -0.07617441
-0.05311085 0.027431443 0.03969552 0.08642827 0.031181274 0.12483414 0.04788714 0.0048815
-0.052620843 0.0047763544 0.037502855 0.1016152 0.18857759 0.35849214 -0.036425576 0.004815942
0.07221872 0.01662059 0.18629646 0.08941901 0.005538825 0.11136117 -0.011183205 0.015963467
00000000: 53c5 343d f88a b0bc 85a7 373e 3086 6dbd
00000010: 732d 55be 5dd2 0e3e a697 c1bc 16c1 fdbd
00000020: 8d2a e0bd 5da7 143e 537c e23d bdcc 5a3c
00000030: e12c 4bbe 983c 653e a713 523e 8229 413d
00000040: 8b82 71be cbb0 aa3d 5a08 0ebe a624 ef3c
00000050: 1857 3e3e 7483 963d 5d39 67be 403a e4bd
00000060: 24e1 ecbc 86e5 5b3d cc29 8f3e 24b7 4dbd
00000070: c851 d9bd abe1 253e 5e1d 46be 4a2d 533d
00000080: 893a 263d a509 fd3c 7b23 fdbd 935b 843d
00000090: c313 9c3e 8483 9c3d a46a 02be c14b 8abc
000000a0: 7336 b13d 84b7 773d 7b34 bb3d 6daa fbbc
000000b0: 8411 9b3c 1809 a43d e40a 04bd 4a83 00be
000000c0: 930c 113e d55f 3d3e 8a7a 063e 7a28 173e
000000d0: 407e 7f3d 31e6 e3bc 500c 023e b78f 31bc
000000e0: 5fe8 df3d 9256 2c3e 97d7 9abd e32a 4b3e
000000f0: acee 903d 8bc2 673e e4c0 233e e4ec 83bc
00000100: ef95 f3bc 2d68 9e3e 4cfc 3ebd 8ac7 a13d
00000110: 22da 2abd 410d ca3d e7c8 c2bd 2285 88bd
00000120: 97be a5bd 6251 be3e cd52 a5be e836 313e
00000130: c9a2 4c3e 858a 7d3d 6c85 283e 21dc b83d
00000140: 9427 483d 44ff 05be 84f8 c83b 2f51 33bd
00000150: 083c cd3d ba62 ad3e 36a7 21bc 52ab 153e
00000160: cab6 793d f001 8e3d 067f 723c cb35 023e
00000170: 033d 2e3e 021d f03d e531 863d f4a8 d13d
00000180: 7d52 933e 57ce 013e 6d7b 173e d1dc d2bd
00000190: 5d5a 493d 8802 22bd 6f7a ea3d 76b6 c8bd
000001a0: 3550 5cbd 38b3 0c3e 4605 673c 741c 7a3c
000001b0: 8657 25bd 1cd3 e13c be41 b43c e147 083c
000001c0: 678a 4cbe 06dc 213b 89ae e53c 0d39 e93d
000001d0: 94f4 dc3e b904 5a3d 1b62 9ebd 9973 a6bc
000001e0: 4e19 21bd 7616 b13d c5a8 8d3d 6ab7 ff3a
000001f0: 9ad2 c0bd 4340 93bd 92ac 22bd 6711 d53b
00000200: efe2 813b 5a91 933d 9df0 18be 52f3 b6bd
00000210: 4b11 283e 2c0f 463c 2dbf 893d ae15 a0bd
00000220: e251 d43d 7d11 d8bd dfed 003e c8da 13be
00000230: ab8f 943d f9d3 3cbe cbd6 12bd 4818 d33d
00000240: facc afbd 8a21 d2bc 9899 ab3d 092d 3f3c
00000250: 53c3 d73e a08e 7fbe d86d 6fbb cc94 dcbd
00000260: 09cb 8dbc cbac 4f3d 8890 dabc 22e7 74bd
00000270: e54d 01bd bac7 773d ff58 e9bc 99bb 47be
00000280: a120 44be 4e46 473e 20b1 83be 1b8d b0be
00000290: 90f7 b63d 3fab 8f3d 86b1 80be bd9b 2c3e
000002a0: 8b52 843b 663f c0bd 7218 eabd 15f5 8d3d
000002b0: 3c77 83bc 820a 523d e1e3 00be 7b49 de3d
000002c0: 1393 5dbd c496 f03d cbe7 3c3e d3f1 653e
000002d0: 820a 683e d778 b3bb c582 fbbc 9879 28be
000002e0: 8c4a 04be aebd 493d ba17 cdbd c710 213d
000002f0: 2a1a 4a3e a318 dd3d f025 7fbc 77e3 db3d
00000300: 3d80 a33c 554d 683d b0d9 cf3d dc61 30bd
00000310: 052f e4bd 6a5b 53be 2b05 52be deb9 993c
00000320: 9087 96bd 4028 41bd 2d96 70be 63b8 8a3d
00000330: e84d 1e3e 8035 12bc 6a92 26be b949 34be
00000340: 878b 293d 6a6f 8cbe b170 233e fa54 a83d
00000350: 1b5d cfbd d6d7 b43d 2088 123e 0637 fdbd
00000360: 0bbd 5c3d 961d 0ebe 4239 8fbe 0aee aebe
00000370: a648 c33d 3081 0f3e 10e8 8bbd 40ed 27be
00000380: 4f68 773e 3a24 7f3e b10f 503c 3293 50bc
00000390: 8f33 45bd 04cb 313c 5fd0 913e 5401 9cbd
000003a0: c38a 59bd e8b7 e03c c597 223d 4e01 b13d
000003b0: df6f ff3c 0ba9 ff3d 4e25 443d fdf4 9f3b
000003c0: f488 57bd f782 9c3b 989c 193d a11b d03d
000003d0: 7c1a 413e 488c b73e fc32 15bd 0dcf 9d3b
000003e0: 69e7 933d e727 883c 80c4 3e3e 5021 b73d
000003f0: 087f b53b 5311 e43d c339 37bc d1c5 823c

cnn_features.4.4.weight f4 [64]
1.0259953 0.5815925 0.80966336 0.62690896 0.34918773 0.6773 1.2478925 0.69500476
0.49883682 0.5869917 0.7806112 0.90036446 0.33864322 0.87084377 0.802181 0.36652
0.6100973 0.8556848 0.72673523 1.01929 0.34052056 0.2907133 0.8684374 0.7153171
1.1950636 0.89693207 0.57762975 0.50876635 0.8862191 0.2845738 0.72797465 0.93264484
0.8323926 0.9627061 0.6974347 0.7015723 0.92600584 0.35712966 1.1821651 0.57116073
0.75799775 0.72865695 0.9552966 0.7250358 0.8762075 0.8537165 1.0361298 0.82385373
0.3237211 0.94672775 0.65425265 0.7555095 0.77119076 0.33628544 0.885051 0.3601916
0.75574166 0.34639946 1.1050612 0.76434404 0.27418256 0.98838943 0.8741567 0.7244143
00000000: d053 833f 3fe3 143f 1946 4f3f 1b7d 203f
00000010: bcc8 b23e 8863 2d3f f1ba 9f3f d5eb 313f
00000020: 8a67 ff3e 1745 163f 23d6 473f 497e 663f
00000030: a562 ad3e 9eef 5e3f bc5b 4d3f 82a8 bb3e
00000040: 562f 1c3f 290e 5b3f 520b 3a3f 1878 823f
00000050: b658 ae3e 60d8 943e ea51 5e3f 051f 373f
00000060: d8f7 983f 579d 653f 8bdf 133f 833e 023f
00000070: 41df 623f a8b3 913e 8c5c 3a3f d0c1 6e3f
00000080: ae17 553f e873 763f 158b 323f 3e9a 333f
00000090: b80e 6d3f b3d9 b63e 3051 973f 9737 123f
000000a0: 240c 423f 4389 3a3f 518e 743f f29b 393f
000000b0: 224f 603f 2a8d 5a3f e79f 843f 14e8 523f
000000c0: c6be a53e c05c 723f 1a7d 273f 1269 413f
000000d0: c26c 453f 9b2d ac3e b492 623f 096b b83e
000000e0: 4978 413f 455b b13e a572 8d3f 0dac 433f
000000f0: a861 8c3e 1707 7d3f bcc8 5f3f 3773 393f

cnn_features.4.4.bias f4 [64]
-0.10970486 -0.30055672 -0.15591326 -0.260538 -0.4580657 -0.2723608 -0.010617493 -0.22679965
-0.37940672 -0.32734936 -0.18845879 -0.06393722 -0.47435158 -0.1381865 -0.13367058 -0.47301796
-0.25513113 -0.10735355 -0.17447168 0.07882259 -0.48199204 -0.51932263 -0.08362484 -0.21849169
0.013545274 -0.06898044 -0.32533184 -0.37766472 -0.072507575 -0.4872016 -0.2415461 -0.03838542
-0.10689485 -0.08427913 -0.2737985 -0.2506132 0.09173881 -0.49595624 -0.048283022 -0.30422398
-0.2097087 -0.21132714 -0.109748 -0.18231958 -0.04133059 -0.13389795 0.03092031 -0.1450417
-0.47804335 -0.10118419 -0.23354074 -0.127248 -0.17671178 -0.49215096 0.10589719 -0.43573618
-0.1893924 -0.48543605 -0.042478215 -0.18003945 -0.50360596 0.08325835 -0.10900171 -0.22372395
00000000: f1ac e0bd 92e2 99be baa7 1fbe 3d65 85be
00000010: 9687 eabe e072 8bbe fef4 2dbc 2b3e 68be
00000020: 9941 c2be 569a a7be 57fb 40be 84f1 82bd
00000030: 36de f2be c380 0dbe f1e0 08be 692f f2be
00000040: 8ca0 82be 2edc dbbd b4a8 32be bd6d a13d
00000050: a9c7 f6be 54f2 04bf 8043 abbd 49bc 5fbe
00000060: ffec 5d3c 9e45 8dbd e591 a6be 455d c1be
00000070: da7e 94bd 7d72 f9be dc57 77be 083a 1dbd
00000080: b0eb dabd 899a acbd 512f 8cbe 6050 80be
00000090: 8fe1 bb3d faed fdbe 6bc4 45bd 3fc3 9bbe
000000a0: e1bd 56be 2466 58be 8fc3 e0bd fcb1 3abe
000000b0: 444a 29bd 8b1c 09be 974c fd3c d085 14be
000000c0: 19c2 f4be a839 cfbd 4e25 6fbe 4d4d 02be
000000d0: eff3 34be 36fb fbbe a0e0 d83d d018 dfbe
000000e0: 15f0 41be 138b f8be a3fd 2dbd 435c 38be
000000f0: 52ec 00bf 5b83 aa3d 4a3c dfbd e417 65be

cnn_features.4.4.running_mean f4 [64]
0.080939345 0.5539433 0.77234554 0.28634426 -0.11001917 0.2001937 -0.36938748 0.72597754
0.012686852 -0.2877547 -0.2359759 -0.20865169 0.18604891 -0.064936444 0.43121958 0.36253873
0.2862068 -0.024844546 0.24992782 -0.08481763 -0.23701349 0.31004632 -0.0018723654 -0.00438186
-0.5339284 0.11430398 -0.060571697 -0.41058302 -0.0027512424 0.049902063 0.40438277 0.16685705
-0.2908826 0.15954833 0.12600802 0.7449188 -0.2558755 -0.18224557 0.10007933 -0.032196216
0.18820806 0.121942006 0.962441 -0.08203484 -0.3573901 0.23406671 0.15920065 -0.27314457
-0.6614082 0.16752534 -0.28091162 -0.61451274 -0.097371764 -0.742914 -0.058575455 0.3885209
-0.16625263 -0.40430465 0.46156487 0.3218674 -0.24708915 0.023068348 0.06000366 0.17306602
00000000: 87c3 a53d 3acf 0d3f 70b8 453f b79b 923e
00000010: bb51 e1bd 94ff 4c3e 5b20 bdbe aad9 393f
00000020: 84dc 4f3c 9654 93be aba3 71be caa8 55be
00000030: 9b83 3e3e 66fd 84bd d0c8 dc3e ad9e b93e
00000040: b389 923e ca86 cbbc 14ed 7f3e deb4 adbd
00000050: aab3 72be 64be 9e3e 286a f5ba b595 8fbb
00000060: 88af 08bf 3418 ea3d 071a 78bd f037 d2be
00000070: 304e 34bb 1b66 4c3d 420b cf3e 93dc 2a3e
00000080: 90ee 94be a360 233e 3f08 013e 00b3 3e3f
00000090: 1d02 83be 959e 3abe 64f6 cc3d 2ee0 03bd
000000a0: 9db9 403e bbbc f93d 8962 763f e201 a8bd
000000b0: d6fb b6be 2faf 6f3e 7f05 233e 9bd9 8bbe
000000c0: 0c52 29bf c38b 2b3e a6d3 8fbe b550 1dbf
000000d0: d96a c7bd 9d2f 3ebf d1ec 6fbd 36ec c63e
000000e0: 213e 2abe 0501 cfbe 3b52 ec3e cecb a43e
000000f0: f004 7dbe d5f9 bc3c 66c6 753d 3838 313e

cnn_features.4.4.running_var f4 [64]
0.23683079 0.13756202 0.13772306 0.14520036 0.11786127 0.28296167 0.34583354 0.19263698
0.17880699 0.16413264 0.15216254 0.36442006 0.2929263 0.23203187 0.25767505 0.17099856
0.17955573 0.15808855 0.24653308 0.21474561 0.44507402 0.48183164 0.12233411 0.14187491
0.3383299 0.29160324 0.2127044 0.21110046 0.17725016 0.1684172 0.20146775 0.34924638
0.1707286 0.29564896 0.18772396 0.1663071 0.20852286 0.3224141 0.26101208 0.2925744
0.32825953 0.14008231 0.27257416 0.2098191 0.19470301 0.27953792 0.2370146 0.1290022
0.5022241 0.19853683 0.13967007 0.1200146 0.30090144 0.15948859 0.5315649 0.2724928
0.15131047 0.283475 0.2877064 0.16878071 0.25799647 0.2178175 0.23478995 0.19581716
00000000: c583 723e 0fdd 0c3e 4607 0d3e 67af 143e
00000010: 4061 f13d 5ae0 903e 1811 b13e a142 453e
00000020: 2e19 373e 6312 283e 7fd0 1b3e 4495 ba3e
00000030: 70fa 953e c399 6d3e fced 833e 3f1a 2f3e
00000040: 75dd 373e f7e1 213e 2b73 7c3e 46e6 5b3e
00000050: bee0 e33e a3b2 f63e 4e8a fa3d a847 113e
00000060: 9439 ad3e 054d 953e 2fcf 593e b82a 583e
00000070: 1181 353e 8f75 2c3e 904d 4e3e 6cd0 b23e
00000080: 7ad3 2e3e 4d5f 973e b63a 403e 694c 2a3e
00000090: 0487 553e 7613 a53e 60a3 853e 50cc 953e
000000a0: a211 a83e bd71 0f3e d78e 8b3e d1da 563e
000000b0: 3a60 473e 981f 8f3e f5b3 723e 2719 043e
000000c0: c291 003f 3d4d 4b3e ac05 0f3e 37ca f53d
000000d0: c10f 9a3e fa50 233e a314 083f 2d84 8b3e
000000e0: 22f1 1a3e a323 913e 414e 933e dad4 2c3e
000000f0: 1d18 843e 8d0b 5f3e c76c 703e 4b84 483e

cnn_features.7.0.weight f4 [64, 1, 3, 3]
0.28878662 0.111906305 -0.07927591 -0.29417452 -0.33492443 -0.23993002 0.24215889 0.10753981
-0.2786207 0.08877282 -0.29137513 -0.13504499 0.17270668 -0.26197428 -0.13822056 0.20921703
0.029990474 0.11036918 0.19199961 0.051621653 0.10992905 -0.15222226 -0.054537326 -0.16050343
-0.36066195 -0.08211661 -0.35752586 -0.14861354 0.16712593 0.010141526 -0.564773 -0.21236172
-0.038611677 0.18002038 -0.3611193 -0.21995543 0.16771623 0.27366993 0.13826256 0.20955835
0.24988487 0.11636813 0.11626192 0.2207195 0.022114346 0.20157348 0.25188395 0.2142137
0.102623895 0.10510826 -0.021212485 0.20049147 0.211846 0.23543549 -0.37598112 0.047628473
-0.6225802 -0.1283566 -0.03353376 0.14324722 -0.05032566 0.18014756 0.029922651 -0.13105804
-0.035630748 0.09980384 -0.25133264 -0.49716687 -0.32566294 0.26595053 0.025544133 -0.06685441
0.21871293 0.08476746 0.28901595 -0.10817084 0.13135807 -0.19225897 -0.08984877 -0.20333426
-0.13643195 0.2946802 0.2137175 -0.09809331 0.030437803 -0.10084072 0.04212514 -0.12611127
-0.29005826 -0.12032032 -0.049603764 -0.05568446 0.27107486 2.1460698e-06 0.12543261 0.27161953
-0.29290247 -0.28220993 -0.380912 0.2066802 0.10418246 0.1492938 -0.006926365 0.08959413
-0.018505529 -0.2836432 -0.097758085 -0.33201402 0.19170552 0.25317967 0.35272855 0.35679218
0.15657143 0.31398216 0.100756995 0.02594923 0.2938565 -0.215544 -0.07818936 -0.21178992
-0.037120797 0.1756215 0.10556915 -0.35632798 -0.27791753 -0.22783428 -0.17068097 0.22552575
0.18768595 -0.099313594 -0.257643 -0.33957916 -0.37609035 -0.03093465 -0.24352586 -0.36825228
0.028542025 -0.10922433 -0.07035517 0.106705725 -0.1248482 0.44954002 0.2243411 0.512095
0.34733516 0.28181967 0.16069113 0.3018982 0.22604822 0.305079 0.13639969 0.107324034
0.057234835 -0.29636762 0.16091414 -0.2633347 -0.2800947 -0.04411138 -0.2033542 -0.009733843
0.3835318 0.11759935 -0.058935434 -0.08880564 -0.018290108 -0.25202197 -0.413102 -0.17990705
-0.020130921 -0.20603818 -0.2797762 -0.24699046 -0.25609198 -0.28029838 -0.21733762 0.019166073
-0.17467529 0.2425037 0.16605045 0.26517445 0.27664524 0.38057008 0.09552818 0.09190553
0.14173026 -0.100056104 -0.008158307 0.06654 0.007188911 -0.21059142 0.15057062 0.00535347
-0.04776048 -0.3378234 -0.21747614 0.3363053 0.30553517 0.40710947 -0.1730812 0.12631427
0.0320576 -0.07651583 0.14242902 -0.29931676 -0.22332811 -0.0762833 -0.37815613 -0.25555584
0.2536571 0.084936336 0.114405364 0.09556374 0.43103784 -0.29648638 0.17209347 0.20777133
0.3004512 -0.2014724 -0.21161418 0.0042892364 -0.106211685 -0.117673725 0.10472118 -0.011320458
-0.26302296 0.07668293 -0.120631695 0.2628306 -0.22375037 0.22880751 0.28218156 -0.12577695
0.26773944 0.17490953 -0.13515814 0.5117945 0.39143836 0.16657671 0.12601705 -0.04283619
0.27366138 0.056048524 -0.013344229 0.16884847 0.26566234 0.3093157 0.16282456 0.19882715
0.25330383 0.07943778 0.13512851 0.19430509 -0.22816184 -0.1382447 -0.27744368 -0.22678284
00000000: d7db 933e 222f e53d 695b a2bd 0b9e 96be
00000010: 377b abbe 37b0 75be 80f8 773e d53d dc3d
00000020: 5fa7 8ebe 86ce b53d 1f2f 95be 3c49 0abe
00000030: 05da 303e 7e21 86be b189 0dbe fd3c 563e
00000040: 95ae f53c 3d09 e23d 8c9b 443e 3a71 533d
00000050: 7b22 e13d 27e0 1bbe 8862 5fbd 035b 24be
00000060: afa8 b8be c12c a8bd a10d b7be 262e 18be
00000070: 0f23 2b3e a528 263c f794 10bf 5a75 59be
00000080: 4727 1ebd 4357 383e a1e4 b8be ff3b 61be
00000090: cebd 2b3e 771e 8c3e b394 0d3e 7796 563e
000000a0: d2e1 7f3e 6a52 ee3d bb1a ee3d 4b04 623e
000000b0: 2529 b53c 4769 4e3e eff6 803e d65a 5b3e
000000c0: 7a2c d23d 0043 d73d cec5 adbc a34d 4d3e
000000d0: 28ee 583e 0016 713e 9980 c0be 1316 433d
000000e0: 6a61 1fbf ea6f 03be b25a 09bd 66af 123e
000000f0: 4722 4ebd 9a78 383e 5920 f53c 1434 06be
00000100: 8cf1 11bd f565 cc3d acae 80be a88c febe
00000110: 4bbd a6be ab2a 883e ee41 d13c f7ea 88bd
00000120: 48f6 5f3e 909a ad3d e6f9 933e ac88 ddbd
00000130: bb82 063e 89df 44be a202 b8bd db36 50be
00000140: d1b4 0bbe 53e0 963e c3d8 5a3e 25e5 c8bd
00000150: b358 f93c 9485 cebd 698b 2c3d 5023 01be
00000160: 8482 94be 806a f6bd 512d 4bbd 6315 64bd
00000170: 53ca 8a3e 3305 1036 6871 003e b711 8b3e
00000180: 50f7 95be d27d 90be e606 c3be f9a3 533e
00000190: 9d5d d53d 79e0 183e 90f6 e2bb 217d b73d
000001a0: e898 97bc ae39 91be 6435 c8bd befd a9be
000001b0: 744e 443e c4a0 813e d698 b43e 77ad b63e
000001c0: 4354 203e 45c2 a03e af59 ce3d 7b93 d43c
000001d0: 5c74 963e 91b7 5cbe be21 a0bd 75df 58be
000001e0: fa0b 18bd 1fd6 333e a334 d83d 9f70 b6be
000001f0: 354b 8ebe 644d 69be fec6 2ebe 39f0 663e
00000200: bf30 403e ed64 cbbd c9e9 83be 52dd adbe
00000210: ea8e c0be aa6a fdbc d85e 79be 908b bcbe
00000220: f7d0 e93c 01b1 dfbd 5f16 90bd 8888 da3d
00000230: 6ab0 ffbd 1c2a e63e acb9 653e a818 033f
00000240: ead5 b13e ab4a 903e 378c 243e 6792 9a3e
00000250: 2f79 673e 5133 9c3e 5cac 0b3e b4cc db3d
00000260: 136f 6a3d 7fbd 97be adc6 243e ced3 86be
00000270: 9368 8fbe 22ae 34bd 153c 50be b27a 1fbc
00000280: 485e c43e eed7 f03d 4866 71bd bbdf b5bd
00000290: 23d5 95bc 0609 81be 1b82 d3be 8e39 38be
000002a0: 9ae9 a4bc acfb 52be d33e 8fbe 11eb 7cbe
000002b0: 7d1e 83be 4583 8fbe c18d 5ebe 2b02 9d3c
000002c0: 14de 32be e452 783e 2109 2a3e f2c4 873e
000002d0: 72a4 8d3e 15da c23e 47a4 c33d f738 bc3d
000002e0: bd21 113e 37ea ccbd 6baa 05bc 2046 883d
000002f0: f590 eb3b 47a5 57be 2f2f 1a3e 296c af3b
00000300: 7ea0 43bd 30f7 acbe 11b2 5ebe 3530 ac3e
00000310: 1b6f 9c3e a770 d03e 333c 31be 8758 013e
00000320: d44e 033d 55b4 9cbd ead8 113e 0c40 99be
00000330: 20b0 64be 6b3a 9cbd ae9d c1be 37d8 82be
00000340: 58df 813e 1af3 ad3d 5c4d ea3d ecb6 c33d
00000350: feb0 dc3e 10cd 97be 4539 303e 02c2 543e
00000360: bdd4 993e c84e 4ebe 63b1 58be b98c 8c3b
00000370: 8385 d9bd ecfe f0bd 0f78 d63d 7179 39bc
00000380: f2aa 86be f10b 9d3d c00d f7bd bb91 863e
00000390: d11e 65be 844c 6a3e 1a7a 903e accb 00be
000003a0: 2515 893e 7c1b 333e e566 0abe f704 033f
000003b0: 9c6a c83e 1693 2a3e 9d0a 013e 0075 2fbd
000003c0: 581d 8c3e 2393 653d c1a1 5abc 9de6 2c3e
000003d0: e504 883e a15e 9e3e 7bbb 263e 5899 4b3e
000003e0: 0ab1 813e 46b0 a23d 215f 0a3e eaf7 463e
000003f0: 42a3 69be 0590 0dbe 190d 8ebe c339 68be

cnn_features.7.1.weight f4 [64]
0.8572438 0.97364163 0.937329 0.773101 0.91400397 0.784914 0.7573272 0.72537446
0.8163934 0.77370524 0.88747925 0.79635584 0.775273 0.86097705 0.85701716 0.89025116
0.81486 0.9061313 0.77790475 1.1278664 1.095259 0.8974613 0.6887417 0.85237694
0.95529485 0.6570468 0.8328472 0.8896202 0.796793 1.0795982 1.0167243 0.76887953
0.910201 1.2214744 1.0787885 0.86932874 1.1948366 1.0158929 1.0968832 0.6413077
0.86647457 0.7358695 0.7997108 0.70068485 0.7348965 0.82826596 0.9659766 0.8773717
1.1385583 0.93192184 0.83892286 0.74543667 0.9370291 0.9184587 0.9071751 0.81818736
0.8569095 1.0800779 0.87439734 1.1089227 1.0144534 0.8661259 0.8357115 0.8791929
00000000: 5474 5b3f 9440 793f cbf4 6f3f f2e9 453f
00000010: 2afc 693f 20f0 483f 32e0 413f 24b2 393f
00000020: 28ff 503f 8c11 463f d731 633f fadd 4b3f
00000030: 4b78 463f fe68 5c3f 7a65 5b3f 80e7 633f
00000040: aa9a 503f 39f8 673f c424 473f ed5d 903f
00000050: 7231 8c3f 06c0 653f 6051 303f 6035 5a3f
00000060: 348e 743f 3834 283f 7935 553f 26be 633f
00000070: a0fa 4b3f 4630 8a3f 0624 823f 4ad5 443f
00000080: ef02 693f 4659 9c3f be15 8a3f 548c 5e3f
00000090: 68f0 983f c708 823f ab66 8c3f be2c 243f
000000a0: 47d1 5d3f f261 3c3f d9b9 4c3f 1560 333f
000000b0: 2d22 3c3f 3d09 543f 3e4a 773f 6f9b 603f
000000c0: 47bc 913f 6e92 6e3f a6c3 563f f0d4 3e3f
000000d0: 24e1 6f3f 1c20 6b3f a13c 683f ba74 513f
000000e0: 6c5e 5b3f fe3f 8a3f 81d8 5f3f 2ef1 8d3f
000000f0: 9cd9 813f 6dba 5d3f 30f1 553f c912 613f

cnn_features.7.1.bias f4 [64]
0.06584484 -0.21155195 0.04759445 -0.05252356 -0.18639931 -0.31201485 -0.19183211 -0.069229394
-0.3611353 -0.50512004 0.024161449 -0.2909092 -0.37848037 0.023874467 0.012017998 -0.32573876
-0.22697401 -0.087273456 -0.11504055 -0.05655565 -0.2110005 -0.25615183 -0.22491302 -0.26544976
-0.28261027 -0.2638603 -0.2793124 -0.36697593 -0.06653928 -0.2553173 -0.033682782 -0.109823905
-0.07959538 -0.08389573 0.028700793 -0.2610998 -0.12485198 -0.3139898 0.035741 -0.42146218
-0.03160724 -0.32272428 -0.12154392 -0.18682697 -0.19101949 -0.10451112 -0.25969598 -0.07479755
-0.27588034 -0.08088333 -0.21194106 -0.086765066 0.054718476 -0.23866639 -0.05800314 -0.24043389
-0.1740517 -0.19069903 -0.050333187 -0.14585666 -0.25147524 -0.07680928 -0.080897786 -0.03476623
00000000: a9d9 863d 13a1 58be 66f2 423d f222 57bd
00000010: 76df 3ebe 69c0 9fbe a36f 44be 24c8 8dbd
00000020: bae6 b8be 8c4f 01bf 3bee c53c 0df2 94be
00000030: 2ec8 c1be 6394 c33c 23e7 443c 3bc7 a6be
00000040: e06b 68be 6dbc b2bd 619a ebbd e6a6 67bd
00000050: 8410 58be 5526 83be 994f 66be 08e9 87be
00000060: 4bb2 90be b218 87be 0902 8fbe 45e4 bbbe
00000070: bf45 88bd f3b8 82be f5f6 09bd 5beb e0bd
00000080: e702 a3bd 86d1 abbd ed1d eb3c dfae 85be
00000090: 65b2 ffbd 45c3 a0be 2865 123d e4c9 d7be
000000a0: 9876 01bd 1e3c a5be 05ec f8bd 924f 3fbe
000000b0: 9d9a 43be ed09 d6bd dff6 84be 752f 99bd
000000c0: 3040 8dbe 29a6 a5bd 1407 59be e2b1 b1bd
000000d0: 7b20 603d f664 74be b394 6dbd 4d34 76be
000000e0: 9c3a 32be 9b46 43be 2c2a 4ebd 735b 15be
000000f0: 5dc1 80be 2f4e 9dbd bdad a5bd 0967 0ebd

cnn_features.7.1.running_mean f4 [64]
-0.311606 -0.06876954 -0.29677212 -0.3226209 0.10235848 0.37336192 -0.52769214 -0.2707377
0.002670983 -0.01664985 -0.12640192 -0.091603756 0.035831276 -0.44227925 -0.4249642 0.02576617
0.37901184 -0.23377177 -0.64564896 -0.31632903 0.0025597743 -0.0009401325 -0.41413116 0.3013257
-0.34849262 0.4414916 0.22793603 0.12990987 -0.23142467 0.01677265 -0.03907574 -0.114820346
-0.079167016 -0.2218169 -0.08223939 0.040737852 -0.31146917 0.0030602093 -0.5052621 -0.046737805
-0.74012405 0.5104581 -0.31028205 0.42089716 -0.22917633 -0.9484165 -0.12291443 -0.18242717
0.001950931 -0.18989821 0.16076033 -0.3501769 -0.40560415 0.020082578 -0.10095104 0.054027263
-0.09142732 0.011844002 -0.8619233 -0.10101976 0.002449225 -0.24637961 -0.3294167 -0.27984703
00000000: d28a 9fbe 0bd7 8cbd 84f2 97be 912e a5be
00000010: 53a1 d13d 4b29 bf3e d516 07bf 229e 8abe
00000020: a90b 2f3b 4465 88bc 816f 01be c09a bbbd
00000030: d1c3 123d 6d72 e2be e894 d9be 9313 d33c
00000040: d70d c23e de61 6fbe 4049 25bf e1f5 a1be
00000050: e3c1 273b 3973 76ba 0009 d4be 5d47 9a3e
00000060: a06d b2be 300b e23e 1068 693e 1807 053e
00000070: 97fa 6cbe cc66 893c e20d 20bd ee26 ebbd
00000080: 5122 a2bd f823 63be 206d a8bd bcdc 263d
00000090: e378 9fbe cb8d 483b db58 01bf 2470 3fbd
000000a0: c578 3dbf 62ad 023f 4add 9ebe d57f d73e
000000b0: 33ad 6abe 6ccb 72bf 90ba fbbd 30ce 3abe
000000c0: 62b6 ff3a ad74 42be 5b9e 243e 634a b3be
000000d0: 59ab cfbe 3884 a43c 6bbf cebd b14b 5d3d
000000e0: 3f3e bbbd 580d 423c 01a7 5cbf 73e3 cebd
000000f0: 2d83 203b f04a 7cbe 4ea9 a8be 1c48 8fbe

cnn_features.7.1.running_var f4 [64]
0.5134368 0.0896238 0.26026455 0.22650746 0.03334002 0.12691645 0.47675145 0.3263241
0.020671086 0.010939213 0.11327383 0.07476028 0.006557284 0.532007 0.53824526 0.0210151
0.21047169 0.31966567 0.8149097 0.36256957 0.00030937788 0.00281754 0.3581305 0.2578029
0.26699534 0.2970231 0.124999195 0.032821827 0.18227726 0.003848451 0.017315468 0.0703302
0.025987413 0.15482047 0.047506668 0.07085106 0.3924707 0.0004978632 1.1231185 0.030509232
1.1330699 0.39541054 0.26312044 0.36816075 0.069507554 2.1043377 0.08133127 0.1120054
0.00026602065 0.15854189 0.20863545 0.17455775 0.6350711 0.0026724068 0.06649111 0.020201392
0.03836409 0.010294495 1.4697646 0.045543786 0.0002249183 0.19453323 0.3745479 0.20421861
00000000: 9870 033f af8c b73d 6541 853e 92f1 673e
00000010: 8b8f 083d 63f6 013e c418 f43e f413 a73e
00000020: 6956 a93c 633a 333c 1cfc e73d eb1b 993d
00000030: 7cde d63b 9c31 083f 71ca 093f dc27 ac3c
00000040: e485 573e 38ab a33e ec9d 503f b8a2 b93e
00000050: ff33 a239 7aa6 383b e25c b73e befe 833e
00000060: 9db3 883e 6913 983e 94ff ff3d 2e70 063d
00000070: e4a6 3a3e 4b36 7c3b 2bd9 8d3c 4809 903d
00000080: 8ee3 d43c 4289 1e3e 5a96 423d 5c1a 913d
00000090: ebf1 c83e 0983 023a 59c2 8f3f 7fee f93c
000000a0: 6f08 913f 4073 ca3e b9b7 863e 917f bc3e
000000b0: fa59 8e3d 78ad 0640 0291 a63d 1663 e53d
000000c0: b078 8b39 ce58 223e 88a4 553e 44bf 323e
000000d0: 0594 223f 8c23 2f3b 7e2c 883d 647d a53c
000000e0: aa23 1d3d 3eaa 283c 3f21 bc3f 1f8c 3a3d
000000f0: 0cd8 6b39 b833 473e bec4 bf3e af1e 513e

cnn_features.7.3.weight f4 [128, 64, 1, 1]
-0.21274996 0.06674698 -0.05746597 -0.049338013 0.09729395 -0.0045723827 -0.0002750312 -0.00565134
-0.1138721 0.076552354 -0.20116736 -0.18189266 -0.027368823 -0.13835634 -0.11073859 0.0006437292
0.12376592 0.06088621 0.078798115 -0.019682381 0.124652594 -0.098493405 0.045250196 -0.08787918
-0.12205755 -0.120876014 0.11349331 0.14010659 -0.0052967696 -0.017758364 0.004869391 -0.15809302
-0.09473577 0.19799744 0.19732371 -0.045011193 -0.13526914 0.15354311 -0.022978736 -0.022320598
0.0817852 0.11580411 -0.09064646 0.06054969 -0.12895231 -0.08540939 0.1600481 0.018538726
-0.20181014 0.049152546 -0.0966023 -0.0010048737 -0.075581096 0.20423558 -0.114201374 -0.008790416
-0.21996923 -0.09033708 -0.0063835373 0.16669221 0.17768724 0.09645357 0.23736176 0.19280127
-0.15916742 0.19877918 -0.0971124 0.024288049 -0.14621525 0.15254712 0.070364304 -0.053264577
0.0023887393 -0.033762608 -0.009234575 -0.118554674 0.017426478 -0.11316406 -0.100643255 0.27970096
0.13871115 0.016458578 -0.080827765 0.16108307 -0.034080073 0.03986687 0.10828508 0.0095226895
0.21934928 0.04803234 0.1701998 -0.10071938 -0.17386112 0.071105935 -0.011178411 -0.056508403
-0.11824336 0.011473259 0.11815129 0.18816751 0.059107207 0.0052695 -0.21635266 -0.001945008
-0.09451712 0.11537295 0.083820306 0.13605383 -0.11870437 -0.050766665 -0.054419503 0.057907153
-0.064859495 -0.07225974 -0.04389493 -0.025125397 -0.1599655 -0.058053873 -0.13110915 0.041383043
-0.19924597 -0.048727296 0.051600266 -0.04419736 -0.1284721 0.15448521 0.106503576 0.01770123
0.21130852 0.024543948 0.014491967 -0.032139637 -0.13238381 -0.056217745 0.0788003 0.086574115
-0.05605947 0.17749931 -0.034430694 0.014340711 -0.012869873 0.002389192 0.10448938 0.1565916
-0.06205122 -0.051190082 0.011156012 0.023071278 0.023171496 -0.16420135 0.068063095 0.033899646
-0.069505624 0.16155367 -0.11854601 -0.15519926 0.28436822 -0.08507057 0.43121886 0.0075441413
0.009600884 0.08109454 -0.0978745 0.2654388 0.13782917 0.06681604 0.02227309 0.016423592
-0.0034609775 -0.0110222865 -0.04383889 0.11887929 0.05326241 -0.033501774 0.060470607 0.045725517
0.07724653 0.0011088453 0.10488448 -0.043114383 0.19023062 -0.08678752 0.07000416 0.17030911
0.10592404 -0.10699928 -0.006879297 0.036480203 0.060833223 -0.085827135 -0.058478456 -0.047485568
-0.08309027 -0.036183007 -0.10990445 0.046043456 -0.1257181 0.11597024 0.12215891 -0.063283004
-0.01955135 0.15857656 -0.0118731065 -0.0216061 0.023962703 -0.08178508 -0.097215384 -0.09968491
-0.118174 -0.058423858 0.045596212 -0.0389032 0.11057322 0.120051794 0.054747052 0.008146744
0.051650062 0.12660225 0.35120997 -0.003584116 -0.14018074 -0.021874223 -0.09117976 0.036057252
-0.06680733 0.101309314 0.3297955 0.034006678 -0.013999316 0.13901427 -0.124178134 0.07446884
-0.08079317 -0.0060898173 -0.039514616 -0.01733053 0.0260672 -0.052089393 -0.009959169 -0.06991125
-0.16797672 -0.0026306927 0.08199895 0.05636996 0.1828336 -0.03508778 -0.078572325 -0.01242167
-0.17803562 -0.069746226 -0.072720595 0.21823177 -0.021267314 0.14563136 0.09286777 0.029609932
00000000: 20db 59be a4b2 883d 7061 6bbd a816 4abd
00000010: 0d42 c73d edd3 95bb 1032 90b9 e02e b9bb
00000020: c735 e9bd 7bc7 9c3d d1fe 4dbe 1242 3abe
00000030: 9534 e0bc 49ad 0dbe eaca e2bd efbf 283a
00000040: fd78 fd3d d263 793d e860 a13d f23c a1bc
00000050: dc49 ff3d e9b6 c9bd 4558 393d 00fa b3bd
00000060: 4ff9 f9bd d88d f7bd 2e6f e83d 1a78 0f3e
00000070: 8690 adbb fd79 91bc 6a8f 9f3b 23e3 21be
00000080: d404 c2bd d7bf 4a3e 3a0f 4a3e a85d 38bd
00000090: fe83 0abe 683a 1d3e e73d bcbc b0d9 b6bc
000000a0: 007f a73d b52a ed3d daa4 b9bd f402 783d
000000b0: 130c 04be 1eeb aebd a6e3 233e 87de 973c
000000c0: 51a7 4ebe 2e54 493d 6dd7 c5bd f7b5 83ba
000000d0: 43ca 9abd 2223 513e 69e2 e9bd ad05 10bc
000000e0: 9d3f 61be a602 b9bd fe2c d1bb 5db1 2a3e
000000f0: a5f3 353e 7389 c53d f60e 733e b26d 453e
00000100: c9fc 22be c58c 4b3e dee2 c6bd bbf7 c63c
00000110: 73b9 15be 5035 1c3e 291b 903d f52b 5abd
00000120: 658c 1c3b a94a 0abd 9d4c 17bc cbcc f2bd
00000130: f9c1 8e3c 8fc2 e7bd 0d1e cebd f734 8f3e
00000140: 4c0a 0e3e 24d4 863c 0789 a5bd f6f2 243e
00000150: 8c97 0bbd 714b 233d 91c4 dd3d 0e05 1c3c
00000160: 199d 603e 8fbd 443d db48 2e3e f645 cebd
00000170: a608 32be fd9f 913d a725 37bc 5b75 67bd
00000180: 9329 f2bd 56fa 3b3c 4ef9 f13d fcae 403e
00000190: 661a 723d c5ab ac3b 8d8b 5dbe a4ef feba
000001a0: 3192 c1bd a748 ec3d fba9 ab3d b251 0b3e
000001b0: 471b f3bd b5f0 4fbd fce6 5ebd 0d30 6d3d
000001c0: 0ed5 84bd eafc 93bd 2ccb 33bd c7d3 cdbc
000001d0: ffcd 23be e6c9 6dbd 7a41 06be 4481 293d
000001e0: 2307 4cbe 4696 47bd cd5a 533d 4a08 35bd
000001f0: 318e 03be 5f31 1e3e 8c1e da3d 2b02 913c
00000200: 4361 583e 6410 c93c b76f 6d3c daa4 03bd
00000210: 9f8f 07be 9444 66bd 0d62 a13d c54d b13d
00000220: 9d9e 65bd 61c2 353e 3307 0dbd 4df5 6a3c
00000230: 29dc 52bc fe93 1c3b 87fe d53d 8c59 203e
00000240: 6c29 7ebd b1ac 51bd b5c7 363c faff bc3c
00000250: 26d2 bd3c 6624 28be aa64 8b3d 5bda 0a3d
00000260: f758 8ebd 536e 253e 40c8 f2bd 8eec 1ebe
00000270: b698 913e 7b39 aebd b8c8 dc3e d834 f73b
00000280: 074d 1d3c e514 a63d 6d72 c8bd 98e7 873e
00000290: 1723 0d3e d9d6 883d 0e76 b63c c58a 863c
000002a0: 91d1 62bb d296 34bc 6890 33bd fc76 f33d
000002b0: af29 5a3d 2839 09bd 07b0 773d ae4a 3b3d
000002c0: 6e33 9e3d ad56 913a adcd d63d b598 30bd
000002d0: d1cb 423e a8bd b1bd 575e 8f3d 8365 2e3e
000002e0: b4ee d83d 7022 dbbd ba6b e1bb 446c 153d
000002f0: 422c 793d 23c6 afbd 1b87 6fbd 3a80 42bd
00000300: 3b2b aabd a234 14bd 9615 e1bd 1098 3c3d
00000310: 3fbc 00be ce81 ed3d 732e fa3d 859a 81bd
00000320: 272a a0bc e561 223e 6b87 42bc 47ff b0bc
00000330: 6e4d c43c f07e a7bd dc18 c7bd 9a27 ccbd
00000340: 3605 f2bd db4d 6fbd 18c3 3a3d f658 1fbd
00000350: 3674 e23d b7dd f53d 723e 603d ec79 053c
00000360: 048f 533d 05a4 013e cbd1 b33e 7de3 6abb
00000370: 8a8b 0fbe 9231 b3bc 74bc babd c5b0 133d
00000380: 48d2 88bd 427b cf3d f5da a83e 964a 0b3d
00000390: 635d 65bc c259 0e3e 1b51 febd 1f83 983d
000003a0: e476 a5bd 178d c7bb 14da 21bd c1f8 8dbc
000003b0: e18a d53c b05b 55bd c82b 23bc a12d 8fbd
000003c0: 1702 2cbe b367 2cbb 11ef a73d 30e4 663d
000003d0: bb38 3b3e 34b8 0fbd 87ea a0bd 4384 4bbc
000003e0: f84e 36be 1cd7 8ebd 89ee 94bd 2678 5f3e
000003f0: ca38 aebc 6320 153e 7531 be3d 8790 f23c
