1-model selection/Basic CNN-GRU/cnn_gru_model_20250807_234024_best.pth (torch, 516955 bytes, 104 tensors)

cnn_features.0.weight f4 [32, 1, 3, 3]
00000000: 2e2a e3bd ac41 6ebe 4af2 8d3e cc17 023e
00000010: e990 3a3e f07c dcbd 9941 903d b011 c53e
00000020: 6547 043e ddab 22be 8cfb b3bc d60e ce3d
00000030: e3db d2bd 4525 12be 6cd7 23be fec1 983e
00000040: 6264 773e fdbb fc3d 1e0f e33d ff59 b0be
00000050: c874 0b3e a274 90bd 2257 e8bd caa8 513e
00000060: fe7c c8bc c65f 46bd 3943 823e 4e4d a4bd
00000070: 8df2 3d3e 9dcf f2bd a88c 1a3e aed1 5fbe
00000080: 7eb9 823e d099 3abe 343b 8bbe 192b cbbe
00000090: f464 b1bb 86c3 9e3e b808 cd3e 24c5 723e
000000a0: a0e7 713d ce73 fa3c 0ec0 e53d f480 cd3d
000000b0: 02a8 43be b8db a13e d4ac 57be 20bf f23c
000000c0: b86c 0ebe 0e0c 863e d3cc b5be 2000 673e
000000d0: 4c50 933e 2155 50be fb70 88be e402 d9bc
000000e0: dc95 5abe c90c 77be 5335 8e3e 6094 a5bd
000000f0: a913 9e3d fdf7 cd3c a7dd 9d3e 8852 d33d
00000100: 10e1 473e c45b a83c 0a9e 283e 8887 433e
00000110: 006c 983e 887e 523d 3218 9cbd 0df2 8dbe
00000120: 68c5 6e3e 7c8a 1d3e f641 623e befb 02bd
00000130: b772 7b3c 7f09 2dbe d054 683d 7f34 89be
00000140: b0b4 41be 7670 3e3e b3ad 0e3e 09b7 94be
00000150: 870a c7bd bdb6 37be b8c3 8abe 3e44 01be
00000160: 29a4 ccbd d3da bcbe 394d 9d3d d443 693c
00000170: ccc9 e0bd 9422 8f3e 90c0 0dbc f158 3abe
00000180: 5379 e43d 908a 81bc cefe 62be ccdb 92be
00000190: bb7b f4bb 6324 063e 232f 563e e22f 013d
000001a0: b933 b93d 4341 a4be 4bc4 563e 10f5 813d
000001b0: bbcc 903e 1fb8 a13d 83b0 833e 91ec 00be
000001c0: 0e7f 233e 9980 b9bd 81b0 8f3e 042d 03be
000001d0: ef1a 86be 6af6 72be d28b 2fbe 7aec 75be
000001e0: 034b 0d3d 9ca4 e43d 41f0 b0bd 5ff7 3d3e
000001f0: 1914 6a3c fe73 4b3e 20c9 22be b191 21be
00000200: a357 31be 3af9 de3d 521c ddba f730 223e
00000210: 6272 be3c 4cfb c1be 4e63 6dbd f50b d83c
00000220: 3a8a ae3c 1ef0 5d3d fb49 54be 2b97 533d
00000230: 70f4 763e d514 14be 0b3e af3d aab2 5f3e
00000240: 7b9c 85be 52ed 9bbc 950b c73c cad1 65be
00000250: f4ca 463e 8302 19bc 7317 5bbe 6bd2 813d
00000260: b3d9 f63d 46c4 59be d307 b4bc dd35 7cbd
00000270: 9a3c 84bd f8dd 57be 0480 323e 3865 ba3e
00000280: 783b 7a3e 529e 21bb a0e1 633e 6eac 513e
00000290: 8687 35be 8b92 503e 5c45 fdbd 9311 543e
000002a0: 9602 96be 4180 5abd 1fef 06bd b938 33be
000002b0: 9277 07be 6e52 fe3d 1e10 b63c c81a 00be
000002c0: 246f 5abe 299e 7a3e 8a3e 97be 6527 c7be
000002d0: b571 7b3e 63f7 2ebe 0761 9bbd fc7d b13e
000002e0: fce0 853d 4334 833c 5503 9b3e 6000 373d
000002f0: 9412 903d c959 953e 2e23 bb3d a754 3fbd
00000300: 0aaf 953d 0a2d 34be 84d1 1e3e 5365 f5bd
00000310: 6100 4c3e 1629 193e 4cb7 c0be cc05 8c3e
00000320: 0b53 79be bae6 7c3b a277 bbbe 34b0 92bc
00000330: 9eaa 0abe f30d 6f3d ab14 013e 6f4f 2f3e
00000340: 96d6 a13e 10c0 353e ffd2 083e 6bbe fdbc
00000350: 5293 e3bd 44d9 a9be 7be0 0fbe f6a6 4abe
00000360: 0bdf ee3d 412e b03e 73fc 7f3d d778 b43d
00000370: 7f1d 8dbe f6ba 893c 9fd3 d4be 8121 b73d
00000380: 043a 55bd 8532 e6bd 928f 7a3e 028f 433e
00000390: 088d c23d 0902 783e fd00 dcbc 40e0 3c3e
000003a0: ab3b b2be c667 5a3c 5e62 ba3d 8667 d73d
000003b0: c979 18be 6d0c 4f3e 22a0 20bd e64c 0dbe
000003c0: f532 d73d bd9b 26be 4d96 5fbe d204 933e
000003d0: c651 d63d 4ca2 67be 1063 1abd ad5d 61be
000003e0: 0232 263d e9e5 9ebe cade b8bc 4961 5d3e
000003f0: 9386 ce3c 64e0 95bd cf12 eebd 3c28 533c
-0.110920295 -0.2326724 0.27723914 0.1270439 0.18219341 -0.107660174 0.07043762 0.38490057
0.1291786 -0.15885873 -0.021970533 0.100614235 -0.10295846 -0.1427203 -0.16000146 0.29835504
0.24159387 0.123405434 0.11086868 -0.34443662 0.13618767 -0.07053496 -0.11344744 0.20474544
-0.024473663 -0.04843118 0.25441912 -0.08022557 0.18549557 -0.11856005 0.15092719 -0.2185733
0.25532144 -0.18222737 -0.27193606 -0.39681318 -0.005413646 0.31008548 0.40045714 0.23708016
0.059058785 0.030572798 0.11218272 0.100343615 -0.19107059 0.31612945 -0.21062022 0.029632151
-0.1390866 0.26181072 -0.3550783 0.22558641 0.287722 -0.20344974 -0.26648697 -0.026490636
-0.2134623 -0.24125971 0.27775058 -0.08084941 0.077185936 0.025142664 0.3083317 0.10318476
0.19519448 0.02055157 0.16466537 0.1909467 0.29769897 0.0513902 -0.076218024 -0.27723733
0.23317492 0.15384859 0.22095475 -0.03197836 0.015347174 -0.16898154 0.05672151 -0.26797864
-0.18916583 0.18597588 0.13933448 -0.29045895 -0.09718805 -0.17940803 -0.27102447 -0.12623689
-0.099922486 -0.368857 0.07680745 0.014237363 -0.1097599 0.2795607 -0.0086518675 -0.18197991
0.11155953 -0.015813142 -0.22167513 -0.28683317 -0.007461039 0.13099818 0.20916419 0.031539805
0.090430684 -0.3208104 0.20973317 0.0634557 0.28281197 0.078964464 0.25720605 -0.12590243
0.15966436 -0.09057731 0.2806435 -0.12810141 -0.26192424 -0.23726812 -0.17143181 -0.2401599
0.034495365 0.11164209 -0.08639575 0.18551396 0.014287018 0.19868466 -0.15897036 -0.15778233
-0.17318587 0.1088738 -0.0016869402 0.15838991 0.023247901 -0.37887037 -0.057956032 0.026372889
0.021306146 0.05418407 -0.20731346 0.051657837 0.24116683 -0.14461072 0.08556756 0.21845499
-0.26095948 -0.019034062 0.024297515 -0.2244331 0.19413358 -0.009338978 -0.21395664 0.06338962
0.120532416 -0.21266279 -0.021976387 -0.061574806 -0.06456871 -0.21080768 0.17431647 0.3640535
0.24436748 -0.0024661017 0.22254038 0.20475933 -0.1772748 0.20368402 -0.12366745 0.20709829
-0.29298848 -0.05334497 -0.032942887 -0.17502107 -0.13229206 0.12418066 0.022224482 -0.12510216
-0.2133146 0.24474396 -0.295399 -0.38897243 0.24555095 -0.17086558 -0.07586866 0.3466643
0.06537053 0.016016131 0.3027598 0.044678092 0.070347935 0.29170063 0.09137569 -0.04671159
0.07308777 -0.17595306 0.15509611 -0.11982217 0.1992202 0.1495708 -0.37639844 0.27348173
-0.24348085 0.0038589672 -0.3661471 -0.017906286 -0.13541648 0.058362912 0.1260554 0.17120145
0.3160903 0.17749047 0.13361739 -0.030974587 -0.111120835 -0.33173573 -0.14050476 -0.19790253
0.11663636 0.3441029 0.062496614 0.08812111 -0.27561566 0.016812783 -0.41567704 0.08941937
-0.05205728 -0.112401046 0.2446883 0.19097522 0.09499556 0.24219526 -0.02685594 0.1844492
-0.34811148 0.013330406 0.09100793 0.105177924 -0.14890207 0.20219584 -0.039215215 -0.13798866
0.10507766 -0.16270347 -0.21834679 0.28714615 0.10464816 -0.22620505 -0.03769213 -0.2200839
0.040575035 -0.31034783 -0.022567172 0.21619143 0.025210654 -0.0731819 -0.11624681 0.012888011

cnn_features.0.bias f4 [32]
00000000: 1dc7 7539 60f3 6f38 79aa eb36 48ca 8f37
00000010: b801 7d38 a946 22b9 65a4 1838 f578 9038
00000020: a6f9 a2b8 2f0a a3b8 6d6f a0b8 6671 3239
00000030: 39fc adb7 6a6f 1538 a105 e138 a880 89b8
00000040: e385 9635 f0be d3b7 1e05 5039 10d9 3a36
00000050: 5e7c fbb7 8ded f637 a6fe 0f39 2cbd 3b38
00000060: 6093 9738 343d aeb7 d6c5 b3b7 a29b 4eb9
00000070: 1561 cd38 f989 3c35 ead3 0d38 89b0 c7b7
0.00023439196 5.72087e-05 7.0233914e-06 1.7141123e-05 6.03215e-05 -0.00015475847 3.639273e-05 6.888985e-05
-7.7712626e-05 -7.7743425e-05 -7.650149e-05 0.00017017647 -2.0740657e-05 3.562813e-05 0.000107298845 -6.556633e-05
1.1214837e-06 -2.5242072e-05 0.00019838332 2.7842507e-06 -2.9979445e-05 2.9436103e-05 0.00013732407 4.4760454e-05
7.227692e-05 -2.0770916e-05 -2.1430587e-05 -0.00019703669 9.793245e-05 7.0236234e-07 3.381438e-05 -2.3804854e-05

cnn_features.1.weight f4 [32]
00000000: 52eb 4a3f ad0d 563f b155 383f a78b 2d3f
00000010: 24c7 343f 3e04 3d3f d1d7 093f 684a 0b3f
00000020: 2178 3e3f 1702 6d3f 8057 3a3f fc1c 413f
00000030: 8d5f 373f 4277 623f a4e0 393f 5e6a 4a3f
00000040: 70a7 543f 6a42 2e3f 1d07 4e3f 0de8 443f
00000050: 607c 1e3f c529 2f3f 30ec 443f 5850 373f
00000060: 6bfe 373f c24c 503f 3fd6 503f 05d0 463f
00000070: 2f53 3c3f 8de5 383f 8837 3d3f fc1e 263f
0.7926532 0.8361462 0.72005755 0.6779122 0.70616364 0.738346 0.53844935 0.5441041
0.7440205 0.92581314 0.72789764 0.7543485 0.71630174 0.88463223 0.726084 0.79068553
0.8306799 0.6807009 0.80479604 0.7691658 0.6190853 0.6842311 0.76922894 0.7160697
0.71872586 0.81367123 0.81576914 0.7766116 0.7356443 0.72225267 0.7391286 0.6489103

cnn_features.1.bias f4 [32]
00000000: 3883 113d 1b43 bf3c 293b 733d a1af 75bc
00000010: 5819 06be 6ee6 3c3d 7f6d bcbd c07e 55be
00000020: 2330 4f3d 0fbf 9d3c 09a5 3a3e 7b82 8e3d
00000030: 25c1 8fbd 1a73 063d b216 3b3e b069 663d
00000040: 769d 18bd 2405 2fbe c6bc e9bd 5e36 9b3c
00000050: 5c1b e3bd 81d4 0ebe e82e 8dbd 1e3c 38be
00000060: f159 023e 1520 9d3b 1ad7 243d 8eab 29bd
00000070: 9a92 00be 025b 3b3e 22b7 b4bd 0ace 8c3c
0.03552553 0.023347428 0.05938259 -0.0149954865 -0.13095605 0.046118192 -0.09200572 -0.20849133
0.050583016 0.019256143 0.18227018 0.06958481 -0.07019261 0.032824613 0.18270376 0.056253135
-0.03725954 -0.17091805 -0.11412959 0.018946823 -0.11089203 -0.13948251 -0.06893712 -0.17991683
0.12729622 0.0047950842 0.0402442 -0.041423373 -0.12555924 0.18296435 -0.08823992 0.01718809

cnn_features.1.running_mean f4 [32]
00000000: 00fd f8c1 3210 f0c0 8c2b 94c0 0bc2 e941
00000010: 9fa7 35c2 cef3 14c1 b73d bf40 f716 e8c1
00000020: a8c6 02bf 9b24 4042 adae 1640 a090 b2c0
00000030: 23d8 9ac1 bac5 fe40 1ca9 da41 9e69 6cc1
00000040: 28bf 5f41 3d64 16c1 f160 d2c0 12d1 2242
00000050: ddd9 12c2 b926 d5c1 f9b7 ea41 ed20 2b3f
00000060: 2eb2 b33f 1308 a7c1 276f 0d41 f44a e640
00000070: f17c 153f 3c61 f940 5423 9942 d9d9 0d42
-31.123535 -7.501977 -4.630316 29.219748 -45.413692 -9.309523 5.9762836 -29.011213
-0.51084375 48.035748 2.3544114 -5.5801544 -19.355536 7.9616365 27.332573 -14.775785
13.984169 -9.399472 -6.5743337 40.70417 -36.712757 -26.643908 29.33983 0.66847116
1.4038751 -20.878942 8.839637 7.1966496 0.5839377 7.7931194 76.569 35.46274

cnn_features.1.running_var f4 [32]
00000000: 71d8 1243 eb25 0c42 df31 1d41 b610 1343
00000010: 9273 9843 f017 cf41 7f55 f341 8846 0d43
00000020: 3a1e df41 6994 a743 810e 3141 850f 4041
00000030: 978a 8c42 054a 1742 d74e e242 033c 1742
00000040: 4909 0e42 d504 1642 3406 b341 c129 6e43
00000050: 0c26 4543 f4d0 c842 a318 0043 d188 4242
00000060: 0de0 b041 50b7 8d42 44e8 b141 dff1 4141
00000070: a6df 2441 8031 fd41 2e44 4d44 4f04 3443
146.84547 35.03703 9.824676 147.06528 304.9029 25.886688 30.416746 141.27551
27.88976 335.15945 11.066041 12.003789 70.27068 37.822285 113.153984 37.808605
35.509068 37.50472 22.378029 238.1631 197.14862 100.40811 128.09624 48.63361
22.1094 70.85803 22.23841 12.121551 10.304602 31.64917 821.0653 180.01683

cnn_features.4.0.weight f4 [32, 1, 3, 3]
00000000: 045e 14be 37a2 e13d b162 d43d e82e 12be
00000010: a857 21be 1150 a63e df44 87be d31e 953e
00000020: e04d 0f3e 92ec b13d 8d21 483e c9fb ff3d
00000030: 1e68 a93e a24e 41be 5837 983e 7739 c5bd
00000040: d054 ab3e 02ad bf3d 72cb 603e 1db5 3fbe
00000050: c639 803d 4cf3 f9bd 0950 adbe 19c0 083e
00000060: fc39 453e 0d71 0ebe d700 e23d dfa7 263e
00000070: ffc2 b8bd d6fb 2a3e edf0 873e c49a 8bbe
00000080: d225 bdbd f42a 963e 5722 383e 523d e53d
00000090: bd8c 67be 84e0 a63e ff92 20be 1d35 4b3d
000000a0: 6bfc 7d3e acf6 67be 4fb4 a93e d744 bbbd
000000b0: b99e 91be ec41 6ebe faf5 05be c641 cfbd
000000c0: 6bea 0ebf 9e38 a0be b06b 373e 99fb d5be
000000d0: 5e55 2a3e 4d64 30be e243 fb3d aa82 90bd
000000e0: 1133 9a3e c1b2 483e 84c8 ce3e 43ae 04be
000000f0: 5a8b 55be fba1 11be e4da 703d fbfc 8abe
00000100: 48a7 66be d2ee 403e b0f0 623e 32b7 523e
00000110: bde8 433e c601 0a3e 3897 6bbd b78a 38be
00000120: d6d1 83be befd 67be 71c8 b63d 2979 dabd
00000130: 6a01 863e 71b5 a23e 1d9e c9be 1c4b e23d
00000140: da55 adbd 594b 92bc 4ad9 81be 2e1d a0be
00000150: 353e e0bd 55a8 8b3e b31f a8bd 3dee ce3e
00000160: d8b2 8bbe 25c9 4c3e 6a34 023e f564 97bb
00000170: dd1a 0cbe c07d 8cbe b492 b03d 8432 c93c
00000180: 04f5 04be aa4c 8bbe c87c ae3e 8a78 61bd
00000190: 9820 933e 9150 7cbe c942 643b f963 3a3e
000001a0: 7125 213e 3d12 3fbe ce7b 853e 2894 33be
000001b0: 83d8 b33e 67d2 b83e d9bf 4fbd 4aaf 7ebd
000001c0: 1a57 a0be da92 5f3e 47a7 34bc 9d29 773e
000001d0: 3c42 233e 1ee9 86be bba2 843c 003c 8dbe
000001e0: 55d4 323c 5ae9 2fbc 542f a83e ef86 323e
000001f0: f1e5 d1bd a934 bcbc f726 4dbe 111e 75bd
00000200: 13ac a03e 7102 253e 279f 8bbd 896f 9c3e
00000210: 5714 87be 32c0 dc3c 7f63 d5bd 8e70 753e
00000220: c05d 6c3e a2ba c33e 80a3 7bbc fdae bcbd
00000230: e481 7c3c f5a4 053d 4a8f 8b3e d648 7d3e
00000240: fc45 77be 02bb 01be f3f5 efbd 9bbe 95be
00000250: c097 ae3e d4e1 85bd afcf e5be eb99 743d
00000260: c989 a33d 455f 83bd 71c6 4fbe deb7 693c
00000270: d015 e73d 0fab 823e 7496 02be 63ea 6e3e
00000280: 123b 36bd 7c93 99be 4f31 6f3e 4042 aebe
00000290: 2f02 c53d 2bf1 aabd beba 743e b7de 8abe
000002a0: 5158 6c3e 9119 0a3d 5f1b 8bbe 8703 f83b
000002b0: 57a6 bb3d e72a 893d 3675 9e3e 482e f73c
000002c0: dabc f63e 3484 63be f3d5 523e b368 453d
000002d0: 174c 8a3e a6fd 4d3d 89b9 de3e 1efc ca3d
000002e0: 30b1 c43e 83eb 6f3e 5c1b 73be b4af 81bd
000002f0: babc 4bbe 093a 8cbe 7464 783e 2a7f 16be
00000300: 07ac 8bbe f5ab bebe b060 9d3a e1e4 11be
00000310: 6943 b1bd f622 a8be 40fe 063d 7b6f ddbd
00000320: f87b 863e 74b7 5e3b 55db b5bc d79d a43e
00000330: 48b6 8dbe 2757 b1bd 713f 26be b72e 20be
00000340: 51fd 14be 8bde 3cbe 9416 3abe f47b 9cbe
00000350: b249 c1be 4ed6 4e3d 208a 9cbe 7da2 88be
00000360: eef3 373b 1a43 583e 768f 59be eb1d 30be
00000370: 4382 7cbe 8f02 ac3e 40d4 613d 73d1 6a3e
00000380: 6bf0 bcbe 9269 143e 6362 90be bcbf 8fbe
00000390: 982e 7e3c f881 aebd f0dc 73bd 9c25 be3c
000003a0: c4f0 71bd 7546 c6be 45e8 443e ac46 c2be
000003b0: 9804 18be 874c 49be 1d4f 46be cf72 1cbc
000003c0: f19b 66be ecdb cebe c29b a5bd 0a9a 8ebe
000003d0: 210f 7cbd 62d4 99bd 24f5 94be 2842 e7be
000003e0: 2ef4 0d3d d996 6bbc b27a d4bc 2e46 4fbe
000003f0: b4b8 023e 9685 32be c61f 813e f6c7 4d3e
-0.14488989 0.11017268 0.103703864 -0.14275706 -0.15756094 0.3248296 -0.26419732 0.2912508
0.1399455 0.086877 0.19544049 0.12499196 0.33087248 -0.18877652 0.29729724 -0.09630101
0.33463144 0.093591705 0.21952608 -0.18721433 0.062610194 -0.12204608 -0.33850124 0.1335453
0.192604 -0.13910313 0.110353164 0.16274975 -0.090215676 0.1669763 0.26551 -0.27266514
-0.09235729 0.29329646 0.1798185 0.111933365 -0.22612281 0.32593167 -0.15681075 0.0496112
0.24803321 -0.22652692 0.33145377 -0.091439895 -0.28441408 -0.23267335 -0.13082114 -0.10119967
-0.55826443 -0.31293195 0.17912173 -0.41793516 0.16634127 -0.17225762 0.12268807 -0.07056172
0.30117086 0.19599439 0.40387356 -0.129571 -0.2085394 -0.14221947 0.0588025 -0.27146134
-0.2252475 0.18841103 0.22162127 0.20577696 0.19131751 0.13477239 -0.05751726 -0.18021666
-0.2574603 -0.22655389 0.0892495 -0.10667641 0.26172954 0.31779054 -0.39378443 0.11049482
-0.084636405 -0.017858194 -0.2536109 -0.31272262 -0.10949365 0.27276865 -0.08209171 0.40416136
-0.27284884 0.19998606 0.12715307 -0.0046201893 -0.13682123 -0.2743969 0.086217314 0.02456022
-0.12984091 -0.27206928 0.34079576 -0.055046596 0.28735805 -0.24640109 0.0034829846 0.18202199
0.15736939 -0.18659301 0.26071018 -0.17536986 0.35126123 0.36098024 -0.05072007 -0.062178887
-0.31316453 0.21833363 -0.01102621 0.24136968 0.15943235 -0.2634973 0.016190877 -0.2758484
0.010914882 -0.010736788 0.32848608 0.17434286 -0.10248936 -0.02297433 -0.20034395 -0.059843127
0.31381282 0.16114213 -0.06817465 0.30553845 -0.26382706 0.026947115 -0.10419368 0.23968717
0.23082638 0.38228327 -0.015358806 -0.09213064 0.015411828 0.03262802 0.27257758 0.24734816
-0.2414779 -0.12668994 -0.11716833 -0.29246983 0.3410015 -0.06537214 -0.44885013 0.0597171
0.07985265 -0.064146556 -0.20290543 0.014265029 0.11283457 0.25521132 -0.12752706 0.23331599
-0.044489928 -0.29995334 0.23358653 -0.3403492 0.09619557 -0.083467804 0.23899361 -0.27123043
0.23080565 0.03371579 -0.2716932 0.00756878 0.09162586 0.06697636 0.309488 0.030173436
0.48190957 -0.222184 0.20589428 0.048195552 0.27011177 0.050290726 0.43500927 0.09911369
0.38416433 0.23429684 -0.23740906 -0.06332341 -0.19896212 -0.27388027 0.2425707 -0.14696947
-0.27279684 -0.37240568 0.0012006965 -0.14247467 -0.086554356 -0.32839173 0.032957315 -0.10812279
0.26266456 0.0033983858 -0.022199312 0.32151672 -0.27678132 -0.08659201 -0.16235138 -0.1564282
-0.14549758 -0.18444268 -0.18172675 -0.3056332 -0.37751538 0.050497346 -0.3057413 -0.2668647
0.0028068977 0.21119347 -0.21246132 -0.17198913 -0.24659066 0.33595702 0.055134058 0.22931461
-0.36902174 0.14493397 -0.28200063 -0.2807597 0.0155140385 -0.08520883 -0.059536874 0.023211293
-0.059067503 -0.3872563 0.19229229 -0.37944543 -0.14845502 -0.19658099 -0.19366117 -0.009548857
-0.22520424 -0.40402162 -0.08086349 -0.27851897 -0.061537866 -0.07511212 -0.29093277 -0.4516766
0.034656696 -0.014379227 -0.025937412 -0.20241615 0.12765771 -0.17433771 0.25219554 0.2009581

cnn_features.4.1.weight f4 [32]
00000000: 6b04 883f 86a1 7f3f 045d 813f b91d 733f
00000010: 2940 883f 3ea7 7a3f 8a65 763f 0ee1 7a3f
00000020: d7d5 873f b3d2 663f 5c6c 803f 6708 8d3f
00000030: 3c38 713f e0e8 833f 778b 773f 6d50 6d3f
00000040: df42 803f 4d4c 843f 74e0 643f 9598 6f3f
00000050: c0fd 673f fa43 8c3f efcd 873f e725 943f
00000060: c3ca 773f 5002 823f 3315 813f 8f71 813f
00000070: 231c 853f 124e 733f 5294 803f 0412 6e3f
1.0626348 0.9985584 1.0106511 0.9496723 1.064458 0.9791144 0.96248686 0.97999656
1.0612134 0.9016525 1.0033069 1.1018189 0.9422643 1.0305443 0.9669718 0.92700845
1.0020407 1.0335785 0.8940499 0.93592197 0.90621567 1.0958245 1.0609721 1.1574067
0.96793765 1.0156956 1.0084594 1.011278 1.0399212 0.95041 1.0045264 0.9299624

cnn_features.4.1.bias f4 [32]
00000000: a8cb ecbb 57a9 a83d dd2d 8dbc 22b2 6fbd
00000010: 23ea 70be 0c34 b93c 5e87 f2bc e585 1dbe
00000020: cbbe 9bbd 6ada 30bd 6205 9abe 2d38 4cbe
00000030: 57d5 b5bd 6a4b 6dbd 6253 adbc 7d93 2a3b
00000040: 7092 453d 825a 1cbe 3fd9 5dbe 2649 77bd
00000050: e122 40be edd1 143e 2fd7 9dbd d2df 453d
00000060: 5d8c 78be e791 b83c 08b1 3f3d 9a07 893d
00000070: e0e3 363e a69f 7cbd 1e06 52bc 29cf e3bd
-0.007226426 0.08235424 -0.017233783 -0.05851949 -0.23526816 0.022607826 -0.029605564 -0.15383108
-0.0760475 -0.043177046 -0.30082232 -0.19943304 -0.08878582 -0.05793325 -0.021157924 0.0026027851
0.048235357 -0.15268901 -0.21664904 -0.060372494 -0.18763305 0.14533205 -0.07707059 0.048309155
-0.24272294 0.02253051 0.04679969 0.06690903 0.17860365 -0.06167569 -0.012818841 -0.11123497

cnn_features.4.1.running_mean f4 [32]
00000000: 5eba d93d 8630 093f b269 30bd 67c3 6e3e
00000010: 2f3f cbbb 94fd 3fbf 655f fd3d 10fc 153d
00000020: d1c8 fabd 913a 8abd 8d22 09be c9b6 073e
00000030: 1e15 9b3e 3527 32bd 9027 5d3d 5316 163f
00000040: 91da a5be e7a5 9fbc a7a5 4fbd b07c c33e
00000050: b08c 723e 15c3 adbe ffc3 74bc efb4 fabe
00000060: cbb9 adbd f495 d0be cab4 32bf cfed 23bf
00000070: 2de7 893e 5000 bfbe 56ce a03d 27d1 413e
0.1063125 0.53589666 -0.04306955 0.23316728 -0.0062026004 -0.74996305 0.12371711 0.03661734
-0.12245334 -0.06749452 -0.13392086 0.13253321 0.3028955 -0.043494422 0.053992808 0.58627814
-0.32393315 -0.019488288 -0.050695088 0.38181067 0.2368648 -0.33937898 -0.014939307 -0.48966166
-0.08482703 -0.40739405 -0.6980711 -0.6403474 0.26934186 -0.37304926 0.078518555 0.18927442

cnn_features.4.1.running_var f4 [32]
00000000: d51a e43c 9852 8a3e ee11 fd3d ad3e b13d
00000010: 5072 fa3b 6030 d43e f21c 863d 7c68 523c
00000020: d1ca 2f3e 67e1 fe3c 0213 623d 5356 c73d
00000030: 0053 143e e5ac ba3d 8c4d ad3c 1e70 ac3e
00000040: 88c4 5b3e 4d22 0b3d 54a9 993c 65c4 7e3e
00000050: ed50 e83d 7cf0 633e 5b5a 973c 6a98 823e
00000060: f671 e33c a111 523e a1c4 e83e 0464 a03e
00000070: bb6e 0c3d 612f 053e 8117 b03c 79c8 953d
0.027844826 0.2701614 0.123569354 0.086545326 0.0076430216 0.41443157 0.0654849 0.012842294
0.17167212 0.03111334 0.05519391 0.09733262 0.14484787 0.09115008 0.021155141 0.3367929
0.2146169 0.03396826 0.0187575 0.24879606 0.1134356 0.22259706 0.018475702 0.25506908
0.027764302 0.20514537 0.45462516 0.31326306 0.03428529 0.13006355 0.021495583 0.07313628

cnn_features.4.3.weight f4 [64, 32, 1, 1]
00000000: 677f 10bd 6785 abbe b293 803d 5b65 923d
00000010: 4dc9 9d3d 6690 fd3d 2e9d a5bc 66a1 07be
00000020: fbad ffbd 5de8 e2bd a41c e23d cbdd adbc
00000030: a763 aebd 0066 72be d442 f43d 14ad fc3c
00000040: de3d ed3d 9b28 13bd f879 1f3d eaa6 24be
00000050: e3c1 cabd e973 65be 29dd e5bd 5bb6 0c3e
00000060: d94a 613d 529c 32bb 5490 bcbd 40e1 493d
00000070: 60f7 50bd 314b 1a3d a23d f0ba 3cc0 b63c
00000080: 3893 cd3d 09a9 513e 652e b4bc 88d9 8abd
00000090: 3825 e93b 239b 6c3c 0d75 31be 6ec5 61bd
000000a0: 6779 1ebe 1dd4 38bd c412 bf3c a6f2 31bd
000000b0: e704 ca3c e64b 0e3e 61dd ad3b 64ec 07be
000000c0: a6df b03d 001a be3d 3ccf be3c a4af b4bd
000000d0: d616 3fbc 9aa1 9cbd 323d ec3b 1bc0 14be
000000e0: 53ff fd3d 8b1e 1a3e d0e3 443d 8bc9 2d3e
000000f0: 5c28 923e 9227 9f3d dc76 01bd ae20 093d
00000100: 96cf d03d 723a 0bbd 8b1a a4bd 3181 64bc
00000110: 15d6 db3d 9a41 f13d 19a2 22be 10b1 8b3c
00000120: 83b1 c73c 725a f2bd f00c b43d b7f2 8d3c
00000130: 3a9f 173e 83d0 88bd 173b 1cbd 6be5 d33d
00000140: df57 19be c7fa c93d 9c53 943d cd50 fb3d
00000150: d5e4 453e e00f 113d 2018 e93d 19cc 04be
00000160: b568 3ebd 70aa 1e3e 581c b73b 4448 2abe
00000170: 1b8c 73bc f957 3f3b bf8f 25be 64c4 37bc
00000180: c03f b53b 9b9b 24bd 5c18 43be 9fb3 2ebd
00000190: c6b6 07be dbd5 133e afe1 0bbd 60c2 d03d
000001a0: cb15 c23d fa08 ffbb 4102 923e d38c 2fbe
000001b0: 4f4c 81bc 87fe 4ebe 8467 c6bc 8f47 733d
000001c0: 23ea d7bd 21e4 29bc 1f59 83bd eec0 49bd
000001d0: 5011 bcbd c08f 05be 1865 66bc b492 2b3e
000001e0: 2ff1 183b e6cb 02be 2cfe 9ebd 502a c8bd
000001f0: b901 71be 3700 413d d518 16be fe83 773d
00000200: 824b da3d 07e9 40bb 8b65 db3c b9c4 54bd
00000210: c493 20be 6838 21be bef6 f6bd 45fa e9bd
00000220: 8c81 f03c 35d0 48bd 33bb db3d 89b2 833e
00000230: e350 83bd bc04 fbbd e0f2 d2bd 3656 f5bd
00000240: e435 3a3e 28cd 213e 545b b9bd d52c fdbd
00000250: 4add 3ebe a46f db3d c385 c03d 9a92 1c3e
00000260: ae65 9dbc d920 e4bd b086 d0bc 0597 b4bd
00000270: a569 0ebd 326f f5bd f53c 0abe 952b e73d
00000280: c263 a23c 63c1 cabd ee7c dd3b cb45 ec3d
00000290: a4fa 1d3e 1cb2 efbd bc3c a83d 9c24 7fbc
000002a0: 59b5 153e a0f2 11be bbff b03d 023e 273e
000002b0: a432 7c3d 3282 2c3d 65a5 03bd 7ead 3b3e
000002c0: 46db e83c 0f9a 4f3d 7ed7 71bc d30e ed3d
000002d0: 29c1 31be ccda 8cbe db11 763d 787c 5dbc
000002e0: 12b6 113d 8cea 603e c0ed 0dbe d241 5b3d
000002f0: f040 b2bd 8340 7fbc 84d2 00bc 7428 9fbd
00000300: 706d 75bc bb7c 9d3d fd5d cabd c462 bdbc
00000310: fbcc 4a3e 965d 843a c791 61bd b68a 34be
00000320: 8bdb 49be 9afd 3a3e fe34 303e f08c 733c
00000330: 6e88 06bc de4b 10bc df3f 5c3d 22f2 103e
00000340: a2e1 333d f0a7 27bd 52d2 9ebd 8e15 913d
00000350: 2d2b 40be 6fef a83c 696c 763d 3a84 643e
00000360: 6970 c3bd 17aa 9d3d 3a47 353e 83a8 113e
00000370: 39b0 81be 46a4 8d3e ae09 c83d 24e3 77bd
00000380: 895e 403b 4c89 11be 1b2a a33d 9810 e0bd
00000390: b15b 1d3d 9fba 6bbd 2775 13bd d564 67bd
000003a0: b326 fcbd 749e d33d c77e f93d 810d 103e
000003b0: 6fe5 c7bd 7d31 f8bd 286b b6bd db61 1d3e
000003c0: 1468 c6bc fa01 d73b a1e9 483d a2f0 3d3e
000003d0: 3fbc 1f3c 4283 d7bc 4a2c 36be c613 58be
000003e0: a151 e93d 98fa 7d3c 39f0 3ebe ad29 b5bb
000003f0: a593 82bd 86ab b43d 3e79 b0bc a16a a03d
-0.03527775 -0.33500215 0.06278171 0.07148238 0.07704411 0.123810574 -0.02021655 -0.13245162
-0.12484356 -0.11079476 0.11040619 -0.021223923 -0.08515101 -0.23671722 0.11926809 0.030844249
0.11584066 -0.035927396 0.038934678 -0.16079298 -0.09900262 -0.22407497 -0.112238236 0.13741438
0.05500302 -0.0027253819 -0.09207216 0.04928708 -0.051017165 0.037669364 -0.0018328915 0.022308461
0.100378454 0.20474638 -0.021994779 -0.06779772 0.0071150325 0.014441284 -0.17329808 -0.055119924
-0.15475999 -0.045124162 0.023324378 -0.0434443 0.02466054 0.1389614 0.0053059314 -0.1327377
0.086364076 0.09282303 0.023292176 -0.08822563 -0.011663159 -0.076480106 0.0072094435 -0.14526407
0.12402215 0.15050714 0.04806882 0.16971414 0.28546417 0.07771219 -0.031607494 0.03347843
0.10195844 -0.033991285 -0.08012875 -0.013946817 0.10734192 0.11780091 -0.15882148 0.017052203
0.024376636 -0.11833657 0.0879153 0.01732765 0.14806834 -0.066803955 -0.03814229 0.103464924
-0.14974926 0.09862285 0.0724251 0.12271271 0.19325574 0.03541553 0.113815546 -0.12968482
-0.046486575 0.15494704 0.0055880956 -0.1662913 -0.014864947 0.0029196723 -0.16168116 -0.011216257
0.0055312812 -0.04018746 -0.19052261 -0.04265177 -0.13253316 0.14437048 -0.034150776 0.10193324
0.09476813 -0.0077830525 0.28517345 -0.17143564 -0.015783457 -0.20214282 -0.024219282 0.059394415
-0.10542705 -0.010369332 -0.06413483 -0.049256258 -0.091829896 -0.13043118 -0.014062189 0.16755182
0.0023337116 -0.12773094 -0.07763323 -0.097736955 -0.23535813 0.047119346 -0.1465791 0.060428612
0.10658933 -0.002943577 0.026781818 -0.05194542 -0.15681368 -0.15744174 -0.12058781 -0.11424688
0.029358648 -0.049026687 0.10729065 0.2572215 -0.06411912 -0.122567624 -0.10300231 -0.11979334
0.1818462 0.15800917 -0.090506226 -0.12362067 -0.18639103 0.10714653 0.09400513 0.15290299
-0.019213524 -0.11139078 -0.025454849 -0.08817867 -0.03476872 -0.119840994 -0.13499816 0.112876095
0.019822959 -0.09900167 0.0067592775 0.115367495 0.15427643 -0.117038935 0.08214709 -0.015572693
0.1461996 -0.1425271 0.08642527 0.16332248 0.061571732 0.04211635 -0.032140154 0.18327901
0.02842487 0.05068403 -0.01476085 0.11575093 -0.17358841 -0.2751068 0.060075622 -0.013518445
0.035574026 0.21964473 -0.13860226 0.053529568 -0.08703792 -0.015579346 -0.007862691 -0.07771388
-0.014979705 0.07689806 -0.09881208 -0.023118384 0.19804756 0.0010098692 -0.055070665 -0.17631039
-0.19712655 0.18260804 0.17207715 0.014865145 -0.008211238 -0.008807151 0.05377185 0.14154866
0.043916352 -0.040931642 -0.07754959 0.07084189 -0.1876647 0.020621983 0.06016198 0.22316065
-0.09542925 0.07698458 0.17702952 0.14224438 -0.2532976 0.27664393 0.09767471 -0.060519353
0.0029353222 -0.14212531 0.07967015 -0.10940665 0.038417522 -0.057551023 -0.036000397 -0.056492645
-0.12312069 0.10332957 0.12182384 0.14067651 -0.09760558 -0.12118814 -0.08907157 0.1536936
-0.02421955 0.006561515 0.04905093 0.18548825 0.009749471 -0.026307706 -0.17790332 -0.21101293
0.113925226 0.015501641 -0.18646325 -0.00552865 -0.06375817 0.08821778 -0.021542188 0.07832838

cnn_features.4.4.weight f4 [64]
00000000: 1124 ad3e cca5 e43e 2931 383f 142a ca3e
00000010: 55d8 2f3f fa87 0a3f 4d96 fe3e 2513 403f
00000020: 8418 383f 016a 023f 7ec3 933e 62ca f23e
00000030: 0ac9 353f 1787 bb3e c503 903e a262 403f
00000040: bc52 f03e de0e 333f e057 bb3e 200e 213f
00000050: 3afa 2b3f c2fc 313f 7e6a 3e3f 754e ba3e
00000060: f4da 2b3f 4b9b 133f 5aff 2b3f 4351 0c3f
00000070: 4c09 013f f87c 403f abfe 553f ca38 d33e
00000080: e511 d53e 954c d43e 82c2 3c3f b58b 2f3f
00000090: 3d3a 0b3f 1b91 283f 9725 ce3e 3be2 4a3f
000000a0: 5305 1b3f f783 2e3f 3bf5 cc3e ce24 253f
000000b0: 9ea9 2f3f 090f 0d3f 0c72 c33e c8ce 153f
000000c0: 6ec2 c83e 5986 fc3e 786c 423f 9f8e 853e
000000d0: a333 303f 4db7 043f cd90 c33e 7562 ed3e
000000e0: efab 313f 19da 3a3f cfae 223f f4e0 4e3f
000000f0: 7d85 4a3f c3bd 233f 935a 353f 5c4c 233f
0.3381658 0.44657743 0.7195001 0.39485228 0.6868947 0.54113734 0.49724045 0.7502921
0.7191241 0.50943 0.28860086 0.4742003 0.71009886 0.36626503 0.28127876 0.751505
0.4693812 0.6994456 0.3659048 0.6291218 0.6717869 0.695263 0.74381244 0.36387983
0.6713097 0.57658833 0.6718651 0.54811496 0.5040481 0.7519069 0.8359172 0.41254264
0.41615215 0.41464677 0.73734295 0.6857255 0.5438574 0.65846413 0.40263054 0.7925145
0.60555 0.6817011 0.40030846 0.64509284 0.6861819 0.55101067 0.38172948 0.5851865
0.39210838 0.4932125 0.7594676 0.26085374 0.6882879 0.51842195 0.38196412 0.4636418
0.69402975 0.7298904 0.63547987 0.80812 0.79109937 0.6396143 0.7084133 0.6378839

cnn_features.4.4.bias f4 [64]
00000000: 099f bfbe 8a6d 70be d230 6ebd 8b92 d4be
00000010: 500d 97bd d07b 65bd 9b1d 96be 9909 82bb
00000020: 0442 1ebe d8b8 823d 3de2 30be f407 99be
00000030: 8197 49be c0b9 f3be 2d66 f8be 0b87 01be
00000040: 019f 25be 3bc0 fdbd 76a9 b1be a6ed 0dbe
00000050: 4df7 3dbe 6376 a2bd 1d4a adbd 9f49 b8be
00000060: d71f 2dbe 7510 8dbe 617f 5e3b aabf 7fbe
00000070: df1e e0bd bc8f aabd 7809 b1bc 73da 82be
00000080: 92fe 34be 71c5 8cbe 874b f6bd 2360 e4bd
00000090: 1850 7fbe 19e4 86bd ddbb 66be 2fda debd
000000a0: 1530 72bc efb9 d43c 130d 89be 7409 1dbd
000000b0: 4b6d 8cbb 8f65 66be 6db7 b6be 33ea 4dbe
000000c0: 64ab c4bd 8339 59be 2b8b 6e3d 6f59 f0be
000000d0: 615d 4fbd 816c ebbd b503 c2be c08d b5be
000000e0: 8d0f b5bd 9a32 b5bd ba7e 8a3d ddf9 393d
000000f0: ba11 e53c f961 3ebe d4fe 04be 8ecc 39be
-0.37426022 -0.23479286 -0.058152027 -0.41518053 -0.07375586 -0.05602628 -0.29319462 -0.0039684293
-0.1545487 0.063829124 -0.17273803 -0.2988888 -0.196867 -0.47602654 -0.48515454 -0.12649171
-0.16173936 -0.12390181 -0.346996 -0.13860187 -0.18551369 -0.07932737 -0.084614016 -0.35993668
-0.16906677 -0.27551618 0.0033950435 -0.24975458 -0.10943388 -0.083281964 -0.02161096 -0.2555729
-0.17675236 -0.27494386 -0.120261244 -0.11151149 -0.24932897 -0.06586475 -0.22532602 -0.10881459
-0.014781971 0.025967566 -0.26767787 -0.038339093 -0.0042854897 -0.22499679 -0.35686818 -0.20108871
-0.09603003 -0.21213345 0.05823819 -0.46943232 -0.050626162 -0.11495305 -0.37893453 -0.3545971
-0.08840857 -0.08847542 0.067624524 0.045404304 0.027962554 -0.18592061 -0.12987834 -0.18144438

cnn_features.4.4.running_mean f4 [64]
00000000: 94c3 a2be ab33 793e f60a 633d d528 d5be
00000010: b753 50be 8e2f 3f3d a6ce 933e cec4 59be
00000020: b279 083e d346 a0bd f838 9a3e 9623 cd3c
00000030: fba6 613e 4dba 8bbe 61ca b43e 424e 973e
00000040: 15a1 15be fa96 8bbe 9cfb 60be b0ba 90bd
00000050: 415c 48be 932c 0abe a4c1 223e 23d9 68be
00000060: 2b8a 3a3e ea3d 39bc 907a 223d 414a a43d
00000070: 16fb 893e 799a a1be 3332 c6be 8a9a 403f
00000080: ec02 a63e bd4c f2be 49ea 5cbe 1759 173d
00000090: c809 9bbe 4c09 15be 095f 36be fdc1 513d
000000a0: d3a8 3a3f 4e21 6abe c949 733e d453 603e
000000b0: fa70 203b 2868 0cbd 4869 f3be 6df1 2b3c
000000c0: ff1c 69be bf15 053f 0809 9ebe d5bb 133c
000000d0: 7444 1bbe d93e db3d 48aa 0bbf 069c babe
000000e0: 06ba 8d3e d313 fdbc 7960 583e 1187 65be
000000f0: 9fc9 be3d 76b6 d73a 077d c13e 6d02 a6be
-0.3178984 0.24336116 0.055430375 -0.41632715 -0.20344435 0.04667621 0.28868598 -0.21266481
0.13327673 -0.07826009 0.3012159 0.025041383 0.22036354 -0.27290574 0.35310653 0.29551893
-0.14612229 -0.27263623 -0.21970981 -0.07066858 -0.19566442 -0.13493566 0.1589418 -0.22739081
0.1821677 -0.011306265 0.039667666 0.08021975 0.26949376 -0.31563166 -0.38710174 0.7523581
0.32424104 -0.47324172 -0.21573748 0.036950197 -0.302809 -0.14554328 -0.1780969 0.051210392
0.72913855 -0.22864267 0.23758616 0.21906978 0.0024481402 -0.03427902 -0.4754126 0.010494572
-0.22764967 0.51986307 -0.30866265 0.009016951 -0.15162832 0.107053466 -0.54556704 -0.3644716
0.27680987 -0.030893242 0.21130551 -0.22414805 0.093158 0.0016457576 0.377907 -0.32423726

cnn_features.4.4.running_var f4 [64]
00000000: 327a 953e 5905 0f3e 4754 a43d b939 1c3e
00000010: 026e 263e 304b 8f3d 2b50 4e3e cf1e 0a3e
00000020: 5565 f33d 9de1 663d 2ba8 c03d b8de 173e
00000030: a9dc 0b3e 7fa8 543e 7a38 923d e4cc 1f3e
00000040: 88e5 8f3d 55d7 843d cdb8 053e ec1f 8b3e
00000050: 787b 963d 8ea4 2a3e 2c0d 183e 3244 993d
00000060: ff3b ab3d 6439 e73d 35ab 953e 4c29 a03d
00000070: a5fb 8b3d ee35 0a3e 2bce 9e3e 5a2f 253e
00000080: 3d5c cb3d 481b 483f e668 1c3e e423 253e
00000090: fdde 883e 05a2 e93d 06d7 803e ee33 e93d
000000a0: 60a0 3a3e 4789 ff3d 18a3 ab3d 7e54 0e3e
000000b0: 2faa a83d e9ca 4f3e 3441 933e 454a 063e
000000c0: 8d66 363e c26e 563e bc57 793e db88 3e3e
000000d0: 0f76 dd3d 9863 013e 9310 813e a9e7 303e
000000e0: b92b 823e 14bb d23e 2342 a83e 7a01 bc3e
000000f0: ae4a c23d 8a47 ba3d 4428 303e ec2f 133e
0.2919479 0.13966884 0.08023887 0.15256394 0.16252902 0.06996763 0.20147769 0.13488315
0.11884562 0.056367505 0.094070755 0.14831054 0.13658394 0.20767401 0.07139678 0.15605503
0.070262015 0.06486384 0.13058777 0.27172792 0.073477685 0.16664335 0.14848775 0.0748371
0.08361053 0.11290243 0.29232183 0.07820377 0.06835107 0.13497135 0.3101667 0.16131344
0.099297024 0.7816663 0.1527439 0.16126972 0.26732627 0.11407856 0.2516405 0.11386858
0.1822524 0.124773555 0.08380717 0.13899419 0.08235585 0.20292248 0.28760684 0.13114269
0.17812558 0.20940688 0.24349874 0.18606894 0.108135335 0.12635648 0.25207958 0.17275871
0.25423983 0.41158354 0.32862958 0.36719877 0.094869 0.09095676 0.1720286 0.1437375

cnn_features.7.0.weight f4 [64, 1, 3, 3]
00000000: 491e 253e e8f1 933e 02db ee3c 6c8c 033e
00000010: d355 c13e 1f68 fb3c 853c 20be 07cb 963e
00000020: 52d6 52bd 7698 823e 537f 963d 6dbe a63e
00000030: e01d 2abe 354b 9e3e b548 933e 0860 d93d
00000040: f4f9 e0bd 67e5 19be 850e e63d 3c7e 7d3e
00000050: b6c5 093d ba83 323d ddd0 8fbd 4189 1abe
00000060: 8a0d b3be 803d 63bd 7f75 c7be 9f1f 813e
00000070: 29b0 843e f0c4 0f3e 2dd2 6a3e 5911 8b3e
00000080: 3c48 543e baa5 5e3e dc9d 873e 3c88 003e
00000090: 82be 163e 1e50 923e ad88 4fbd 9b29 26bc
000000a0: 92a5 2f3d 4450 d7bc df1d 7cbe b50c ccbe
000000b0: b09e d43c 012e 523d 0f49 fc3d 9b9f a8be
000000c0: d1b6 e7bd f5ef 733e 08df 1cbd ab8f f9bd
000000d0: aa60 253e 0b6c f63c edc9 163e c1af 9b3e
000000e0: d08c 203e 9623 1d3e baa2 843e 335b 81bd
000000f0: 6c01 dd3d de94 123e b01e 63bd be2a 8ebe
00000100: 71ea 993e 2eeb 25be e4d1 9bbe 0c04 db3d
00000110: 5aca 52bd 384a 74be 31dc 953e a8fb a6be
00000120: 95a7 55be 3ac3 8a3c 997e 9dbe d8de 58be
00000130: 1f7f 00be 6383 a8be 1a3b 57be d3a8 29be
00000140: 3976 61be ac4d f23d 7f87 2dbe 77d7 45ba
00000150: 3de9 84bd 13f2 06be 73f3 89be 8a2b 283e
00000160: d580 a83d 62ad df3d 37d8 143e b8c2 503d
00000170: f885 d33e a7bd 683e bbc0 a53e bbad 883e
00000180: dc65 c13d 6c36 863e a1f1 533d 5140 cd3d
00000190: e583 543e 74fe b63e 3f7a 033e 4a8b 7f3e
000001a0: 4ad8 aa3e 4b11 553e 1978 613e fde9 ad3e
000001b0: 6eaf 4ebe fa30 3ebe 8c5f 88be 6a50 24bc
000001c0: 6285 283e e78c 27be 7c3a b3be 19c6 85be
000001d0: 1536 a0be 99a0 b33e de63 d53e 7553 573e
000001e0: 6a81 813e 0c98 743e 8b79 b4bd 2e06 303e
000001f0: 8fa3 7a3e 6b6b a3bd d758 683e 9ee5 f73e
00000200: 7a1c 753e 6af1 59bd 0180 833e 297d 553e
00000210: 5189 ec3d faeb 1f3e f786 edbd 81b1 273e
00000220: 3266 bfbd 23c7 0dbe 2942 5c3e 0615 213d
00000230: 8139 98be 53dc 6cbe 3b8a 513e feb0 16bd
00000240: 7683 e93e 8475 c03e 5f0c ef3e db02 e5bd
00000250: 6d4f 673d d044 0c3e b7ee 5e3e 2c64 0f3e
00000260: e77e 17be a13b 893d ca22 743e 9408 263e
00000270: f942 11be d2e0 a03e f45e bc3e af58 5ebe
00000280: 64a0 373e 87ef 303e 367f 183e 4544 4d3e
00000290: 15df 2d3e 1138 2c3e 1691 7c3e 8c04 833e
000002a0: f933 753e 7ab6 493e 1c07 3d3e 010c c6be
000002b0: 5320 74bd c183 8dbe 0f5e 00bf 28e6 353d
000002c0: 0e9b ecbd 25d9 2abe 26be 9ebd fdfb 6ebd
000002d0: 1e3f 9dbc 2543 283e 2564 423e 67b5 8abd
000002e0: cfaa 6fbe 2499 60be c440 9bbd 6eb0 04be
000002f0: c66c e2bd b6e0 cb3d 1972 823e 1374 1f3d
00000300: 659e d2bc 70b7 acbd 2bd3 f9bd 0ba0 6fbe
00000310: 398d 69be f09e bfbd 6642 ba3e 1f22 b53d
00000320: c157 5ebd 2e7c 8ebe e231 40be 1aff 7abe
00000330: 1982 873c b836 cebe d018 a1be f634 813e
00000340: 6c09 dd3d 357d 0a3e 747f 903e 9d29 673e
00000350: aa50 1dbd db95 4b3e 43e9 1d3e ba1c 17be
00000360: e903 d83e 2174 973e 5d60 a33e c70e cfbc
00000370: 0e63 083e d423 8f3e baaa 0f3e bd33 783e
00000380: 7afd c03d c8e7 213d decb 16be f74f 873d
00000390: 8514 303e e79d 69be 0406 063e fcef 023e
000003a0: b0d4 86be 2a4c 443e 2f26 26be 3d97 f1bd
000003b0: f740 293e e765 55be 0051 e3bd 409a 323e
000003c0: 7807 78be 8018 273e 2cab cd3d 055b 343e
000003d0: 0cc3 8e3e a6ec bdbd db16 363e 550d 26be
000003e0: 9b2c d8bd ec96 ac3e 6f35 993e cc57 1d3d
000003f0: 28de 213e a540 fc3c 32f1 4b3e a516 ee3e
0.16124834 0.28895497 0.029157165 0.12846535 0.3776079 0.030689297 -0.15648086 0.29451773
-0.051473923 0.25506943 0.07348504 0.32567158 -0.16612959 0.30916753 0.2876641 0.1061402
-0.10985175 -0.15028916 0.11233238 0.24755186 0.033635817 0.043582655 -0.070222594 -0.1509142
-0.34971267 -0.055478573 -0.3895683 0.25219437 0.2591565 0.1403997 0.22931738 0.27161673
0.2073068 0.21742907 0.26487625 0.1255197 0.1472111 0.2857675 -0.050667454 -0.010141755
0.04288251 -0.02628339 -0.2462077 -0.39853445 0.025954574 0.051313404 0.12318622 -0.3293427
-0.11314166 0.23822005 -0.038298637 -0.121856056 0.16150156 0.030080816 0.14725466 0.30407527
0.15678716 0.15345606 0.259054 -0.06316223 0.10791287 0.14314601 -0.055449188 -0.27766985
0.30061677 -0.16202995 -0.3043357 0.10694131 -0.05146251 -0.23856437 0.29269555 -0.32613873
-0.20864709 0.016938794 -0.3076065 -0.21178758 -0.12548493 -0.3291274 -0.21018639 -0.16568308
-0.22017755 0.11831221 -0.16946219 -0.00075470604 -0.06489799 -0.13178281 -0.2694355 0.16422859
0.08227698 0.10921742 0.14535604 0.05096695 0.41313148 0.22728597 0.32373604 0.26695046
0.09443256 0.26213396 0.051744107 0.10022033 0.20753439 0.35741007 0.12839602 0.24955478
0.3336814 0.20807378 0.2201847 0.3396758 -0.20184109 -0.1857337 -0.26635396 -0.010028938
0.16457132 -0.16362344 -0.35005558 -0.261277 -0.3129126 0.35083464 0.41677755 0.2102793
0.25294048 0.23886126 -0.08812245 0.17189857 0.24476455 -0.07979473 0.2269014 0.48417372
0.23936644 -0.053208746 0.25683597 0.20848526 0.115496285 0.15617362 -0.11598008 0.16376306
-0.09345664 -0.13845496 0.21509613 0.03932669 -0.29731372 -0.23130922 0.20462887 -0.036789887
0.4560811 0.37589657 0.46689126 -0.11182185 0.05647223 0.13698125 0.2177075 0.14003056
-0.14794503 0.067008264 0.23841396 0.1621421 -0.14185704 0.31421524 0.36791193 -0.21713518
0.17932278 0.17278872 0.14892277 0.20045574 0.1697963 0.16818263 0.24664721 0.25589406
0.23945607 0.19698516 0.18459743 -0.38681033 -0.05960114 -0.27639583 -0.5014352 0.044408947
-0.11553012 -0.16684397 -0.07751112 -0.058345784 -0.019195136 0.16431864 0.18983515 -0.06772881
-0.23405002 -0.21933419 -0.075807124 -0.12957928 -0.11055903 0.099549696 0.25477675 0.038929056
-0.025710294 -0.084334254 -0.1219848 -0.23400895 -0.22807778 -0.09356487 0.36378783 0.08844399
-0.054282907 -0.27829117 -0.18769029 -0.24511376 0.016541528 -0.40276122 -0.31464243 0.25235718
0.10792813 0.13524325 0.2822224 0.22574468 -0.038407005 0.19881384 0.15421014 -0.14757052
0.42190483 0.29580787 0.31909457 -0.025275601 0.13319036 0.27957022 0.14029971 0.24238487
0.09423347 0.039527684 -0.14726207 0.06607049 0.17195328 -0.22814141 0.13088232 0.1278686
-0.26334143 0.1916968 -0.16225503 -0.117964245 0.16528688 -0.20839654 -0.11099434 0.17441654
-0.24221599 0.1631794 0.10042414 0.17612846 0.27883184 -0.09273653 0.17782156 -0.16216023
-0.10555383 0.33708894 0.2992358 0.038413808 0.15807402 0.030792544 0.19916227 0.4650165

cnn_features.7.1.weight f4 [64]
00000000: 9b3d 843f c03c 703f 8370 803f f925 7e3f
00000010: 569b 7f3f f482 783f 7b8a 733f 51bf 953f
00000020: b3a4 7e3f 62cf 873f d448 6d3f 67f6 713f
00000030: 40fe 823f 20fa 8d3f 3c9d 923f 3427 8f3f
00000040: bb7f 613f 91f2 663f 0721 813f 6e03 763f
00000050: c754 783f fff1 9a3f 85b2 6d3f 5c7f 633f
00000060: 3fa4 713f 4755 823f 04a1 853f 17f2 693f
00000070: d2eb 7b3f 4cfa 653f 5345 933f 4ebf 783f
00000080: d539 6f3f bd34 7a3f a016 923f 0983 813f
00000090: 18c8 653f 6e8a 6d3f d9e4 763f 5a97 783f
000000a0: 8967 673f ced0 603f 193e 753f ba84 5d3f
000000b0: 6dfd 7e3f 1e0a 6e3f 4bfd 803f 7a5c 713f
000000c0: d61b 623f 1f92 6a3f 699b 9a3f 8c4e 7d3f
000000d0: 456a 763f cb0b 663f 9689 833f e602 723f
000000e0: 28c7 713f d703 853f fc45 863f 264e 7c3f
000000f0: 0386 993f 1a3b 6c3f 6a6f 713f 1b4d 733f
1.03313 0.938427 1.0034336 0.9927669 0.998464 0.9707482 0.9513318 1.169901
0.9947006 1.0610163 0.9268925 0.94516605 1.0233841 1.1091957 1.1454234 1.1183839
0.88085526 0.90213877 1.0088204 0.96098983 0.9700436 1.2105101 0.92850524 0.8886621
0.94391245 1.0182275 1.0439763 0.91385025 0.9840671 0.8983505 1.1505531 0.9716691
0.9344762 0.9773672 1.1413155 1.0118114 0.89758444 0.9278935 0.96442944 0.97105944
0.9039236 0.8781861 0.9579788 0.8653065 0.9960545 0.9298419 1.0077299 0.94281733
0.88323724 0.91629213 1.2078677 0.9894798 0.96255904 0.89861745 1.0276363 0.9453567
0.94444513 1.0391797 1.0490108 0.98556745 1.1994022 0.9227768 0.9431063 0.9503953

cnn_features.7.1.bias f4 [64]
00000000: b705 75be 6d9b 1dbe 5bb0 4d3d ed88 a5be
00000010: 8e0a bbbd 3b24 f1bd 7eb0 28be cfa4 6abd
00000020: d0e3 b93c 573d e73c 9930 11be 7f57 3ebe
00000030: cdbf 3a3c 84db 86be 44ae 19be a6b3 a93c
00000040: 0726 4dbe 973f 25be 1290 4ebe 9eaf aabc
00000050: e711 3ebd 728f 653d d921 98bd 407a 79be
00000060: b3e9 40be dd48 55be 2099 00bd 3b39 34be
00000070: ccf0 08be 4745 38be 8aef fdbd db67 eebd
00000080: ba4f 5ebe 3010 09be e183 503a baee 373d
00000090: 6be5 99be 55c2 5bbd a524 3dbe f36b f0bc
000000a0: fab2 d5bd 8b7d 85bd 31fe 1dbe 2bc5 87bd
000000b0: cfcb 8fbd 78b5 0dbd 2ea3 66be 316c 13be
000000c0: 7ea7 0dbe 48c8 24be efd7 56bc 2f49 66be
000000d0: accf 78bd c636 1cbe 7454 94be b894 64be
000000e0: c40f fcbc 7a50 d5bd 4394 64bd 0494 c3bc
000000f0: c99c dcbd 5e8c 3dbd f48a bfbd 6bd7 96ba
-0.23927961 -0.15391321 0.050217014 -0.3233103 -0.091328725 -0.117744885 -0.16473576 -0.05728608
0.022691637 0.028227491 -0.14178695 -0.18588065 0.011398268 -0.26339352 -0.15007883 0.020715546
-0.20034038 -0.16137539 -0.20172146 -0.020835694 -0.04640379 0.056045003 -0.07428331 -0.24363041
-0.18839149 -0.20828576 -0.03139603 -0.17599957 -0.13373107 -0.17995177 -0.12399204 -0.116409026
-0.21710101 -0.13385081 0.0007954222 0.0449054 -0.30057845 -0.053652126 -0.1847101 -0.02934835
-0.10434528 -0.06518086 -0.15428998 -0.06629404 -0.07021295 -0.03459689 -0.22523186 -0.1439674
-0.13833424 -0.16092026 -0.013113006 -0.22488855 -0.060744926 -0.1525527 -0.28970683 -0.22322357
-0.030769236 -0.1041574 -0.055805456 -0.02387429 -0.10772092 -0.046276443 -0.09352675 -0.0011508291

cnn_features.7.1.running_mean f4 [64]
00000000: a79e 4c3b 9479 153e 6da4 3fbe b6e0 9d3d
00000010: f7ca afbd 3f3e 0c3c 9540 0a3e 736e 8fbe
00000020: 3da9 1fbf ec6f 90bd 0b49 3b3e b350 bb3e
00000030: 6a72 c9be d462 003c 6816 123c 2419 79bd
00000040: 2619 ac3e d9ab ed3e 5ef3 893d 064d cfbe
00000050: 9273 33be ddff 18be da01 c0be 070d 8c3d
00000060: 2ce8 243f 3e75 733c 2fae ccbd 6192 603e
00000070: 448b 0a3f 63c1 763e 8820 6cbd 3ced 02bd
00000080: e030 203e 98da 0d3d aa52 12be 152e 91be
00000090: 468e 003d d33d 113f c401 c83d 5260 b3be
000000a0: aa7b 1b3f 2493 fabd 8eb8 493e f9d2 1ebe
000000b0: daee 97be 79a4 02be 4091 0d3d e389 d73e
000000c0: c0b2 503e f591 59bd 7658 a4bd 66aa fc3b
000000d0: 00a4 33be 9cb9 cebb 565b bc3c 283b ea3d
000000e0: 65cf f7bd a511 81bd de98 a4bd c9d0 16be
000000f0: 0ec4 3ebe bab7 a0be 4f1c b8bd 9dd0 d2be
0.0031222494 0.1459716 -0.18715067 0.07708876 -0.08583634 0.0085597625 0.13501199 -0.28013954
-0.6236761 -0.070525974 0.18289582 0.36585006 -0.39345104 0.007836062 0.008916475 -0.06081499
0.33612937 0.46420172 0.06735872 -0.40488452 -0.17524555 -0.14941354 -0.37501413 0.06838422
0.64416766 0.014859496 -0.099941604 0.21930839 0.5411875 0.24097209 -0.05764821 -0.031964526
0.15643644 0.034632295 -0.14289346 -0.2835547 0.031385683 0.5673496 0.09765962 -0.35034424
0.6073557 -0.12235096 0.19699308 -0.15510167 -0.29674417 -0.12758054 0.03456235 0.42097387
0.20380688 -0.05311771 -0.08024685 0.0077107428 -0.1754303 -0.0063087475 0.022992771 0.114370644
-0.12100104 -0.063021936 -0.080369696 -0.14728083 -0.18629476 -0.31390172 -0.089897744 -0.41174784

cnn_features.7.1.running_var f4 [64]
00000000: ce41 c839 4b0d 893d 6ee7 463e ae33 633c
00000010: 6a92 343d 4095 5d3d e7ab 133d a154 8a3e
00000020: 3f71 3b3f b0d4 c23c fa72 263d 43b3 253e
00000030: 5ecd f13e 541f 8b3a ee8b 023b 6d33 043d
00000040: f3f1 063e dda9 6b3e 0751 f63b 01d3 ba3e
00000050: 18cb 873d 0077 e33d 8f11 b43e 9189 4e3c
00000060: f997 dc3e 8e59 873d 3ead 493d c32d d83d
00000070: 4c9f 813e be1b 873d a943 893c 78df 223c
00000080: b74c 033d 4f26 a83b c8de d43d f516 913e
00000090: 7ba8 c13c a910 a33e f26a a03c 16c1 773e
000000a0: d0c5 273f a0d7 993d cbf2 753d 2b78 8f3d
000000b0: 7e27 8c3e 624b 9a3d c9b3 a73b 28a0 563e
000000c0: 359f 5b3d dff5 103e 38b0 313d d28a 993a
000000d0: f9f3 d13d f17f c83c 51a8 143b 5dff b23c
000000e0: d7c2 a13d 4deb 713c 0d1b 663d 4fbb 993d
000000f0: 7193 2c3e ff68 183e 6d35 f13c 23cb a83e
0.00038196 0.066919886 0.19424221 0.013867302 0.044084944 0.054097414 0.03605261 0.27017692
0.73219675 0.023783058 0.040636994 0.16181664 0.47226995 0.0010614195 0.001991983 0.032275606
0.13178234 0.23014016 0.0075169834 0.36489108 0.06630534 0.11106682 0.35169646 0.012606041
0.43084696 0.06608878 0.049237482 0.10555603 0.25316846 0.06597088 0.016755896 0.009940974
0.032055583 0.00513152 0.10394055 0.28337827 0.023639908 0.31848648 0.019582245 0.2419475
0.6553621 0.0751183 0.060046 0.07005342 0.2737388 0.075339094 0.0051178676 0.20959532
0.05361863 0.14156292 0.043380946 0.0011714345 0.10251612 0.02447507 0.0022683332 0.021850282
0.07898491 0.014765573 0.05617814 0.075064294 0.1685312 0.14883803 0.02944442 0.3296748

cnn_features.7.3.weight f4 [128, 64, 1, 1]
00000000: da99 0b3d aeb9 bbbc f78a a13d ca43 2cbd
00000010: 283b 42be b195 21bd a326 c43d 677e c63b
00000020: 63e8 21be 67c2 f2bc 575f 44bd ba7b 58bd
00000030: e2db 023e a234 d43d efce 97bd b0c1 393e
00000040: 251a 733d f599 0d3c 814b aa3c 86b0 0abe
00000050: 634e cabd 6c88 88bd e5ab 28be 62bc 8c3d
00000060: 9f56 dc3c 50cb ec3c b80a 0ebe 5924 aa3d
00000070: e2b9 18be f484 90bd 1719 fdbb 87f1 bb3d
00000080: 80af 2a3d 24b0 bc3c 5c33 eabc a7fe f43b
00000090: d8df bebc 204a 4fbd 312a 10bd 6166 9d3d
000000a0: 58bb 3ebd 4337 a7bd 57e6 bdbd a95b 013e
000000b0: a7ba 733d 89e5 c73a 3811 e2bd 5227 0dbb
000000c0: 4caa f63b 8999 6e3d 3f91 47bd 007c a23d
000000d0: 936e 4b3d 2b06 b3bd 349f 0abe 9d46 94bd
000000e0: e968 013e 1cfa e23c bd45 4fbd 4838 ee3c
000000f0: 5a9e d23d 86a4 7dbd 08c8 a83d 0d66 c8bb
00000100: 42ac 2ebc 71d9 64bd c495 40bd 597f 1fbe
00000110: 6fae c63d af1d a63d 4945 213d b7c7 04be
00000120: 7a26 93bc 33fb 4d3e faaf 3ebc 9100 e8bd
00000130: c11a 00be 48aa 623d 3474 83bd a22b e53d
00000140: e998 983d 6a6c d33d f896 01bd 13bc 073e
00000150: d2a0 d03d dd48 b1bd 6b6b d2bd b58c 7d3c
00000160: 7b81 76bc d8b2 0b3c 4b49 1ebe 5bb8 ea3c
00000170: e5e9 803c b751 6c3d 2cc9 a1bc d014 8c3d
00000180: 4dbf d93b e1bf 633e 7505 a7bd 7fbc a13d
00000190: 6260 423d e568 3f3c 361d 9c3d 4089 90ba
000001a0: c608 753d 070a c33d 7da5 303d e8e2 843d
000001b0: 6d17 383d 07a1 bcbc 832e 6a3d 9138 503c
000001c0: 9998 3c3e f202 0abb f24d 65bc 6b3a d2bd
000001d0: 2318 873d c071 793d 29d7 8ebd 0440 4c3c
000001e0: 115a 0f3e 31b3 4a3d f5b8 50be ef40 9e3d
000001f0: 4183 9ebd 725d db3d 0635 303d 521a 96bd
00000200: ff6b 97bd d57d 3e3d 6cda 00bd 1d86 cebd
00000210: a00b 063e d51b 2c3d 7997 32bc 70bb 183e
00000220: 3e98 993c 585d 4e3d 8d75 0b3c 7cdc 87bd
00000230: 6f8a d8bc 5f2c a1bc 1925 613c 7ef0 8c3d
00000240: fb3b 35bb dd21 b83c 8301 9f3d a7a0 46bd
00000250: 144f c23c 87d1 05be bd0f aebd 4a49 5dbd
00000260: b1a9 84ba 56b3 7ebd 9a43 cbbc 1fb2 523d
00000270: dfcc 60bd 0dd7 273d 4c62 683e e2ac 0dbc
00000280: 14e9 4b3c 45c8 aa3d 4fb8 bcbc f44b cbbd
00000290: af10 823b d262 00be a827 af3d fe11 babd
000002a0: 44e7 86bd 9891 1dbd 8b36 c6bc 5bc3 a23c
000002b0: f48a 1fbd b50d 303c 7369 0c3e 06ae 5fbd
000002c0: fae5 5c3c ba23 473d abb2 86bd 4748 403d
000002d0: b689 213d a458 e93d 7af4 c6bb 9ba8 c1bd
000002e0: 75ca 713c 7f59 ed3d 76cc 4fbb 8d34 6f3d
000002f0: 3c58 103e 2a0f 16bb 1159 183d df5c 433d
00000300: e428 943e 844e 693d c228 163d 2ec6 1a3e
00000310: 49c0 9abc 602d 803d 760a f23d 18bc 033c
00000320: 9aab e03d 01cc 8abc 2bc8 833c c4a8 f6bc
00000330: b1a7 dc3d 477e 543d 57e1 c33d ad32 11bd
00000340: 13ed cebc 149d 82bc 57b9 eabb a1f8 34bd
00000350: 5440 18bd 760c 653e fe09 593d 2c89 83bc
00000360: 5672 e4bb b786 173e 2441 193b 6d7c 31bd
00000370: dcfd 483d 8244 0a3d 209e cbbc bca9 2dbd
00000380: 957b 2abc 9e5b f03b 52e9 383e 1ea3 3cbd
00000390: 8d4f 3c3d 7558 96bd ae07 babc f01a 7fbd
000003a0: 3856 bb3d b7ba 963c 649d 33bd 9a25 d4bd
000003b0: c807 45bd 8550 dfbc a9ef 29bc d340 be3d
000003c0: 61c2 2d3d c90e 8bbb 54d9 83bd 97c8 563d
000003d0: 7a89 8d3c 911e 6d3d adb3 3d3c b518 0b3d
000003e0: fe49 703c 2926 cd3a ab4f ec3c bc7d ddbd
000003f0: e228 f93c 62d5 4e3d b8ff cfbc 8fdb 2c3d
0.03408227 -0.022915687 0.078878336 -0.042056836 -0.18967879 -0.039449397 0.09577682 0.006057549
-0.15811305 -0.029633714 -0.047942486 -0.05285237 0.12779191 0.103616014 -0.07412516 0.18140292
0.059351105 0.008642663 0.020787956 -0.13543901 -0.09878232 -0.066666454 -0.16471823 0.06871869
0.026896773 0.02890554 -0.13871276 0.08307714 -0.14914659 -0.07056609 -0.007723938 0.09176927
0.041671276 0.02303321 -0.028588943 0.007476646 -0.023300096 -0.0506078 -0.035196487 0.07685543
-0.046565384 -0.08164837 -0.092724495 0.12632622 0.059504177 0.0015250902 -0.110384405 -0.002153833
0.007527625 0.05825189 -0.0487225 0.079338074 0.049666 -0.08741411 -0.13537294 -0.07240031
0.12637676 0.027707152 -0.050603617 0.029079571 0.102841094 -0.06192448 0.08241278 -0.006115681
-0.010661187 -0.05587143 -0.047017828 -0.15575923 0.09701239 0.081111304 0.039372716 -0.1296681
-0.017962683 0.20115356 -0.011638636 -0.11328233 -0.12510206 0.055338174 -0.06418648 0.11189963
0.0745104 0.10323413 -0.031638116 0.13255338 0.10186924 -0.08656476 -0.102743946 0.015475442
-0.015045519 0.008526526 -0.15457647 0.02865236 0.01573653 0.057695117 -0.019749247 0.06839907
0.0066451193 0.22241165 -0.08155338 0.07897281 0.0474552 0.011682724 0.07622759 -0.0011027232
0.05982282 0.09523397 0.043126572 0.064885914 0.044944216 -0.023026003 0.057173263 0.012708799
0.18417586 -0.0021058884 -0.013995634 -0.102650486 0.065964006 0.060899496 -0.06974632 0.012466434
0.13999201 0.049487296 -0.20383056 0.07727229 -0.077398784 0.10711183 0.043019317 -0.07329239
-0.073936455 0.04650672 -0.031458303 -0.10084174 0.13090372 0.04201873 -0.010900372 0.14915252
0.018749353 0.05038199 0.008511913 -0.06633851 -0.026433198 -0.019674478 0.013741755 0.06881808
-0.002765416 0.022477085 0.0776396 -0.048493054 0.023719348 -0.1306821 -0.084990956 -0.054024972
-0.0010121373 -0.062182747 -0.024812508 0.0514394 -0.05488288 0.040976573 0.22693747 -0.0086471755
0.012445707 0.0833898 -0.023037104 -0.09926596 0.003969274 -0.12537697 0.08552486 -0.09085463
-0.06587079 -0.038468927 -0.02419593 0.019868543 -0.038950875 0.0107454555 0.137121 -0.05460932
0.013482565 0.048618056 -0.06577047 0.04694393 0.039437972 0.1139386 -0.0060716243 -0.09455987
0.014757742 0.11589336 -0.0031707562 0.058399726 0.14096159 -0.0022897222 0.037194315 0.04769599
0.28937447 0.056959644 0.036659963 0.15114662 -0.018890517 0.062586546 0.118184015 0.0080404505
0.109702304 -0.01694298 0.016086658 -0.03010977 0.10774172 0.05187824 0.095644645 -0.03544872
-0.02525953 -0.015944041 -0.0071632075 -0.044182424 -0.037170723 0.22368035 0.052988045 -0.01605662
-0.0069716377 0.14797483 0.0023384774 -0.043331552 0.049070224 0.03375674 -0.024855673 -0.0423982
-0.010405441 0.0073351404 0.18057755 -0.046054 0.045974303 -0.073410906 -0.02270874 -0.06228155
0.09147304 0.01839958 -0.04385127 -0.103587344 -0.048103124 -0.027260074 -0.010372081 0.09289708
0.042421702 -0.004243706 -0.064379364 0.05243739 0.017277468 0.05789048 0.011578483 0.03395911
0.014666079 0.0015651631 0.028846582 -0.108149976 0.030415002 0.050496466 -0.02539049 0.042201575
