4-optimizer/Scheduler/cnn_gru_model_20250809_002212_best.pth (torch, 516955 bytes, 104 tensors)

cnn_features.0.weight f4 [32, 1, 3, 3]
00000000: f271 283e d58e 5fbe ce88 a13e 5616 593e
00000010: fb2c 533e e9a3 84bd 6ee2 93be ccea ebbd
00000020: 2797 5abe be3b 4c3e b20d 6bbc b41f da3c
00000030: 7778 c23c 1321 483e d876 a8bd 5386 b53e
00000040: 569d 49be 9036 8ebe 796c b33d da89 99be
00000050: 6851 6ebe 1ac8 a73e 9b61 023e b8fe 1c3d
00000060: bf3f 4fbd 7c3a a53d 1419 453b 889d 5b3e
00000070: 1f67 913e 9541 14bb 0c94 353c d28d aabe
00000080: 55be 673d a906 0f3d 4d55 953e a931 d73d
00000090: 16c6 983e 2f39 ca3d 599c 6f3e 8b04 9e3e
000000a0: 2fca abbd dec9 443d 4da9 58be c48a 72be
000000b0: a575 ed3d 59a8 60be a970 003d eb00 17be
000000c0: 4284 fe3d 4098 a83e f9c4 193e 88ff 3dbe
000000d0: 35cd 6f3e 3b05 8d3d 4a8b 933e e5d4 9cbe
000000e0: 90b9 e1bd 0cac 11be 8466 49bd e805 15bd
000000f0: fd43 893e 4a92 fabd eed7 c1bd 2bc8 e53d
00000100: 87f2 1e3e 1d96 8c3e b4bb 1dbe 5e4a 2cbe
00000110: f202 723e dbd3 acbe b4ca f6bc f9ef 01be
00000120: 2235 4c3e 6879 093e 040f 16be dc97 94be
00000130: d732 f2bc 0f85 153e 423a ac3e 149b f13d
00000140: af38 a4be fa1f 883e eab8 87bd f41e 72be
00000150: 7c11 b33e 9f06 96bd 01d7 89be acd3 e5bc
00000160: 8797 e13d d310 13be 455e 14bd 5ce9 103e
00000170: 1b7b 833e 66b4 3dbe f3b6 67be 7b0d 00be
00000180: 09f9 93be 28d6 ccbd 166c 1ebe 0afd b2be
00000190: e2c5 71be 45d4 35be bc95 92bd a34b 483e
000001a0: bc34 1e3e 6579 643e f595 3cbd aa7e 75be
000001b0: 06b7 aabd 04bc 073e 02f9 e9be 0481 c23e
000001c0: d7ad 0abe a650 5dbe 454b 6d3d a764 b23c
000001d0: 5940 0d3d 7088 b0be ac5b 91bc 73f7 223e
000001e0: fae1 763c 6716 863d 87af 7e3e e721 193d
000001f0: d382 d63c 12a6 f53e 4410 c3be 44fe afbc
00000200: d611 f13d 7820 823e f695 633e 4482 c53c
00000210: 87cc 78be ce0f 8dbe e6a5 903e 17f4 3a3e
00000220: a9a0 95bc 23af 0e3e 5488 803e e44a f73d
00000230: 4c8f 7c3e 8ab2 e93c 9b0e cbbe 21e7 a0be
00000240: f3e9 61be 5d64 943e 93b4 a43e 85d6 86be
00000250: e4bb d9bd 2f80 4cbe 1a8c d7bd c31b 02bc
00000260: 4c7b 493e 28c3 afbd 56df 0fbe 6d41 4b3e
00000270: 301c abbd 4cc4 aabe c78e c23c f1ca 493e
00000280: c37f 043e 8c19 4d3d 5b33 933e 732e 5f3e
00000290: 9647 debc 2e21 743a f0cd 223e 45f0 9bbe
000002a0: 3fb4 cd3d 5bdc 45bd d3b9 2cbe 4fc7 52be
000002b0: 4fb2 56be 25e6 3bbd 1252 153e e5d4 81be
000002c0: a0b0 44be d3d3 883e 84db 253e 17eb a63d
000002d0: bdd1 cf3d 577d 943e 004f ab3e b8c2 64be
000002e0: e970 6bbe 9a45 4f3e 3ffb 69be c88f 273e
000002f0: 7115 793d 1d8f 383e 2b93 e7bd 58fa c9bd
00000300: ca3d 7e3e 3d3c 8abe f26d 2ebe 353c 24be
00000310: 422c fdbe afad a5be c313 acbd e196 11bb
00000320: ff67 403e c517 91be b3c1 77be f35b 183e
00000330: 1d55 e23d ae73 97bd 1aac 913e 0ce2 3d3d
00000340: c873 1bbd 603a a03e ba5a b9be 6e79 aabe
00000350: 371b 5e3d 4b9d 6abe 1475 703e b2a9 1abe
00000360: 2cb4 873e 4f34 5f3d be51 a2be 1ec5 953e
00000370: e80b 48be 633c 80bd a2dd 4f3d da0e 693d
00000380: 1c0f 0bbe 5ab1 533e c4df 0f3d fccc 34be
00000390: 5bac a43e 2158 08be 619c cdbd de95 bb3c
000003a0: 910e 24be d3d2 df3e 01c4 34be 10e7 953d
000003b0: dbda adbe 09a0 51be 165d 07be 7fe6 c9be
000003c0: d4ab f13b 0e26 56bd 76b0 d63d 0c6b a23e
000003d0: 1a4e c43e c255 86be 3797 853e 13d5 743e
000003e0: ce6e 5dbe d1a1 21bd dd11 f8bd cf3e 8fbd
000003f0: fa9e f93c 6e36 a8bc b71d 37bd 0a63 073e
0.16449717 -0.2183183 0.31549686 0.21199927 0.20622627 -0.06476576 -0.2888369 -0.11519393
-0.21346723 0.19944665 -0.014346527 0.026626445 0.023739083 0.19543867 -0.08225793 0.35454044
-0.19688925 -0.27776003 0.08760924 -0.29987985 -0.23273242 0.32769853 0.12732546 0.038328856
-0.050597902 0.08067796 0.0030074762 0.21446812 0.28398988 -0.0022622098 0.01108266 -0.33311325
0.056578 0.03491846 0.29166642 0.10507519 0.29838628 0.09874188 0.23399486 0.3086284
-0.08388173 0.048044078 -0.21158333 -0.23685747 0.115947045 -0.2193922 0.03135744 -0.14746444
0.1242757 0.32928658 0.15016545 -0.18554509 0.23418124 0.06885763 0.28817207 -0.30631176
-0.11021721 -0.14225787 -0.049170032 -0.036382586 0.26809683 -0.12234934 -0.094650134 0.1121982
0.15522204 0.27458277 -0.15403634 -0.16825244 0.23633936 -0.33755383 -0.030125953 -0.12689199
0.19942144 0.13425219 -0.14654166 -0.2902211 -0.029565258 0.14601539 0.33638197 0.11797157
-0.32074496 0.26586896 -0.066270664 -0.2364462 0.34974277 -0.073254816 -0.26921847 -0.028055035
0.1101523 -0.14361887 -0.036222715 0.1415152 0.2567986 -0.18525848 -0.22628383 -0.12505142
-0.28900936 -0.100017846 -0.15470919 -0.34958678 -0.23610643 -0.17756756 -0.07157466 0.19560103
0.15449804 0.22311933 -0.046041448 -0.239741 -0.0833569 0.13255316 -0.4569779 0.37989056
-0.13542877 -0.21612796 0.05793311 0.02177651 0.034485195 -0.34479094 -0.017743908 0.15914707
0.015068525 0.06547242 0.24871646 0.037385847 0.026185429 0.47978264 -0.38098347 -0.021483548
0.1177098 0.25415397 0.22225174 0.024109967 -0.24296771 -0.2755112 0.2825157 0.18257175
-0.018265085 0.13933997 0.2510401 0.12074831 0.24664038 0.028527517 -0.3965958 -0.31426337
-0.22061901 0.2898282 0.32169017 -0.2633554 -0.106315404 -0.19970773 -0.10524769 -0.007941189
0.1967594 -0.08582145 -0.1405004 0.19849177 -0.08354986 -0.33352888 0.023749722 0.19706322
0.12939362 0.05007319 0.2875012 0.21795063 -0.027133744 0.00093128055 0.15898871 -0.3045675
0.10044145 -0.04830585 -0.16867761 -0.20583843 -0.20966457 -0.04587378 0.14582089 -0.25357738
-0.19208002 0.2672411 0.1619702 0.081503086 0.10147426 0.29001877 0.3345871 -0.22339904
-0.2299229 0.20241395 -0.22849749 0.16363442 0.060811464 0.18023343 -0.11307367 -0.098622024
0.24828258 -0.26999083 -0.17034128 -0.16038592 -0.4944783 -0.32359073 -0.08402207 -0.0022215175
0.18789671 -0.28338447 -0.24194984 0.14878826 0.1105139 -0.07395111 0.28451616 0.046358153
-0.037952214 0.31294537 -0.3620203 -0.33295768 0.054225173 -0.22911565 0.23482162 -0.15103796
0.26504648 0.054493245 -0.3170299 0.2925195 -0.19535792 -0.06261518 0.050748475 0.05689893
-0.13579983 0.20673123 0.03512551 -0.1765632 0.32162747 -0.13314869 -0.100395925 0.02289861
-0.16021182 0.43715534 -0.17652895 0.07319462 -0.33956036 -0.20471205 -0.13219103 -0.39433667
0.00737522 -0.052282386 0.10482876 0.31722295 0.38340837 -0.26237303 0.2609193 0.23909406
-0.216243 -0.03946096 -0.12112782 -0.06994402 0.030471314 -0.020533767 -0.044706073 0.13221374

cnn_features.0.bias f4 [32]
00000000: 4129 6abe 39d8 30bc 01b6 833e d3cd 513d
00000010: b988 493e a892 08be 4cab 6dbe 1d01 86be
00000020: 34d1 3cbe c4ce 1abe ed46 e8bd 26a9 0f3e
00000030: 662a 613e a717 c73d 54d4 253e ad7a 4c3e
00000040: 1f2b 533e bd11 393e 924c 0e3d 01a8 993e
00000050: 199c 423e 2fc2 47be ce4e b83d 99a2 6cbe
00000060: c221 903d 3837 b1bd 1573 e0bb 7fdb 81bd
00000070: 8cbb 22be 643a acbd c3f5 88bd 470e bfbd
-0.228673 -0.010793739 0.25724795 0.05122168 0.19681062 -0.13337195 -0.23209876 -0.26172724
-0.1843918 -0.15117937 -0.11341653 0.14029369 0.2198883 0.09721308 0.16194278 0.19968672
0.20621918 0.18073173 0.034740992 0.3001099 0.19004859 -0.19507669 0.08999406 -0.23108901
0.07037689 -0.0865311 -0.0068496563 -0.06340694 -0.15891856 -0.08409575 -0.066875 -0.09328895

cnn_features.1.weight f4 [32]
00000000: f4ba 513f 55c5 573f 6e80 803f 74b9 a73f
00000010: d4a1 193f 103a 813f db80 513f 0e08 163f
00000020: 4c76 643f 18f5 4b3f 04da 543f 828c 3d3f
00000030: b88d 8c3f 4a33 383f b76e 6a3f 64dc 343f
00000040: f5fa 593f ea9b 843f d93f 843f bc8e 2a3f
00000050: 530a 493f 1ba2 093f 110a 663f d284 583f
00000060: 3c2b 5f3f cd04 973f b9db 4d3f bbd7 0d3f
00000070: 949a 963f 1377 4f3f f7fc 593f 42a7 783f
0.8192589 0.8428548 1.0039194 1.3103471 0.60012555 1.0095844 0.8183724 0.5860604
0.89243007 0.7967086 0.83145165 0.7404252 1.0980749 0.7195326 0.9157519 0.7064879
0.85148555 1.0360081 1.0331985 0.66624045 0.7853138 0.5376298 0.8985911 0.8457767
0.87175345 1.179834 0.80413395 0.55407304 1.1765924 0.8104107 0.8515162 0.97130215

cnn_features.1.bias f4 [32]
00000000: 6f09 c53d d33f 09be 59d5 c8bd 7577 1b3c
00000010: 8af0 9cbe e905 9a3c d581 263e 4c35 8f3e
00000020: eacb 803d 9d56 363e e85c 08be dade 163e
00000030: cd4f 29bd 601f 61be 0c2c aebd ae6f 5ebe
00000040: 598f e6bd 37c5 bf3b 5d49 93bc 7272 993e
00000050: 2af6 18be 1632 aabe 2c95 c0bd 0cfd ba3d
00000060: 0361 e6bd 6b69 003d 0297 15be 1a36 a3be
00000070: 67aa c9bc ca4d f43d 847e 0e3e 5d13 adbd
0.0962094 -0.13403253 -0.09806318 0.00948893 -0.30652267 0.018801646 0.16260464 0.2797035
0.062888935 0.17806478 -0.13316691 0.14733449 -0.04133587 -0.21984625 -0.08504495 -0.2172229
-0.1125781 0.0058523673 -0.017979318 0.29970127 -0.14937654 -0.33241338 -0.09403452 0.09130296
-0.11248972 0.031350534 -0.14608386 -0.31877214 -0.024617387 0.119288996 0.1391545 -0.08450959

cnn_features.1.running_mean f4 [32]
00000000: 29b3 07be 1472 1dc1 d227 5ec0 eb06 e1c1
00000010: 6ed7 c1c1 c66b 87c1 6009 4e41 8972 d03f
00000020: 88a3 cdc0 ef52 7940 eb02 f841 9433 ba41
00000030: ac87 3741 f3b0 e5c1 34c5 513f 2e35 21c1
00000040: d61e 9240 9f4a 1040 3081 11c1 f890 2f41
00000050: abc6 9dc1 c56b 4d42 9310 d6bf 124a 9f41
00000060: 3a4c d4be daf5 9bc1 2914 3f42 fa1f a9c1
00000070: a79f 253f da26 dc41 6f48 16c0 4f62 d0c0
-0.13251938 -9.840351 -3.4711804 -28.128378 -24.23019 -16.927624 12.877289 1.6284953
-6.4262123 3.8956869 31.001425 23.275185 11.470623 -28.711401 0.81941533 -10.075483
4.566264 2.2545545 -9.09404 10.972893 -19.722006 51.355244 -1.6723808 19.911167
-0.41464406 -19.495045 47.769688 -21.140614 0.64696735 27.51897 -2.348171 -6.5120006

cnn_features.1.running_var f4 [32]
00000000: f9eb eb41 49cb c641 9fe0 7441 4bae ea42
00000010: c868 dd42 a761 4f42 ea96 f841 4e1d 0542
00000020: 40bf 2e41 f91a 8641 f7dc 1943 789c b642
00000030: 7599 0842 e748 0a43 213a 6541 5375 7342
00000040: 9633 9f41 aaba 5e41 d306 e741 77d0 4342
00000050: 8e3f 9f42 a4b9 c843 0b8f 7941 b464 8e42
00000060: 51d8 3c41 28da 6042 cb0c a543 52ef b242
00000070: d043 0841 bdd6 e742 e436 1841 c623 e241
29.490221 24.84926 15.304839 117.340416 110.70465 51.845364 31.073689 33.278618
10.921692 16.76317 153.86314 91.3056 34.14986 138.28477 14.326692 60.864574
19.900188 13.920572 28.878332 48.95358 79.62413 401.45032 15.597423 71.196686
11.802812 56.213043 330.09995 89.46742 8.516556 115.91941 9.513401 28.267467

cnn_features.4.0.weight f4 [32, 1, 3, 3]
00000000: b935 09bd 238a 0d3e f179 c43c 5547 e13e
00000010: fcb1 343e d9e8 1d3e f47b 2abe ba31 43be
00000020: facd 923d f302 a23e 32fa 383d 40e9 413e
00000030: fe06 13be faba 60be 7126 3e3e b285 14bd
00000040: 8687 b7bd 86af 923e c22c 08be 1321 9fbd
00000050: 9a55 ffbd 93fb 463e 1156 b63e d746 4d3d
00000060: 893f bebc b0fc b53d 0d68 1dbe d02d a3bc
00000070: 56aa e1bd b3c0 5abd ae81 1a3e ca36 de3e
00000080: eb8e c23d 47c7 9f3d 279f 483e a778 993e
00000090: 5736 1e3e 5ba7 8dbe 713a f9bd 4fa2 9c3e
000000a0: d330 9bbe 9f51 86be c535 0bbd 63a5 0dbe
000000b0: 37a5 69bd 16ff 41be eaa7 923d 6e2a 4b3e
000000c0: 63be 9ebe b7b6 913c f266 d7bd cd44 78be
000000d0: 4634 a73e 661c 9abe f9d8 a53d 796d 82be
000000e0: 9a3c 3dbe a795 2fbe 516d 863e 0526 d53d
000000f0: b9fb 14bf e4a3 ffbe eeed fd3d 25c3 1cbe
00000100: 63c4 5e3e 1099 c3be 1934 813e 454c 0b3e
00000110: 7514 8bbc b26c ccbb de73 bebc a3d2 d3be
00000120: 39e9 79be 006f e23c 52ea f83d 0ec7 38be
00000130: 7a63 92be bd53 bdbe ecb8 b7be cb04 1fbe
00000140: 78a4 3ebe cb5d 403e c6bb 5f3e 571f 37bb
00000150: bea8 0ebe 65b2 a1be f0c7 17be b8e0 003e
00000160: 53c7 74be 2e2b 80bc 7bb4 12be ca6c 613c
00000170: 21f5 9abe e575 b9be 14f2 193e 10f7 f2bd
00000180: 64bf aebd 5710 e1bd 643c 7ebe 2d47 ddbc
00000190: c519 2bbe d47a 43bd e439 a13e 78b0 c43e
000001a0: 4729 263d 8efe 403e 972e b03d 31a6 8fbe
000001b0: c1f1 b6bd 881f 153d ef5a 4dbe c544 a2be
000001c0: 3a59 013e 6b50 10be 22dc 12be 2a6c bf3e
000001d0: afa5 153d 56b4 5c3e e36a 43be 6b18 023e
000001e0: 3bc2 e4bd 3fb3 dbbd de9e 7c3e 61cc 553e
000001f0: 28a0 05be 9e6b 653e ac04 c63e a8a2 2dbc
00000200: 27ff 05be 073c 5f3e d03b e7bd c56b 1b3e
00000210: a830 673e af91 0cbe 804e 8bbd d822 b63e
00000220: 747d 893d db70 5f3d 1b53 a1be 9539 7fbc
00000230: 84f6 75be 84b4 c83e c279 3dbe 5500 92bc
00000240: 15b0 69bd a3b2 ec3d 0225 3d3e cb54 8b3b
00000250: cd22 a53e 33d1 36bd 28c3 64be 7267 82bb
00000260: de58 a4be afb4 26be 34e2 3c3e 2b57 dbbe
00000270: 4b5b 66be 2af4 6c3e 0137 803c 58a3 693e
00000280: dc37 893e 7854 c8bd 3302 b1be 1497 8cbd
00000290: 7cc4 bcbe c483 063e 5864 41be 20c6 9b3c
000002a0: 6397 363e b7f5 503e a246 13be e100 c1be
000002b0: 0ebd 5cbe 1956 4a3d f5da a6be 6403 9bbe
000002c0: 5751 093e 56bb 18be 8808 08be b27e 68be
000002d0: 15c5 3abe 40ad 6f3e 8c02 b0be b719 c63d
000002e0: cb7e 3f3d f061 8c3e 75f3 90be 94bb 60bc
000002f0: dce8 41be bde7 01bd d8d6 46be d889 643d
00000300: 74b3 1cbe dd1b 29be 9c31 fabd 48c3 bb3e
00000310: 3646 853e 8402 323e eebb 3bbe 237c 4abc
00000320: 3a75 943e a658 88be 783d 9abc c73a 9d3b
00000330: c8ef 74bb 28ca 633d 9496 943e d3ef dd3c
00000340: 6723 eabe ddd5 793d a13f a13d 95d6 8c3e
00000350: 2d71 bd3e 5232 743e 5379 343d ed33 5fbe
00000360: 512e 633e 446f c33e 9010 eebc 655a 533e
00000370: 6c85 d23d 7c19 83be 61ae 2fbe a75f dc3d
00000380: 3338 7cbd 59da e03d 85a6 a23d 4b13 963e
00000390: 90c0 76be c84a 823e 95cb 19bd adcf 423e
000003a0: ccda 3bbe 5c90 88be 485a 20bd dc89 0fbe
000003b0: 4276 0abe 88c9 843d 72c6 1fbe 7f1a 133f
000003c0: 2576 2fbe e03e 96bd 6f6a aa3e f6fd a5bd
000003d0: a8a8 25be 3109 a4be e178 34be c8a4 1cbe
000003e0: 2412 08be 7b8e 84be 529c 47be 0c8b 9cbe
000003f0: 371c 1ebe 74c3 993b 50ac 42bd c6a6 87be
-0.0334985 0.13822226 0.023983927 0.43999735 0.1764602 0.15420856 -0.16648847 -0.19061938
0.07168193 0.31642875 0.04516048 0.18936634 -0.14358136 -0.21946326 0.18569352 -0.036260314
-0.08961396 0.2864954 -0.13298324 -0.0776998 -0.12467499 0.19431905 0.35612538 0.050116386
-0.023223655 0.08886087 -0.15371723 -0.019919306 -0.11018817 -0.05340643 0.15088531 0.43401176
0.09499916 0.07801681 0.19591962 0.29974863 0.15450417 -0.27666745 -0.1216935 0.30592582
-0.30310687 -0.26234147 -0.033986825 -0.13832621 -0.057042327 -0.18944964 0.07160933 0.19840404
-0.3100463 0.01778732 -0.10517682 -0.24244995 0.3265707 -0.3009979 0.08098025 -0.25474146
-0.18480149 -0.17146932 0.26255277 0.10407642 -0.581966 -0.49929726 0.12398897 -0.15308817
0.21754603 -0.38202715 0.2523506 0.13603313 -0.016977528 -0.0062385434 -0.02324861 -0.4137164
-0.24405374 0.02764082 0.12154068 -0.18044683 -0.2859152 -0.3697795 -0.35883272 -0.15529172
-0.18617427 0.18785779 0.21848974 -0.0027942264 -0.13931558 -0.31581417 -0.14822364 0.12585723
-0.23904161 -0.01564559 -0.1432666 0.0137588475 -0.30265144 -0.3622276 0.15033752 -0.1186353
-0.085325986 -0.10989445 -0.24827725 -0.027011478 -0.16709049 -0.04772456 0.3148948 0.38415885
0.04056671 0.18847105 0.08602636 -0.2805648 -0.0893283 0.036407024 -0.2005422 -0.31693092
0.12631693 -0.14093177 -0.14341787 0.3738721 0.03653496 0.21553168 -0.19083743 0.12704627
-0.11169859 -0.10727548 0.24669978 0.20878746 -0.13049376 0.22404334 0.3867544 -0.010597862
-0.13085614 0.21800242 -0.11290705 0.1517783 0.22577155 -0.13727449 -0.06802082 0.3557346
0.067133814 0.054550987 -0.31508717 -0.0155776935 -0.2401982 0.39200222 -0.18503478 -0.017822424
-0.05705269 0.1155751 0.18471149 0.0042520515 0.32253113 -0.0446331 -0.22340071 -0.003979617
-0.3209905 -0.16279863 0.18445665 -0.4283994 -0.22495763 0.23140016 0.015651228 0.22816217
0.2680043 -0.09781736 -0.3457199 -0.06864753 -0.36868656 0.13136202 -0.18885934 0.019015372
0.17831187 0.20406233 -0.14382413 -0.37695983 -0.21556494 0.049398515 -0.32588926 -0.30276024
0.13409935 -0.14915213 -0.13284504 -0.2270458 -0.18239243 0.23405933 -0.34376943 0.096728735
0.04675178 0.2741847 -0.28310743 -0.013716597 -0.18936485 -0.031715143 -0.19417894 0.05579552
-0.15302831 -0.16514535 -0.122164935 0.36672425 0.2603013 0.17383772 -0.18333408 -0.012358698
0.28995687 -0.26630133 -0.018828139 0.0047982666 -0.0037374366 0.055612713 0.29021132 0.027091896
-0.45730135 0.06099497 0.078734644 0.27507463 0.3700041 0.2384732 0.044061016 -0.21797152
0.22185637 0.38170826 -0.029060632 0.20639952 0.102793545 -0.2560538 -0.17156364 0.10760432
-0.061577033 0.109791465 0.07941917 0.29311594 -0.24096894 0.2544768 -0.037547667 0.19024535
-0.18345183 -0.26672637 -0.0391486 -0.14017433 -0.13521674 0.064837515 -0.15603045 0.57462305
-0.17134912 -0.07336211 0.33284327 -0.0810508 -0.16177619 -0.32038262 -0.17624237 -0.15297234
-0.1328817 -0.25889954 -0.19493225 -0.30574834 -0.1544045 0.0046924893 -0.04752761 -0.26494426

cnn_features.4.1.weight f4 [32]
00000000: 65fd 653f cde5 5b3f 0647 873f eeba 583f
00000010: 4163 703f bb34 3f3f 1d70 4c3f 2369 7a3f
00000020: 2b1a 493f b900 6d3f d727 683f bc1b 523f
00000030: 3437 613f 82a4 593f 719c 803f 4be9 6e3f
00000040: c089 803f 988d 653f 7278 453f e541 823f
00000050: e67c 573f e2aa 6c3f 0531 783f 5b58 403f
00000060: d0f0 613f b8e4 5a3f b782 583f da3f 5c3f
00000070: b980 933f 3385 5e3f aae9 663f 5688 863f
0.89839774 0.85897523 1.056855 0.8466023 0.9390145 0.74689835 0.7985857 0.97816676
0.78555554 0.9257923 0.9068579 0.8207357 0.8797486 0.85016644 1.0047742 0.93324727
1.0042038 0.8966918 0.7713691 1.017636 0.84174955 0.92448246 0.969498 0.7513482
0.88258076 0.8550525 0.84574455 0.8603493 1.1523658 0.86921996 0.90200293 1.0510356

cnn_features.4.1.bias f4 [32]
00000000: 59ce 833e 782a 253e 534e acbd 4030 2fbd
00000010: 2769 a73d 5211 14be 7fbb b1bd f435 283e
00000020: a6ac babd 96de 0abe cef5 0dbb fc77 acba
00000030: 8755 f53c c447 90be 8f58 823d 5ae3 b13c
00000040: 26ef 24be b918 97be b798 65bc 42a9 0bbe
00000050: ac09 08be ded5 3dbe c32e fcbd 6a35 bfbd
00000060: 0393 62be d02b 78be 77fc c0bd da70 103d
00000070: 89dd 773e 5337 14be d6f7 78be 51df a3be
0.25743368 0.16129482 -0.08413377 -0.042770624 0.08174353 -0.14459732 -0.0867834 0.16426831
-0.09114961 -0.13561472 -0.0021661404 -0.0013158317 0.02994801 -0.28179753 0.063645475 0.021714855
-0.16106853 -0.2951105 -0.014013461 -0.13638785 -0.1328494 -0.18538615 -0.123136066 -0.0933636
-0.22126393 -0.24235463 -0.09423154 0.035263874 0.24205603 -0.1447423 -0.24313292 -0.32006314

cnn_features.4.1.running_mean f4 [32]
00000000: 5033 a03e 1338 5a3e b898 e43d 64b1 343f
00000010: 710e f0bd 57fa a1be 01fc 16bf 0410 59be
00000020: 1092 86bf 2be9 4fbe bc36 d1be 19c8 703e
00000030: 4484 3cbe f1d2 f93d 0073 903e 9623 ad3c
00000040: a710 943b 1f53 5e3d 7fcb bfbe d069 65bf
00000050: e7af e4bd 411f c43c 8e07 8d3d 3fd2 653e
00000060: 240b 583e 0c6a fd3d acb3 ab3d 46a0 7abe
00000070: 506d 8fbf 567c b6bb 6b89 5cbd 9017 ebbc
0.31289148 0.21310453 0.11161941 0.70583177 -0.117215045 -0.31636307 -0.5897828 -0.21197516
-1.0513325 -0.2030379 -0.40862072 0.23513831 -0.1840983 0.12198437 0.28212738 0.021135133
0.0045185867 0.05427849 -0.37459943 -0.8961458 -0.11166363 0.023940684 0.068862066 0.22443484
0.21098 0.123737425 0.08383879 -0.24475202 -1.1205235 -0.005569021 -0.05384199 -0.028697759

cnn_features.4.1.running_var f4 [32]
00000000: a8e6 1c3e 09de b13d d761 353e 0c47 323f
00000010: 1e64 083d b831 0b3e 5ec8 d33e 767b cd3d
00000020: be5d 293f bb09 8e3d 4f2b 943e a3ed a43d
00000030: 97f4 083e 3c30 033d 6215 283e fbd9 863d
00000040: 33ee f23d 6bd9 8e3e 91b1 813e 54d9 c03e
00000050: d7f6 6e3d 79fc 003c e897 773e 3b1a cc3d
00000060: 3bb6 2e3e 8418 803d d9bf e83c bd4f f83d
00000070: be75 253f bedd ce3c b881 083d 3735 a83d
0.15322363 0.08684928 0.17713104 0.6963966 0.033298604 0.13593185 0.41363806 0.10033314
0.66158664 0.0693545 0.28939292 0.08053138 0.13374554 0.03202842 0.16414407 0.06584545
0.11861839 0.27900252 0.25330785 0.37665808 0.058340874 0.007872694 0.24179041 0.099659406
0.17061703 0.06254676 0.028411793 0.12124584 0.64632785 0.02525222 0.033326834 0.08213275

cnn_features.4.3.weight f4 [64, 32, 1, 1]
00000000: 3fa1 5ebe 7287 013e d476 433e 187c fdbb
00000010: 4107 de3c c8de 853b 25ee f5bc 0998 b8be
00000020: 06e7 5cbe 81b7 0bbe 54ba 2c3e e02c 3ebd
00000030: 4e6b 76bd 7617 b2bd 0d56 ebbc 46bd 203e
00000040: 4d0f 31be 2af4 193e 31d6 cdbd 7d1d 0fbb
00000050: d5f4 223d c7ea f5bd 568f ea3d 6ec4 ee3c
00000060: 566f 10be ef12 5bbe 4f77 86bd 3332 383d
00000070: 63f3 fcbd a20f d7bd aaf0 833e 74fb 42be
00000080: 85c4 36bd df26 e9bd 97f9 8dbe b0ac b23d
00000090: 779a b23d cb47 063e 31e5 1e3d 191f 0bbe
000000a0: 3c3d 1d3c 3831 a2be 689c 653d 3850 6e3d
000000b0: 4a80 01be 155f 79bd 4807 a5bd 6f87 51be
000000c0: eac6 8bbb a6b9 05bd 77f2 7d3d 31e4 7fbc
000000d0: 7125 5fbd 13fc f1bd c72d 88be 1f04 d4bd
000000e0: 419f eebd 4aa4 2b3e 72b4 eabd 9277 9ebc
000000f0: 05a2 58be 74d9 cebd 973e 4c3d b040 d53e
00000100: e836 ae3e b6ad e63c af53 cd3e c89d 21be
00000110: 51c6 2fbd c256 10be 5f7b 39be 652a dabd
00000120: 4c74 aabd a44a 05bd e610 953d 0b4b 4e3e
00000130: 4226 0abe fe37 17bd 2f4e 963d a271 a83d
00000140: 596b 84bc 194b ea3c 900f 7d3d 9a1c 5bbd
00000150: abc2 fb3c 8c97 cc3d 8203 aebd d5e6 b9bd
00000160: f3f6 a23c 702e b8bd e74e 0dbc 2a70 09bd
00000170: c23c 00be 98d7 6cba 9ab0 043e e711 dc3d
00000180: 25ee 09be f24a f93d df65 89be 8922 8f3c
00000190: 2a90 bd3c 75e0 453d f5bb adbd 792a 57bd
000001a0: 618d 3b3d ce49 aa3e bf6b 3ebe 7321 573e
000001b0: 8ade 973d a352 02bd b886 b63c 589f 98be
000001c0: 9e25 43be aa2d ecbe 7010 e9bc 6c38 0a3d
000001d0: 09e0 0fbe 3411 8cbd 58d0 84be 8144 803b
000001e0: d2d0 993c 0a1c b03d fca3 70be 23b0 863d
000001f0: 4486 b53c 036f 65be cdbd a43c 2112 883e
00000200: 7282 24be aef5 543d 0861 e8bd 343c 9dbd
00000210: 96eb 41be f1b3 95bd ab90 993e 2b35 153e
00000220: aca7 bfbd 3af2 6a3d 3c3e 933c ebe3 89bd
00000230: 1be8 7bbd 0f69 9cbe d668 3cbb aca8 a8bd
00000240: 381e 38bc 0807 333e 5718 d2bd 2c86 5d3e
00000250: e43a 1ebe 7711 7c3c 239e 5a3e 86be 90bd
00000260: a46f 99bd 7683 2bbe 0c03 143e a13e 5abc
00000270: 42ca 65bd 94fe dcbd b2a8 8c3d 56da ffbd
00000280: 3305 2fbd be9c 0a3e 2d72 fe3c 2f17 983d
00000290: d288 943d 2811 bb3d 5e50 173e 44f8 5c3d
000002a0: 61a3 e83d 6ab5 213b 3c48 18be 827d 0dbe
000002b0: 713e 33bd 8cda cabd aecd 8c3d b8e3 cabc
000002c0: d724 58bd fe50 503e 02eb 263d 7d6f 06bd
000002d0: 8d55 ab3d c963 573e 1645 673e 6adb 2bbe
000002e0: 20d1 3a3d aefc f43d 92c6 0d3e f7b3 2d3e
000002f0: 2b74 45be 25ee 7ebd 3a2b b83d df9f 4fbd
00000300: ffcb 63be 75f6 1c3d b399 97be c267 14be
00000310: 3961 4abd 6206 8abd ccea 183d 4a4d 23be
00000320: 7e0c 1ebe fafe 82bd c4e9 c53d 3221 75be
00000330: 7074 bcbd c086 3ebd bf6d 22be 4847 63be
00000340: 4356 dabd 6b52 ae3b e38d 473e 8d04 953e
00000350: b000 7a3d 16d5 463e 4106 c6bd 6768 803e
00000360: de15 fdbc 9258 c73d 978b bd3c 05fb d83b
00000370: 527a 25bd 01d0 0d3c 923e 783e cc42 f93d
00000380: 2b4b bbbd 99ea 963d ace0 79bb 935a ec3d
00000390: d883 683e 3edb 393d 4f78 5bbe 3013 6c3d
000003a0: cc50 053d fcfc 4cbe d846 12be 2859 9f3e
000003b0: 38e8 83be 1c2d 293e 83a0 2ebd 0a05 d2bd
000003c0: dd80 a3bd e24d 143d d6db bb3c 472c d13d
000003d0: aa99 fcbd 5cda e63d 91eb d23c 514f 7bbd
000003e0: 3ba8 5a3e 87d5 92bd 05d4 89bb 8129 4ebd
000003f0: e9c7 5e3d 8abe 1cbe 77a4 03bd 0ac5 a83c
-0.21741198 0.12649325 0.19088298 -0.0077357404 0.027103068 0.0040853955 -0.030020783 -0.36053494
-0.21572503 -0.1364422 0.16867954 -0.046429515 -0.060160927 -0.08695881 -0.028727556 0.15697202
-0.17290993 0.15034547 -0.100506194 -0.0021837645 0.03978427 -0.12007671 0.114531204 0.0291464
-0.14104971 -0.21393941 -0.06565725 0.04496975 -0.1235111 -0.105010286 0.2576955 -0.19041234
-0.04462101 -0.11384367 -0.27729484 0.08724344 0.08720868 0.13113324 0.038792793 -0.13586082
0.009597119 -0.31678176 0.056057364 0.05818197 -0.12646595 -0.060881693 -0.080580294 -0.2046182
-0.0042656558 -0.03264775 0.06199881 -0.01561837 -0.054479066 -0.118156575 -0.26597425 -0.103523485
-0.11651469 0.1676189 -0.114601985 -0.019344125 -0.21155556 -0.1010007 0.049864378 0.41650915
0.34026265 0.028159004 0.40102908 -0.15782845 -0.04291374 -0.14095595 -0.18113469 -0.10652617
-0.08322963 -0.032541886 0.07278614 0.20145814 -0.13491157 -0.036918633 0.07339131 0.08224799
-0.016164469 0.028600262 0.06178242 -0.053494073 0.030732473 0.09989843 -0.08496763 -0.09077231
0.019893145 -0.08993232 -0.008624769 -0.033554234 -0.12523177 -0.00090348115 0.12957993 0.10745602
-0.13469751 0.12172498 -0.26835534 0.017472522 0.023140032 0.048309762 -0.084831156 -0.05253074
0.045789126 0.33259434 -0.1859579 0.21008854 0.07415493 -0.03181709 0.022281036 -0.2980907
-0.19057319 -0.4612859 -0.02845022 0.033745214 -0.14050306 -0.06839219 -0.25940204 0.0039144163
0.018776331 0.08599098 -0.23500055 0.06576564 0.02215875 -0.22405629 0.020110035 0.2657633
-0.16065386 0.05199211 -0.11346632 -0.076774985 -0.18937525 -0.07309712 0.29993185 0.14571063
-0.09358153 0.05735991 0.017974012 -0.06732925 -0.06150065 -0.30548903 -0.002874901 -0.082352966
-0.011237673 0.17483151 -0.10258549 0.21633214 -0.15452152 0.015385023 0.21349387 -0.070675895
-0.07491997 -0.16749367 0.14454287 -0.013320596 -0.05610109 -0.107907444 0.068681136 -0.12492816
-0.042729568 0.13536355 0.031060303 0.07426297 0.07252659 0.09134132 0.14776751 0.053947702
0.11359287 0.0024674782 -0.14871305 -0.13817409 -0.04376072 -0.09904966 0.06875168 -0.024766788
-0.05276951 0.20343396 0.040751465 -0.032821167 0.08365927 0.21034159 0.22584948 -0.16782919
0.045609593 0.11962257 0.1384528 0.16963182 -0.19282596 -0.06223883 0.0899262 -0.050689574
-0.22245787 0.038320977 -0.2960945 -0.14492705 -0.049409125 -0.06739499 0.037333295 -0.15947452
-0.15434453 -0.06396289 0.09663728 -0.23938444 -0.09201896 -0.046515226 -0.15862177 -0.2219516
-0.10660984 0.0053198836 0.19487719 0.29105034 0.061035812 0.19417223 -0.096691616 0.25079653
-0.030894216 0.0973369 0.02313785 0.0066217207 -0.040399857 0.008655549 0.24242619 0.121709436
-0.091451965 0.07368965 -0.00381283 0.11540713 0.22706544 0.0453751 -0.21432613 0.057635486
0.032547757 -0.20018381 -0.14284837 0.31122708 -0.25763106 0.16521114 -0.042633545 -0.102548674
-0.07983563 0.036207087 0.022931974 0.10213523 -0.123339966 0.112721175 0.025747092 -0.06135494
0.21353237 -0.07169633 -0.004206183 -0.05033255 0.054389868 -0.1530706 -0.032139268 0.020601768

cnn_features.4.4.weight f4 [64]
00000000: 4c88 133f 41f5 a03e c7da 353f da50 083f
00000010: b9d7 083f 0812 243f 4f4f 5a3f 79ff 813f
00000020: d8cf 513f 93f8 703f 4cdb 483f 64bf f83e
00000030: 51c6 923f 5748 783f 4761 4c3f 04d8 903f
00000040: d824 2f3f 2405 2a3f 608c 4f3f 4bb0 2d3f
00000050: daea b23e ac7f 1a3f a509 973e 1859 893f
00000060: 5e50 5a3f 9455 313f 4585 fd3e 0c2b ae3e
00000070: 5314 443f a44a c93e aac1 8c3f c93e f73e
00000080: fc13 273f c65c df3e b0cf 903f 96d4 793e
00000090: 3af7 9b3f ca06 133f ec9e 8b3e 47e9 773f
000000a0: 7dee d23e e786 a33e 2fbf 5f3f b1a5 0d3f
000000b0: d9ec b13e 0149 133f 319f 593f 1266 9b3f
000000c0: c558 9b3f 26dc 1c3f 87fe 6a3f 5b7c 663f
000000d0: 24e6 873f 9593 523f ff71 743f f035 9e3f
000000e0: 06ad 9d3f 73b2 0a3f 42fb d13e 5f94 953f
000000f0: 1aba 8c3f 3f23 8c3f cfd0 5b3f a4fd 6c3f
0.5762985 0.31437114 0.7103695 0.5324837 0.53454167 0.64090014 0.85277265 1.0156089
0.8195777 0.94129294 0.7845962 0.4858352 1.1466771 0.9698538 0.79835933 1.1315923
0.68415594 0.66414094 0.8107357 0.67847127 0.34944803 0.6035106 0.29499546 1.0730314
0.8527888 0.69271207 0.4951574 0.34017217 0.7659351 0.3931476 1.0996602 0.4829009
0.6526487 0.43625468 1.1313381 0.24397501 1.2184823 0.57432234 0.27269685 0.9684033
0.41197577 0.3193886 0.874011 0.5533095 0.34751013 0.5753327 0.8500853 1.2140524
1.2136465 0.6127342 0.9179463 0.900335 1.0617108 0.8225644 0.95486444 1.236021
1.2318428 0.5417854 0.41012007 1.1685904 1.0994294 1.0948256 0.8586549 0.92574525

cnn_features.4.4.bias f4 [64]
00000000: f8d2 a1be 53ad fabe bbc6 71be c8e6 b1be
00000010: 020b b4be c448 88be b426 1bbe 868f 9f3d
00000020: c8f4 063e a6c8 0d3e cd64 24be d2e5 b7be
00000030: 8ddb 82bc 09af 11be 306a 50be 3305 f2bb
00000040: 3666 5abe dcf8 83be 5e2e 40be 1a3b 78be
00000050: 4828 debe 6c05 9bbe 61db f8be 8249 94bd
00000060: b67b ecbd 0c77 76be 34e3 babe dc04 edbe
00000070: 55c3 38be 1f37 e8be b6d9 53bd bc87 cfbe
00000080: aaba 8abe 43ed dbbe 2bc0 29bd bb0b 0bbf
00000090: 8b9d 96bd 6dbb a1be cf01 02bf 7524 d4bd
000000a0: aa7c dcbe 5e97 e6be 1705 babd 8c98 a3be
000000b0: 0b52 f9be 7f29 8dbe 445d 01be 39d1 373c
000000c0: c726 13bd 9a0e 8bbe e15b b5bd 7ce9 85bd
000000d0: f7d8 563a 50f9 1fbe cdce 39be 32cd 9ebd
000000e0: ec69 56bd 716b aabe 83d4 d8be 6457 24bd
000000f0: 378c 13bc c1f7 35bc bdb2 17be 9720 eb3d
-0.3160627 -0.4896036 -0.23610966 -0.34746385 -0.35164648 -0.26618016 -0.15151483 0.07791047
0.13179314 0.13846073 -0.16054077 -0.35917526 -0.01597383 -0.14226927 -0.20353007 -0.0073858737
-0.21328053 -0.25775802 -0.18767688 -0.24241295 -0.43390107 -0.30277574 -0.48604873 -0.07240583
-0.115470335 -0.2406885 -0.36501467 -0.4629277 -0.18043263 -0.45354554 -0.051721297 -0.40533245
-0.27095538 -0.42954454 -0.04144303 -0.54314774 -0.07354268 -0.31588307 -0.5078401 -0.10358516
-0.4306386 -0.4503736 -0.09083002 -0.31952322 -0.48695406 -0.27570722 -0.12633234 0.011219316
-0.035925653 -0.27159578 -0.08855415 -0.06538674 0.00081957824 -0.15622449 -0.18145294 -0.07753982
-0.05234711 -0.33285096 -0.42349634 -0.040122405 -0.009005598 -0.011106432 -0.14814277 0.114808254

cnn_features.4.4.running_mean f4 [64]
00000000: c689 c8be 06ae febe dd57 c33d 28c6 a1be
00000010: eedf 5ebe 57cf 663e 4f32 9cbe dd4d 0b3d
00000020: 66be b23e ce3d 353e a92f 87be fd03 21bf
00000030: b70a 88be 8e0a 7ebe 2d18 d5be e3c5 03be
00000040: d169 c63d 9457 9f3e 5211 d63e d380 043f
00000050: 16cb c9bd 52bf e3bd 4868 dabe 2ca1 4abc
00000060: 8548 653e 909b a1be 9d8f 8abe fd83 723d
00000070: 31d4 27be 66c2 1bbf a858 803d 243d 1dbf
00000080: 3a9e 7a3e 09fb 2d3f f035 643e 0906 22bf
00000090: 524b babe bea3 30be 79e5 f33e b830 d5be
000000a0: 8eb6 e93d 0189 0cbf 3ec5 8ebe 8bc6 b2be
000000b0: 3c01 fe3e c82c 0cbe 5fe5 0b3f d813 113e
000000c0: 3a93 0a3f e89c ecbb 4344 133f 836e 623b
000000d0: dc77 e6bd 24e3 513e 54f6 4e3d 02f1 f03e
000000e0: 060a 9fbe 0866 e0bd 99ee 6a3e 14a9 623e
000000f0: 60e1 8c3e 80d8 84be 135f 5e3e 7430 a73e
-0.39167613 -0.49742144 0.09538243 -0.31596494 -0.2176511 0.22540031 -0.30507132 0.034009803
0.34910887 0.17699358 -0.2640355 -0.6289671 -0.26570675 -0.24808714 -0.41620007 -0.12868457
0.09688152 0.31121504 0.4181009 0.5175907 -0.09853189 -0.11120476 -0.42657685 -0.012367528
0.22390945 -0.31563997 -0.27062693 0.059207905 -0.16389538 -0.60843503 0.0626691 -0.6142142
0.24474421 0.67961174 0.222862 -0.6329046 -0.3638559 -0.17249963 0.4763601 -0.41638732
0.11411773 -0.5489655 -0.2788486 -0.349171 0.49610317 -0.13688958 0.5464687 0.14167726
0.541309 -0.007220853 0.57526034 0.0034550733 -0.1125333 0.20496804 0.050527886 0.47058874
-0.31062335 -0.10956961 0.2294258 0.2213481 0.27515697 -0.25946426 0.21715955 0.32654154

cnn_features.4.4.running_var f4 [64]
00000000: 1e71 9e3e c0aa 653e ac06 653e 51da ab3e
00000010: 02d8 fb3d b494 fd3d 6849 2e3e e9cc 133e
00000020: 2e60 433e cbf7 483e 67e7 513e 4671 a23e
00000030: 4777 713e 5281 973d 6bb0 9a3e 8c9f 2f3e
00000040: a05b 5d3e ab2e 4a3e 8e82 6d3e 6d17 2f3e
00000050: dddc ac3e 2d7a a93d 9f59 af3e 6d28 403e
00000060: 1643 5b3e 447c 503e 5e04 443e 80b8 883e
00000070: ede1 463e 0f97 2c3e 4915 123e ac5d 343e
00000080: e8e6 453e 6f0e 4c3e ceb9 ba3e 331d 883e
00000090: 49dc 763e f618 6a3e 8b67 833e e5a0 9e3e
000000a0: 78a1 4e3e aa0c 843e 30ce 393e 2717 883e
000000b0: 8875 993e f4b0 533e 3d07 9c3e 8ff4 f23d
000000c0: 42a8 193e 382d 653e c025 033e a145 c43e
000000d0: 5cfd 393e 65de 803e 8759 e93d 53de 923e
000000e0: 6276 733e 564f 1b3e 74d5 413e 5ea4 423e
000000f0: 27f6 5b3e 1ca3 983e 5248 423e e699 463e
0.30945677 0.22428417 0.22365826 0.33565 0.122970596 0.123818785 0.1702019 0.14433636
0.19079658 0.19625776 0.20498429 0.31727046 0.23580657 0.07397713 0.3021272 0.17150706
0.21616983 0.19744365 0.23194334 0.1709878 0.33762255 0.08275256 0.34248063 0.18765421
0.2141231 0.20359904 0.19142291 0.26703262 0.19422121 0.168545 0.14265932 0.17613858
0.19326365 0.19927381 0.36469883 0.26584777 0.2410747 0.22861084 0.25664935 0.30982128
0.20178783 0.25790912 0.1814506 0.26580164 0.29972482 0.20672971 0.30474272 0.11863052
0.15005592 0.22380531 0.12807369 0.38334373 0.18163055 0.25169674 0.11394029 0.28685245
0.23775628 0.15166983 0.18929082 0.19008014 0.21480618 0.29811943 0.189729 0.19394645

cnn_features.7.0.weight f4 [64, 1, 3, 3]
00000000: 56d1 5f3e f788 803e 065b 713d 5da4 c03e
00000010: 8a04 d13e ef18 82bd 5ce6 0d3e 81e0 8e3e
00000020: 91b5 9dbc 3149 173e 8e35 603e eb7b b83e
00000030: ab6f a03e 1e7c 4f3e b2db 4d3e 0f05 6a3d
00000040: 581d 4c3e c635 9b3d 3b33 a9bc 591d 3ebe
00000050: 4ca9 7abc 3d95 5c3d b846 efbe 72a9 d1be
00000060: 0d01 84be eb1f a3be 7fb3 acbe d63f 3e3e
00000070: 5a68 9c3e f619 053d 8c88 c33e 27c5 383e
00000080: f20f e1bd 9da3 3d3e fbac a5bd a610 11be
00000090: 7a26 c2bc 0f43 19bd e7f7 ca3d d861 7b3e
000000a0: 2191 f13e bb4d 4a3e 043d 60be 466b 803e
000000b0: 43cf 07bd 2593 4ebe bbf4 cdbe 4bbb 22be
000000c0: 026f 583e 0276 583e 77f8 e7bc 6cc0 9ebc
000000d0: 4f44 7b3e 0698 703e 53a3 523e b989 cf3a
000000e0: 9d63 65be ac4c 94be 4f8a 2ebe 5212 b83e
000000f0: c67f 113d 7e63 0d3e b91d 2cbe 4dac 97be
00000100: c6e7 e3bd 87f3 f9be e1af ebbd ae58 4cbe
00000110: e182 80bd d42e ac3e b633 203e 632a 5c3d
00000120: e06e 133e da18 be3c 8652 b7be b331 0a3e
00000130: 99f9 033e 54cd 13bd fea6 123e 9fa6 84be
00000140: 95e6 87be 003c 58bd c073 3bbe d0e6 95be
00000150: bb85 6cbe 0822 37be b9a0 033e e76c 883e
00000160: c304 573e 285c 973d 421e 813e 4211 8dbe
00000170: a88c 8cbe 0444 2bbd 115e 8bbe 69a3 75be
00000180: d622 4f3d 2802 c03e 8d78 063e 4239 133e
00000190: 25c1 2b3e 34c3 3e3e c947 ce3d 7eb3 b13d
000001a0: 22c1 7f3e 089c 733e ba63 703e 2451 8a3e
000001b0: 4783 e13d 2239 cebd de52 193e e49d 2e3e
000001c0: 934a 01be d949 a8be 1552 9e3d b62b e63d
000001d0: b4ec c6be 1574 febd b122 7ebe 27e8 093e
000001e0: 2036 5abe fe53 11be bd2b 2c3e 6aef 2ebe
000001f0: a306 f2bd 7ba0 803e e961 ea3d 67e3 aabd
00000200: a9af 47be b626 c4bd fc7c 2fbe 1557 90be
00000210: bcc0 eb3d 234e 433e f9a7 0c3e dc13 fd3d
00000220: 5006 963e c955 133e 2044 94be 3083 eb3d
00000230: 0c22 66be be63 02be a71b 1fbe c341 69be
00000240: 275e 8fbe 9802 99bd 4461 4ebe c7ee 20be
00000250: 4b32 8ebe b985 b63d 2bbd 8f3e 9b3a ab3d
00000260: db4c df3d 0e26 813e 02f1 0e3e 53ed 1e3e
00000270: 5e7d a23e c8fe 553e 4d73 593e 8c08 283e
00000280: c172 583e ff83 853e e145 02be 9884 ccbc
00000290: ddf5 1fbe 6e29 fc3d 8e4b 883d 4dbe 613d
000002a0: e517 54be 56b8 59be 7182 e0bd 7d15 adbe
000002b0: 3609 fc3d 825d 93be c1e1 0a3d 916a 2cbe
000002c0: 7276 bdbe 0d45 91bd e215 1cbd 6bbe 83bb
000002d0: d63f 693e 1662 c63e cb20 673e 23b7 d83d
000002e0: 5a3c 403e 7715 8a3c c096 4abe 8106 bc3c
000002f0: 731c 26be e891 593e e6da 763e afc3 5b3e
00000300: ef14 253e f1cc 1c3e 7fd0 823e c198 613d
00000310: e3d7 a13d 1063 0b3e 2a78 fa3e 8e7c 683e
00000320: e84d e63e 6929 cf3d a4b3 233d da71 903d
00000330: 1f0e aabc 541e 043e 015f ab3d b248 a3bd
00000340: 39c3 3dbe 495b a3be b260 3bbe bc1c 3a3c
00000350: 37bf 7dbd 5440 753e 10c3 113e bde5 123e
00000360: 80dd 5c3d f3da 1abd 3e01 f6bd aac1 03be
00000370: a141 39bd 0bb5 4dbe 828d adbd 0ac7 a33e
00000380: 8a57 65bc 3a0a 30bd 570a 2a3e 8770 163e
00000390: 150d 7d3e d1a2 c33e 7912 413e d046 963d
000003a0: cc6e 6a3c cfcf 383e 9ed3 5f3e cb8f 0f3e
000003b0: b4b8 523e 878f 3b3e 4d1e 673e e7c2 863e
000003c0: d994 fe3d 953a cf3d cb99 603e 08c0 8f3e
000003d0: f509 4b3e a0b2 953e 82be f9bd 2f64 953c
000003e0: e212 263d c0b9 fcbd 927d 5cbe 4852 aabe
000003f0: eb6d a0be a980 063b 5134 683c 5255 333d
0.21857199 0.25104496 0.058924697 0.376254 0.40823776 -0.06352412 0.13857406 0.27905658
-0.019251617 0.14774014 0.2189543 0.36032042 0.31335196 0.2026219 0.20103338 0.05713373
0.19933069 0.07578616 -0.020654311 -0.18565883 -0.015299153 0.053853262 -0.46733642 -0.4094959
-0.25782052 -0.3186029 -0.33730695 0.18579039 0.30548364 0.03249546 0.38190114 0.18043958
-0.109893695 0.18519445 -0.08089634 -0.14166507 -0.023699988 -0.037417468 0.09910565 0.24549043
0.47181037 0.19756214 -0.21898276 0.25081843 -0.033156645 -0.20173319 -0.40225777 -0.15891759
0.21136096 0.21138766 -0.02831672 -0.019378863 0.24537776 0.23495492 0.20570116 0.0015833891
-0.2240128 -0.28964746 -0.17044948 0.35951477 0.035522245 0.13807485 -0.16808213 -0.29623643
-0.11128192 -0.4881861 -0.115081556 -0.19955704 -0.06274963 0.33629477 0.15644726 0.05375136
0.14397764 0.02320521 -0.35805148 0.13495521 0.12888183 -0.036084488 0.14321515 -0.25908372
-0.26543108 -0.052791595 -0.18305874 -0.29277658 -0.23097889 -0.17884076 0.1285428 0.26645586
0.2099791 0.07390624 0.25218397 -0.2755223 -0.27451062 -0.04181291 -0.27220204 -0.23988117
0.05057033 0.37501645 0.13131924 0.14377311 0.16772898 0.18629152 0.10072286 0.086768135
0.24976018 0.2378999 0.23475543 0.2701503 0.11011367 -0.10069491 0.14973018 0.17052418
-0.12626104 -0.3286884 0.077305 0.11238806 -0.38852465 -0.12424485 -0.24817921 0.13467465
-0.2130971 -0.14192197 0.1681356 -0.17083517 -0.11817672 0.25122437 0.11444456 -0.08344155
-0.19500603 -0.09577696 -0.17137522 -0.28191438 0.115113705 0.19072776 0.13735951 0.123573035
0.2930169 0.14388193 -0.28958225 0.114996314 -0.22473925 -0.12733361 -0.15537892 -0.22778992
-0.2800152 -0.07471198 -0.20154291 -0.15716086 -0.27772745 0.08912224 0.2807401 0.083607875
0.10903331 0.25224346 0.13959125 0.1552022 0.31736273 0.20897973 0.2123539 0.1640951
0.21137525 0.26077268 -0.12721969 -0.02496557 -0.15621133 0.123125896 0.06655036 0.055113126
-0.2071224 -0.21261725 -0.1096238 -0.33805457 0.12306444 -0.28782278 0.033906702 -0.16837527
-0.3700443 -0.070932485 -0.038106807 -0.0040205023 0.22778258 0.3874671 0.22571103 0.105818056
0.18773022 0.016855938 -0.19784069 0.02295232 -0.1622179 0.21247065 0.2410694 0.21461366
0.16121267 0.15312554 0.25549695 0.055077318 0.07902505 0.13612008 0.48919803 0.22703764
0.44981313 0.1011532 0.03996624 0.070529655 -0.020758687 0.12902194 0.0836773 -0.0797285
-0.18531503 -0.31905583 -0.18298605 0.01135939 -0.061949935 0.2395032 0.14234567 0.1434545
0.053922176 -0.037806462 -0.12011956 -0.12866846 -0.045228604 -0.20088594 -0.08474256 0.31987792
-0.013997922 -0.042978503 0.16605507 0.14691363 0.24712022 0.38210157 0.18854703 0.07337725
0.014308643 0.18048023 0.2185807 0.14019696 0.20578271 0.1831647 0.22570153 0.26320574
0.12430734 0.101185955 0.21933667 0.28076196 0.19828017 0.29237843 -0.121945396 0.018236248
0.04054535 -0.123401165 -0.21532276 -0.332659 -0.3133386 0.0020523465 0.014172629 0.04378254

cnn_features.7.1.weight f4 [64]
00000000: cf86 4e3f 9b36 803f 51f4 553f 5fc1 463f
00000010: e808 7c3f d2d7 823f 567c 3a3f cf8b 5f3f
00000020: 123f 863f bfba 893f a85d 793f 5598 563f
00000030: 0fbc 743f 904c 8e3f b18b 5c3f 43b2 363f
00000040: 17ca 573f 97fe 5b3f b28a 4b3f d060 443f
00000050: ba63 453f 7b89 503f c945 843f 1278 913f
00000060: 4871 3b3f fa02 443f 6e4a 5a3f 3fa9 6c3f
00000070: 75e6 753f 6b6d 583f f010 3c3f 9b42 363f
00000080: 7e74 4e3f 1966 503f 8953 323f 2a3b 903f
00000090: dfd5 8c3f 5c23 4e3f 26e0 513f fcd2 6e3f
000000a0: 39d4 3b3f 4f0f 673f cf95 733f d7a1 383f
000000b0: ef42 613f f642 443f 7c55 533f f3fe 783f
000000c0: d244 613f 6467 5b3f ee71 3d3f 2e39 8d3f
000000d0: 31a5 813f dc56 643f 0831 953f 4ffa 733f
000000e0: 523e 983f 915b 423f 4c03 883f a438 7a3f
000000f0: c976 213f abac 823f aa8c 433f 8c60 833f
0.8067445 1.0016664 0.8357592 0.7763881 0.9845109 1.0222113 0.7284597 0.87322706
1.0487998 1.0760115 0.97408533 0.8382619 0.95599455 1.1117115 0.8615065 0.71365756
0.8429274 0.8593535 0.7950851 0.76710224 0.77105296 0.8145978 1.0333797 1.1364768
0.7321973 0.7656704 0.8526982 0.9244575 0.96054775 0.8454196 0.73463345 0.7119538
0.806465 0.8140579 0.69658715 1.1268055 1.1002768 0.80522704 0.8198265 0.93290687
0.733707 0.90257734 0.95150465 0.7212195 0.8799276 0.76664674 0.82552314 0.9726402
0.87995636 0.85704637 0.7400197 1.1033075 1.0128537 0.89195037 1.1655588 0.95303816
1.1894019 0.7592097 1.0626006 0.97742677 0.63071877 1.0208944 0.7638651 1.0263839

cnn_features.7.1.bias f4 [64]
00000000: e6c3 82be 76eb 9bbe 76b5 6fbd a7de 88be
00000010: c93d 2bbd 31aa 12be be19 d7be eae6 7ebd
00000020: ba95 4bbb f5ba 10be cd9f b3bd 0e62 a3be
00000030: d01e 00be fd3f 50be ed57 9bba 3e7b 93be
00000040: d695 c8bd f394 99be 3756 91bd 22b3 23bd
00000050: 886e a5be 8d31 55be 9360 81be 2cfa cd3d
00000060: 9818 e9bd 6e05 92be 35f2 52be 8335 aebe
00000070: 1b24 ffbd ac8d 83be 27e0 74be ddb1 a1be
00000080: 4110 cdbe 9a67 6bbe acdb 3cbe bb70 88be
00000090: 35f7 8ebd ed0a 90be 6a0d b8be 6f0a 37bd
000000a0: 24e3 c8be 958a ccbe 31ac 4a3b 2b29 d6be
000000b0: 4c8f 33be 40b7 97be ca2f 32bd 615f 943a
000000c0: 5e0d e3bd ff07 4cbe 9563 42be c775 0f3d
000000d0: 2fdb d2bd 2258 5ebc 31a1 0abe 92cf 533c
000000e0: 3c21 9ebd 738d 8dbe d611 6dbe eb3b 5c3c
000000f0: d0ed 97be b8a2 57bd a5e9 d9bd 2b1e a03d
-0.25540084 -0.3045308 -0.058522664 -0.2673237 -0.04180697 -0.14322735 -0.42011827 -0.062231936
-0.0031064586 -0.14133818 -0.08770714 -0.31910747 -0.12511754 -0.2033691 -0.0011851765 -0.28804964
-0.09794204 -0.29996452 -0.07096522 -0.039965756 -0.3231089 -0.20819683 -0.25268993 0.10057482
-0.11381644 -0.28519768 -0.20600207 -0.340252 -0.124580584 -0.25694025 -0.23913632 -0.3158101
-0.40051463 -0.2298874 -0.18443173 -0.26648507 -0.06980745 -0.28133336 -0.35947734 -0.044687685
-0.39235795 -0.3994948 0.0030925388 -0.41828284 -0.17535132 -0.29631996 -0.043502606 0.0011319929
-0.11086534 -0.19924925 -0.189833 0.03502443 -0.10295712 -0.013570817 -0.13538052 0.012927907
-0.07721183 -0.2764698 -0.23151335 0.01344202 -0.29673624 -0.052645415 -0.10640267 0.07818254

cnn_features.7.1.running_mean f4 [64]
00000000: 1bff b73e fad4 053d 7981 36bf 274e 763d
00000010: c0c0 213e 5910 d83d 4883 59bd cdeb e8be
00000020: c591 2fbe 4764 25be 3986 0bbe 6cd5 163e
00000030: 41bb 69be 652f 85be 7914 f8bd 7c77 5abe
00000040: e8d7 f3bd 2876 1c3f 4f36 4ebe a74c 9dbe
00000050: febd 8e3b 4fbc b53e d799 863b 5b4f 27be
00000060: e824 fbbd abc8 033f b774 f03d 38cd 083b
00000070: 795c cdbd 08bc 863d 439e 773f 1a64 5a3e
00000080: c3f5 aabd 607e f03d 2ff5 96be bbb7 203a
00000090: 9b1f 2ebe ca17 9d3e c5c0 a23b 03f9 05be
000000a0: 995b 9c3d 3cb2 3c3c 9a71 d8bd dc9f 1e3e
000000b0: 302b 883d 2518 b53e 9a52 a2be a4e2 20bf
000000c0: c34e b4bd f1a5 a73c 0a44 aebe c575 77bd
000000d0: 3f92 90be 027f 1ebf 3470 28be d525 eabe
000000e0: a4a9 8abe aef4 773e 6b9d 853d 4ddc 21be
000000f0: 1286 96be bb45 b2be b6c1 4dbf 1a24 07be
0.35936818 0.032673813 -0.7129131 0.060133126 0.15796185 0.10549993 -0.053103715 -0.45492402
-0.1714545 -0.16151534 -0.1362542 0.14729851 -0.22825338 -0.26012722 -0.1211328 -0.21334642
-0.11906415 0.6111779 -0.20137905 -0.30722544 0.004356145 0.3549523 0.0041076946 -0.16338865
-0.12262899 0.5147807 0.117410116 0.0020874273 -0.100274034 0.06578833 0.96725863 0.21327248
-0.083476566 0.11742854 -0.29483935 0.00061308936 -0.17004244 0.30682212 0.0049668276 -0.13083272
0.07634658 0.011517104 -0.10568543 0.15490669 0.06648862 0.35369983 -0.31703645 -0.62845826
-0.08804085 0.02046487 -0.34036285 -0.06041505 -0.28236577 -0.6191255 -0.16449052 -0.4573199
-0.2708255 0.24214432 0.06524166 -0.15806694 -0.29399163 -0.34818825 -0.80373704 -0.13197365

cnn_features.7.1.running_var f4 [64]
00000000: 18a3 1f3e dce7 123c 20a6 923f ac9a 203c
00000010: 3f52 f43d 79d5 203e 7e46 3e3d ee3c 023f
00000020: a2bb 7d3e 596e d53e a3a0 d93d 1b88 0f3d
00000030: 8434 263e 7e5a 5d3e 9953 843d 0c43 0a3e
00000040: f0f4 683d 08ea 9d3e 4207 033e baf0 883e
00000050: bc59 f539 ed20 1c3e 9b1b c139 7ce3 023f
00000060: 5597 893d 9431 b43e 8b24 ef3c 917a 853b
00000070: 84c1 6e3d ab99 553c bd77 5c3f 9688 7a3d
00000080: 972f 383d e71d 9f3d a056 983e f8ca 7238
00000090: 5c14 143e 0c9d c63d 6d55 933a d834 b03d
000000a0: d938 b93c 59d7 a53a 7a74 8b3d 3ce1 fc3c
000000b0: 7a3e 113d 30ba db3d 6d10 ad3e c447 a93f
000000c0: 4288 103f b707 bb3d 8cbf b73e 8f8a 3d3d
000000d0: b0ac ba3e c4d7 693f c923 c73d f695 893f
000000e0: 8ecc 973e 17f7 d63d 6b5a 963c a455 393e
000000f0: ea9a de3e 9f19 203f 12c6 943f 430f 783e
0.15589559 0.008966412 1.1456947 0.009802502 0.1192975 0.15706433 0.046453945 0.5087422
0.24778607 0.4168575 0.10626342 0.03504191 0.1623097 0.21616551 0.064612575 0.13502139
0.056874216 0.30842614 0.12795737 0.2674616 0.000467969 0.15246935 0.00036832396 0.51128364
0.067183174 0.35194075 0.02919223 0.004073449 0.05829002 0.013037126 0.86120206 0.061165415
0.04496726 0.07769375 0.2975359 5.7886326e-05 0.14460891 0.09697923 0.0011240669 0.08603829
0.022610115 0.001265268 0.068093255 0.030869119 0.035459973 0.10728872 0.33801594 1.3225026
0.5645791 0.09132331 0.35888326 0.046274718 0.36459875 0.9134486 0.09723622 1.074889
0.2964825 0.104963474 0.018353662 0.18099076 0.43477565 0.62539095 1.1622946 0.24224572

cnn_features.7.3.weight f4 [128, 64, 1, 1]
00000000: 9956 eebc 229d 96bd d012 07bd bff4 af3c
00000010: 2d86 f43c c0de 743e 221b 183d bd17 3fbe
00000020: feba 35be af63 2f3e 602c ffbc 2872 abbd
00000030: 310e d5bd 755e c33d 753a 9d3d 51bb 8a3c
00000040: 785b a83c 286e 9b3c 54b7 c43d 0733 8ebd
00000050: 78a3 523d de77 d7bd c8ad 0e3e 87c4 0a3e
00000060: 257a 563c a42e 3ebe 0549 8dbd a642 cb3d
00000070: ee94 6c3d eafa 67bc ccae 1abe 9cd8 33be
00000080: a19d e4bc 4544 883e 6d7a a03d adc5 55bc
00000090: c134 ce3c 5a0b a7bc 4e45 b2bc 99e6 4cbb
000000a0: ee80 07bd 4ed3 01be ff93 243b fbe2 ec3c
000000b0: 72c8 1d3e b0ee 24bb d2d7 59be 25f6 a43b
000000c0: c265 95bc 0d7c a93d 2251 15be 9aa0 cdbd
000000d0: d9c2 06bd 5665 ce3d 939c edbd a75a 3c3d
000000e0: d219 713d 65f6 a43e a9ea cf3d e9e7 cfbd
000000f0: 86b1 bdbd c4ae f9bc 39a1 7e3b 0a31 fc3c
00000100: 50e7 49bd 2537 123e 7808 e7bc b5b0 163e
00000110: 942e a83d 005b 753d 783d a7bb 1afb 673a
00000120: 0f28 e0bd ca62 873c cb78 aabd 2b9a 283e
00000130: eeb4 ab3d b10d c8bd 4c7f c2bd 899b 78be
00000140: 36a5 64bd de85 06be 8dcd da3b 14cb ee3c
00000150: f40b d03c d9a0 3a3d 02ed 94b9 1f6b 973c
00000160: 8b41 d1bc e2bb b1bc b6e4 853d 28f5 16be
00000170: 1fac c73d 2202 413e 84e7 dd3b 67d1 1a3e
00000180: 5f73 34be e826 79be 2bca b8bc a51b b8bd
00000190: ed2d 4dbe c069 423b 49cd 6dbe f87d 42be
000001a0: d454 2dbe 44cb 103e a9bf 51be 4ea3 f5bc
000001b0: 007e 813c f6a3 e73c a0ba 863e d81c 01bd
000001c0: d72c 21bc 173b 823d a225 4a3d 533e dd3d
000001d0: e87f 2bbe 7302 e13d 1fd6 76bd e830 663e
000001e0: 9a35 8ebe 91f4 36be 370b a8bc c4c7 473d
000001f0: af35 c33d a1a4 53bd a013 d1bd 4c6c 9cbc
00000200: bd98 03be b018 cd3c 60d5 7b3e 2810 bebd
00000210: d811 313e 20b9 613e b419 60bd 1cea 193e
00000220: 807f 0c3e aa07 093e 7bf8 81bd b342 dcbc
00000230: 30cf cdbd a579 01be 826b dfbc 57ad 27be
00000240: f13f 47be 8845 c03c 7f7f eabb 2a1c 083e
00000250: 1a69 273d d3d6 09be bcd5 d9bc 6f29 a33d
00000260: 2a9f 61bd 47f9 2fbe f18b 1a3c baac f3bd
00000270: df70 3ebe dad2 23bb f1f9 e4bd db3c 06be
00000280: ffcb cebc 1167 9e3c 2fd7 a7bd 7ad7 81bc
00000290: de36 01be ae5f acbd e393 c4bc 14ab 833b
000002a0: 690c 3c3e 7a6e 0fbc f8fe d23d d56f 09be
000002b0: d458 da3b 04ed b23d 55fb 313d add7 253e
000002c0: e1b2 e13c a1df fabd e551 b8bc 37d2 843d
000002d0: 6e32 18be 990e 7d3e fc5f d5bc 7079 813d
000002e0: 6c4e fbbd 9537 703c 06e3 c4bc 0fe2 963d
000002f0: 39aa 20bd c3ec b2bd af19 9d3e 2caf 023e
00000300: f719 c53b aac6 d33d 352e e4bd 5af5 f63d
00000310: d5dc 033e 228c 253e 4c2b 1c3e cdd6 2c3d
00000320: 5a4d 7b3e 4e40 dcbd 9a51 1a3e 5067 39bd
00000330: 17b6 b83d c991 1cbe 3cbd 323a a172 ca3c
00000340: 8328 1a3e ca4c 6fbd e342 8a3e 8e77 1cbe
00000350: 36db 15be 454b 18bc 34cd 82bd c72e 9abd
00000360: 6104 443d 5af9 c2bd 5397 33be 1304 9c3a
00000370: 5f98 313d 0be9 09be 705c 993d 2fe8 13be
00000380: 254b cc3b 9582 16be eab8 173e 6616 b53d
00000390: d949 963d 1aad bcbc 8cb5 b33d 49e4 353e
000003a0: 2098 e8bc da47 5cbd 1370 b23d 49f1 21bd
000003b0: cccd 27be fa7a c9bd 2492 3fbd b19b dbbd
000003c0: 595b 433e 3272 f6bd 8dbb f33d a817 a83d
000003d0: 044c 5c3e 92d6 3abc 8874 363e e281 03bd
000003e0: 5649 103c d57a 39bd bed0 14be c468 efbd
000003f0: 5486 e63d a51a ab3d b1e1 533d 5d33 d6bd
-0.029094027 -0.073541895 -0.032976925 0.021479009 0.029849136 0.23913097 0.03713525 -0.18661399
-0.17747113 0.1712787 -0.03114909 -0.08371383 -0.104030974 0.095395006 0.076771654 0.016935023
0.020551428 0.018973425 0.096052796 -0.069433264 0.051425427 -0.1052091 0.1393348 0.13551532
0.013090645 -0.1857248 -0.06898693 0.099248216 0.057759218 -0.014158944 -0.15105742 -0.17563099
-0.027907195 0.26614586 0.07835851 -0.013047618 0.02517164 -0.020391155 -0.021761563 -0.0031265377
-0.03308194 -0.12678263 0.0025112627 0.028916826 0.15408495 -0.0025166683 -0.21273735 0.0050342255
-0.018236998 0.08275614 -0.14581731 -0.10040398 -0.032900665 0.10077922 -0.1160213 0.04598489
0.058862515 0.32219234 0.1015218 -0.10151655 -0.092623755 -0.030478843 0.003885342 0.030785102
-0.049292862 0.14278848 -0.02820228 0.14715846 0.08212009 0.059901237 -0.005103763 0.0008849368
-0.109451406 0.016526598 -0.08323821 0.1646506 0.08384119 -0.097682364 -0.09496936 -0.24278082
-0.05582162 -0.13137004 0.0066773356 0.02914957 0.025396325 0.045563553 -0.00028405344 0.018483697
-0.025543949 -0.021696035 0.06537764 -0.14741957 0.09749626 0.1884847 0.0067719836 0.15118943
-0.17622136 -0.24331248 -0.022557339 -0.08989648 -0.2003705 0.0029665083 -0.23222841 -0.18993366
-0.1692689 0.1414004 -0.20483269 -0.029985096 0.015807152 0.028276425 0.2631426 -0.03152165
-0.009837351 0.06358927 0.049352296 0.10802903 -0.16748011 0.10986795 -0.060262796 0.22479594
-0.2777527 -0.17866732 -0.02051316 0.048774496 0.09531724 -0.051670674 -0.10208821 -0.019094609
-0.12851234 0.025036186 0.24593115 -0.09280425 0.17291963 0.22043276 -0.054712012 0.15030712
0.13720512 0.1338183 -0.06346222 -0.026887273 -0.100492835 -0.1264406 -0.027272943 -0.16374718
-0.19457985 0.023470655 -0.007156312 0.13291994 0.040871717 -0.13460855 -0.026591174 0.07966887
-0.05508343 -0.17184936 0.009432779 -0.11898179 -0.18597744 -0.0024997503 -0.11180485 -0.13109152
-0.025243757 0.019336255 -0.0819534 -0.015849818 -0.12618586 -0.08416687 -0.0239963 0.004018197
0.18364109 -0.008754367 0.10302538 -0.13421567 0.006663421 0.087366134 0.04345258 0.16195555
0.027551116 -0.12249685 -0.022499988 0.06485408 -0.14862987 0.247126 -0.026046745 0.063219905
-0.12270817 0.014661689 -0.024034034 0.07367336 -0.039224837 -0.08736565 0.30683658 0.12762135
0.006015058 0.103406265 -0.11141626 0.12058516 0.1287721 0.16166738 0.15250891 0.042197037
0.24541226 -0.10754453 0.15070191 -0.045264542 0.09019106 -0.15289988 0.0006818359 0.024712862
0.15054516 -0.05842284 0.27004156 -0.15279981 -0.14634404 -0.009295289 -0.06386796 -0.07528453
0.04785574 -0.09520216 -0.17538194 0.001190307 0.043358203 -0.13467805 0.07488334 -0.1444404
0.006234544 -0.1469825 0.14816633 0.08842163 0.07338304 -0.02303176 0.08774862 0.17762865
-0.028392851 -0.05377946 0.08712783 -0.039536748 -0.16387099 -0.09837909 -0.04677023 -0.10723055
0.19077815 -0.120335 0.11901007 0.08207637 0.21513373 -0.011403697 0.1781789 -0.032106288
0.008806547 -0.045283157 -0.14532754 -0.11689904 0.1125609 0.083546914 0.051728908 -0.104590155
