6-final model/cnn_gru_model_20250809_163418_best.pth (torch, 515625 bytes, 103 tensors)

cnn_features.0.weight f4 [32, 1, 3, 3]
00000000: 158b b43d a63c 173e 1768 2f3e 883c 97be
00000010: 41c5 64be a6f7 d43c 8aba 15be 0f5e 483e
00000020: 78e4 8a3e 86f1 973d 4967 223e b286 1e3e
00000030: f236 e6be 27c2 05be c69c d03c eca0 bdbd
00000040: 240b 353e 71ab f93b 856a bdbd 63cc 63be
00000050: ed46 93be 991d ee3d 8e90 403a 2ec6 3b3e
00000060: 4995 933e 18ac ffba 0546 51be 9fc9 593e
00000070: ba52 5e3e d8b1 3bbe f12f dd3c fa0a 11be
00000080: 743e e8bd 13de 913e 6234 62be 9664 0cbd
00000090: 6d0b 913d 61cc 95be 01b5 a2bd 464e 05be
000000a0: 5a45 abbc 1166 013e 67a1 4f3d e77f 5d3e
000000b0: 0249 ae3e 8a92 bdbd fa7d e03c 098c 72be
000000c0: bed1 723e 1f5e d43d 164f 1cbd 7547 963e
000000d0: 691e 713e af88 4f3d c44a 2f3e 6f0c 3b3e
000000e0: 711d 443e f329 8f3e 54fa 78bd 4f8c 8d3d
000000f0: 07fa be3c 87ce 3f3e 6e35 583e 0e5a 04be
00000100: e667 7c3d 7de7 4cbe 60cc 503e 7a47 713e
00000110: 9063 593e b1a1 02be 4f05 09be 147a cebd
00000120: 9369 80bd bfb8 4cbe bc6b 2fbd 40ca 9cbd
00000130: 8654 11be acaf 863e 3b5f 3bbe 3281 a23e
00000140: 790d 6b3e ebd1 9c3e 3e30 0a3e cd8f 7a3e
00000150: 834f bebd 9ad7 2ebe ba40 5bbe 06fb 29bd
00000160: a89a 79be db52 753c 6727 87bd a04b 4abd
00000170: 21cf 8e3d 331a 1ebe 1349 80be d930 1ebe
00000180: 47fe 9d3e 14ba d93d 4804 833d 5d48 bcbe
00000190: d020 62be 1e88 71bd 705e 71be ca86 393e
000001a0: a94c 4b3e 0398 2abe 7a81 a73d 548c 1ebd
000001b0: 134f a73e bcfe be3d e09e 7cbe af25 d4bd
000001c0: ee21 2b3e 2265 3abe 3f00 bb3d 8a5e 2c3d
000001d0: 06b8 79bd 2e3c 6fbe cc8a aebd d95b 8d3e
000001e0: 6a1d 6bbe 2384 863e 4e27 5ebc e2e3 893b
000001f0: 3fce a23d 47e9 7fbd 7d02 e4bc bee7 8d3e
00000200: f952 423d 6ea2 8d3e 6cfa 14bc f59e 25be
00000210: f572 8d3e 5ae6 1d3e 5618 383e adc8 8e3d
00000220: 7338 4b3e c295 74bd 944b b03e a878 cb3e
00000230: d71a 0c3c 22f1 ae3d 1192 8cbd e650 153d
00000240: 2e26 8f3e ecd0 5ebe 3c35 d1bd ecbe 8d3e
00000250: 1cf8 21be ee0f e3bd 75e8 c33d ad7f 2dbe
00000260: 90fe 1dbe ee76 cf3c 71d8 6b3e 302e 2f3e
00000270: 0040 053e 87c2 03be 89a7 26be 5c99 6d3e
00000280: e2a7 35be b14a a3be d8d6 803e 6bce 283e
00000290: 0659 ea3d f58b 1fbd 3c77 36be e0dc 78be
000002a0: 5baa b6bd 5078 ae3d d436 eabc 9953 553e
000002b0: abc5 733e 3655 8b3e 62f4 93be bd7a 67bd
000002c0: 937e 65bc 219d db3d 4f42 58be bc64 54bd
000002d0: 39b4 05bd 4c74 80be a310 7cbe bd16 33be
000002e0: 1f35 223e 049b 1bbe 9d5e 91be 7f07 babd
000002f0: 3ed0 833e a61a 21be 4cf7 4e3a 6fdf 473e
00000300: e901 83bd 5eab 823d d15f d83d e687 8dbe
00000310: d2cc 9b3e 907b f43c 3c0d 803e 4f27 503e
00000320: da97 233d 9d1b ba3d 1dd7 123d fcda b4bd
00000330: 9f10 e7bd 242d 39be 04a4 97bd 982a 1c3e
00000340: 1877 83be 7df5 94be bcb6 333e 462d 563d
00000350: 69a3 5a3e 33bc f93d 5006 a13d 6ee1 78be
00000360: b9e7 aabd a2c4 a6bc 040f b5bc 5224 20be
00000370: 5269 72bc 4b2b ecbc bb59 adbe 97b5 c5be
00000380: d313 153d 1d57 9bbc 8fd0 ce3e 4036 ae3e
00000390: adf9 b7bc 3800 b33c f8d8 f63d a39c 633d
000003a0: 058c d6bd fe0d 18be a049 0abe a00d 42be
000003b0: 7aaf 14bd 073e 16bd a925 8f3e 8dda 453e
000003c0: b9f1 e93d 12cc 933e 9ddd 473e 583e 97bc
000003d0: 3c05 373d 1fb7 aabe 990e a33d 8c04 96bd
000003e0: 6a45 91be b7f2 8a3d cf29 c93a cb55 8bbe
000003f0: c6a0 643e 7217 8d3b 00d2 eebd d9ab 313e
0.0881559 0.1476923 0.17129551 -0.2953837 -0.22340871 0.025996994 -0.1462194 0.1956713
0.27127433 0.07419114 0.15859713 0.1548107 -0.44963795 -0.13062344 0.02546538 -0.09259209
0.17680031 0.0076193144 -0.092488326 -0.22245936 -0.2876505 0.11626739 0.0007345759 0.18337318
0.28824833 -0.0019506244 -0.20436867 0.21268319 0.21711245 -0.18329561 0.0270004 -0.14164343
-0.11340037 0.28489742 -0.22090295 -0.034275614 0.070822574 -0.2925749 -0.0794468 -0.1301814
-0.020907093 0.12636591 0.050691035 0.21630822 0.34040076 -0.09256466 0.02740382 -0.23686232
0.23712823 0.10369515 -0.03816136 0.29351392 0.23546757 0.05066746 0.17118365 0.18266462
0.19151856 0.27961692 -0.060785607 0.06911527 0.023312582 0.18731128 0.21114132 -0.12924978
0.061622523 -0.20010181 0.20390463 0.23562422 0.21229386 -0.12756993 -0.13380931 -0.10081878
-0.06270137 -0.1999235 -0.042827353 -0.076557636 -0.141924 0.26305902 -0.18298046 0.31739193
0.22954358 0.30628905 0.13494965 0.24468918 -0.092925094 -0.17074433 -0.2141141 -0.04149916
-0.24375403 0.014973368 -0.06599312 -0.049388528 0.069731005 -0.15439682 -0.2505575 -0.15448321
0.3085806 0.10631195 0.06397301 -0.3677396 -0.2208283 -0.058967702 -0.23571181 0.18117824
0.19853462 -0.1665955 0.081789926 -0.038708046 0.32677516 0.093259305 -0.24669981 -0.1035875
0.16712162 -0.18202642 0.09130906 0.042082347 -0.060966514 -0.233628 -0.08522567 0.27609137
-0.2296044 0.26272687 -0.013559176 0.004208074 0.079494946 -0.06247833 -0.027833218 0.27715868
0.04744241 0.27662987 -0.009092908 -0.16173919 0.27626768 0.15419903 0.17978033 0.069718696
0.19845752 -0.059713133 0.34432662 0.3974049 0.008551321 0.08542086 -0.068637975 0.036454104
0.27958816 -0.21759385 -0.10215232 0.27684724 -0.15817302 -0.11087023 0.09565822 -0.16943236
-0.15429139 0.025325265 0.23031785 0.17107463 0.13012695 -0.12867175 -0.16274847 0.23203033
-0.17739823 -0.31892923 0.25163913 0.16484992 0.11442761 -0.038951833 -0.17818922 -0.24303007
-0.089192115 0.085190415 -0.028590597 0.20832671 0.23805873 0.27213448 -0.28897387 -0.056513537
-0.014007228 0.10723329 -0.21119045 -0.05185388 -0.032642577 -0.25088727 -0.24615721 -0.17489143
0.15840577 -0.15195853 -0.28392497 -0.09083461 0.25744814 -0.15732822 0.00078951265 0.19518827
-0.06396849 0.06380342 0.105651505 -0.27642745 0.30429703 0.029844075 0.25010097 0.20327495
0.03993974 0.09087298 0.03584968 -0.088308305 -0.11282467 -0.18083626 -0.074043304 0.15250623
-0.256768 -0.29093543 0.17550176 0.05228927 0.21351399 0.12194099 0.07862532 -0.24304745
-0.08344979 -0.020357434 -0.022101887 -0.15638855 -0.014795618 -0.028829237 -0.3385752 -0.38615105
0.03639586 -0.018962437 0.40393493 0.34025764 -0.022457922 0.02185069 0.12053102 0.055569302
-0.10475925 -0.14849088 -0.13504648 -0.1895051 -0.03630016 -0.036680248 0.2795842 0.19321652
0.11423058 0.2886663 0.19518133 -0.018462345 0.044682726 -0.33342835 0.07961769 -0.07325086
-0.2837327 0.067845754 0.0015347543 -0.27213892 0.22326955 0.0043057734 -0.11661148 0.17350711

cnn_features.0.bias f4 [32]
00000000: cfb2 d43c a0f3 54be 62d8 f63d 5808 b1bd
00000010: e220 d1bd 4af3 32be 6c22 12be 72b1 7dbd
00000020: 092c 1cbd e257 e9bd 42c7 c6bc c984 71bd
00000030: dbe7 f73d ffbf 743e 9cb5 5e3e 166f ddbd
00000040: 8f09 37be 3b6b 263e 88d2 25be 155f d9bd
00000050: d6d3 0d3e 2ba9 243e 2eeb a43e bfbd eebd
00000060: e441 4fb7 3b23 f6b9 ced9 2dbe c1bf 153e
00000070: 8dc5 d93d 833f 6c3e 4b2b 943d d526 923b
0.025964169 -0.2079606 0.120529905 -0.086441696 -0.1021135 -0.1747562 -0.14270943 -0.061936803
-0.038127933 -0.113937154 -0.024264935 -0.058964524 0.1210477 0.23901366 0.21748966 -0.108122036
-0.1787474 0.16251843 -0.16193593 -0.106138386 0.1385034 0.16080157 0.32210678 -0.11657285
-1.2353503e-05 -0.00046947025 -0.16977617 0.1462393 0.10633383 0.23071103 0.0723482 0.0044601955

cnn_features.1.weight f4 [32]
00000000: d936 353f a520 553f 7d08 013f 84e0 273f
00000010: 4697 273f 766b 4b3f 7023 283f cd88 383f
00000020: e81f 4d3f 6d76 233f 6045 453f 2010 783f
00000030: 92a3 4f3f f155 4c3f f627 673f 0473 4c3f
00000040: edcf 4f3f 6a8e 553f daaa 3f3f 4eb4 383f
00000050: 54fb 0b3f 2768 533f 4d08 4b3f 011a 373f
00000060: 7395 3e3f ef7e d83e 610e 313f cb55 7f3f
00000070: 84ba 433f f02b 303f 8509 2a3f 2afd 433f
0.70786816 0.83252937 0.5040358 0.6557696 0.654652 0.7946085 0.65679073 0.7208374
0.8012681 0.6385258 0.7705898 0.96899605 0.81108963 0.79818636 0.9029535 0.79863
0.81176645 0.8342043 0.74870074 0.72150123 0.5468037 0.825808 0.7930954 0.71524054
0.7444679 0.42284343 0.69162565 0.99740285 0.76456475 0.68817043 0.66420776 0.7655817

cnn_features.1.bias f4 [32]
00000000: 0419 0cbe d9e2 da3c 589b 76be b941 ec3d
00000010: a882 2fbe a32c cbbd dab2 60be b187 a4bd
00000020: b667 90bd 1145 22be 799f ab3d 272e 1f3d
00000030: 14ee 2abd c6a5 243d aa7e 253d cba7 723d
00000040: e1bb 393d c8d8 fa3a 12eb a03d 7225 913d
00000050: 7fc4 5f3e dd90 d43c b1de 553d 86b5 ce3d
00000060: 417d 93bd 8a4f 9fbe d1b3 e6bd ae72 a83c
00000070: b2c6 9bbd ae55 cd3d 33a8 1cbe 9892 41bd
-0.13681418 0.026719498 -0.24082696 0.11535973 -0.17139685 -0.09920623 -0.21943226 -0.080336936
-0.07051031 -0.15846659 0.08380026 0.038862374 -0.041730955 0.040197156 0.040404 0.05924205
0.04534519 0.0019138092 0.07857336 0.0708722 0.21852301 0.025947982 0.05221433 0.100932166
-0.07201625 -0.3111537 -0.11264766 0.020562496 -0.076062575 0.10026108 -0.15298538 -0.047258943

cnn_features.1.running_mean f4 [32]
00000000: 8307 1ec1 cf93 5c40 c8c8 1741 c409 03c0
00000010: 3711 48c1 226b cdc1 c643 5bc2 004e a0bf
00000020: c181 92c0 b2e7 3d40 6e5d b140 84d0 d741
00000030: fa22 abc0 9cb2 4a3e 158d 2fc2 d3a7 31c2
00000040: d6c1 3241 40ef 813e 040a d0bf b790 0bc1
00000050: 168a 0e42 c438 0ac1 1f41 d5c0 c31e 05bf
00000060: a027 3142 e9d7 e0c1 1894 eec1 f32e 0a42
00000070: 5406 54c0 a98f 0442 92e6 3bc1 3fc4 6541
-9.876834 3.4465215 9.486519 -2.047471 -12.504203 -25.67731 -54.816185 -1.2523804
-4.578339 2.9672666 5.542655 26.976814 -5.3480196 0.19794697 -43.887775 -44.41389
11.172323 0.25377846 -1.6253057 -8.722831 35.63485 -8.638859 -6.6641994 -0.52000064
44.288696 -28.105425 -29.822311 34.54585 -3.3128862 33.140293 -11.743792 14.360412

cnn_features.1.running_var f4 [32]
00000000: 11a0 f241 0c99 7541 f4a5 f041 1044 1d41
00000010: eb7d 3b42 50be e242 c236 d243 306e 7541
00000020: 1699 a541 af8b d641 43c5 cc41 0394 ee42
00000030: 3ca7 3841 34ef a440 5aed 8b43 7de8 8f43
00000040: affb f241 6bd6 8d41 b6ea 5241 7457 0342
00000050: d89e 3843 9d9c 8e41 e7c7 e441 e4ce 4c41
00000060: 1b5a 8f43 1093 0943 e19e 1243 7d09 2f43
00000070: 5fab 5d41 0b28 2d43 1916 d641 590b 7242
30.328157 15.349865 30.081032 9.829117 46.872967 113.371704 420.4278 15.339401
20.699749 26.818205 25.59632 119.289085 11.540829 5.1541996 279.8543 287.8163
30.372892 17.729696 13.182302 32.835403 184.62048 17.826471 28.597609 12.80051
286.70395 137.57446 146.62062 175.03706 13.854339 173.15642 26.76079 60.51108

cnn_features.4.0.weight f4 [32, 1, 3, 3]
00000000: c9e8 1f3e 71b3 c43c 9480 bd3e 5231 b53d
00000010: b555 1cbe 8026 273e 29a4 3cba 80d6 4e3d
00000020: 67fa 4e3e afe7 603d 82d1 cdbc 5014 24bd
00000030: 9e7c a2bd c5ef 453d d4ce 84be d97e 903e
00000040: 463f 5dbe 7912 253e 3fe4 04be 65c2 f63d
00000050: 156a a43c fcbe 65bd 030e 9f3e 978f 493e
00000060: 7aea 10be 3e18 31bd 97f8 823e f7e4 463e
00000070: ebfa 72be 2ee9 153d 2fcd 443e 97fa 0cbd
00000080: 1b25 99bc 3bee 683d ec71 7cbe 330b a73d
00000090: da1b da3d 295f c43d 7e63 39be 1d86 c8bd
000000a0: d7d0 583e bbf2 f8bd a689 7b3e b3e4 fa3c
000000b0: 5481 47be 2770 8dbe e200 e6bd d819 2a3e
000000c0: 8e12 59be f431 803d 64de 0fbe c340 93bd
000000d0: 0041 6e3e bba6 52bd 5a29 94be 9cd5 423d
000000e0: 65fc cabd 30ac 97bd 3bb4 73bd 6f1a 72be
000000f0: 8f74 abbe f8b3 063e 5eb9 7ebe d87c aa3d
00000100: 661b a53e 2fe3 debd 954a e23d 582b d73d
00000110: c522 5dbe a926 023e ae3e 873e 2360 b9bc
00000120: 690a efbc ef34 41be 7896 233e a400 ccbd
00000130: 3eaa 61bc 2533 4b3e 422c 2e3e 49c7 c3bc
00000140: b748 9cbe d633 a83d b1b1 0b3e ae16 313e
00000150: 5195 08be 5296 c2bb 448d a83e d5d3 d13d
00000160: 79fe 1dbe 05fc 5ebd aab5 42be cb18 7ebe
00000170: 9d0b a43d 15e7 00be 6ccb d53c 659b 153e
00000180: 2ae4 1bbe b154 e2bd 0a1c 9c3c 66ed cebe
00000190: 9de3 47be 7ade de3d 3fba 03be 3eb6 213e
000001a0: d267 46bd 834a 18be ca77 0c3e 7d23 4f3e
000001b0: 2f42 ae3b dce2 ee3e 18c7 44be 7433 193e
000001c0: 77e5 943d 1d80 fbbb f9f0 cfbc 7a5a a23d
000001d0: 7f1e 8bbe 3b3f 9a3e 5bd0 0fbe 2aef 613e
000001e0: 24cd 083d ba8c 80bd 6006 ffbd b839 c33c
000001f0: 8604 73be f568 63be cc0c 453e 8a1a 483e
00000200: 5db8 8d3e 2664 a9bd a799 ebbd 04b3 4abc
00000210: 6de5 4ebe 302c c9bd 25b6 443c a144 1c3d
00000220: 1b99 5bbe 2ad2 63be 14e7 e5bb 2126 163d
00000230: 0386 563d 6cf0 443d 3766 37be 020c 9cbe
00000240: 1f88 4a3e 5150 953e 26a8 dc3d 93ba 29be
00000250: c77c 233d 4c4b 89be e940 fabd e2cf f83d
00000260: e119 e5bd 111a aabd efcb a23e c064 0c3d
00000270: a80c edbd 5a79 5f3e ada3 00be 49fa 15bc
00000280: 3145 69bd bbfc 98be 73cf 1f3e f817 253e
00000290: 4786 493e aa03 6bbe 2808 29bd 0c8d 54be
000002a0: 3ab2 afbd fa77 29be 893e 0d3e 8311 9a3c
000002b0: bb1f 20be 633a 92bc e846 993e f74d c13c
000002c0: e174 82be fc0e 98bd 9465 d83d 6a6d 443d
000002d0: 1ee5 2fbe 8a4e 7fbe 1a2f 97be 4058 243d
000002e0: 9894 1a3d 92eb 203e e1a2 a13e 54a3 62bd
000002f0: 0365 253e e5b1 cfbc cdee 023e 2b11 28be
00000300: 4e6c 46be d98c 1bbe 4c4d acbe a7ae 76be
00000310: c488 c2bd a9a6 543d 9b2a 913e b140 24be
00000320: 9a1b 33be f0b7 c23c b151 303e 3675 46be
00000330: 94e4 34be 556b 603e fe56 3abd e11a 1d3d
00000340: acff 6dbc 7686 403e 6770 803e 4554 a23d
00000350: 33ff da3d 1d6a 5cbe 3768 5dbe f789 95bd
00000360: 5997 ba3d d13f 9dbe fa5e 1dbe ba7d 543e
00000370: 518f ac3d db2b 94be 353c 9d3e 2c5b 003e
00000380: f3d1 033e 201a 20be 54c1 3bbd c702 693d
00000390: abac 75bd 70b8 903d 7ef1 86be 804b b03e
000003a0: df79 fe3d db62 823e 9d55 aebc 7a32 723e
000003b0: d06e 823e 7134 a33d 6fd2 6c3e a630 e83d
000003c0: 5e86 40be 0725 5a3e 4b99 633e 4eef edbb
000003d0: 056a 293d 9fae 6dbe e83c c43d 9a2b 89be
000003e0: c580 5c3e 9672 48be 4ed2 6e3e 6a90 ba3e
000003f0: b712 07bc ec97 8d3d ccd5 45be 07bf eb3a
0.15616144 0.024011346 0.3701216 0.08847298 -0.1526707 0.1632328 -0.00071960926 0.050497532
0.20212708 0.05490845 -0.025124315 -0.040058434 -0.07933925 0.048324365 -0.25939047 0.28221777
-0.21606168 0.16120328 -0.12977694 0.120487966 0.020070115 -0.05609034 0.31065378 0.19683681
-0.14151946 -0.04323601 0.25580284 0.1942328 -0.2372853 0.03659933 0.19218896 -0.03441867
-0.018694451 0.05686782 -0.24652833 0.08156433 0.106498435 0.09588463 -0.1810436 -0.09791205
0.21173416 -0.12155672 0.24564227 0.03062663 -0.19482929 -0.27624628 -0.11230637 0.16611421
-0.21198484 0.06259528 -0.14049679 -0.07190087 0.23266983 -0.051428538 -0.289378 0.047566995
-0.09911422 -0.07405889 -0.059498053 -0.23642896 -0.33487365 0.1315459 -0.248754 0.08324593
0.32247466 -0.108831756 0.11049382 0.10506314 -0.21595295 0.1271006 0.26415008 -0.02262885
-0.029179769 -0.18867849 0.15975368 -0.0996106 -0.013773499 0.19843729 0.1700907 -0.023898738
-0.30524227 0.08213012 0.13642003 0.17293808 -0.1333821 -0.0059383297 0.32920277 0.10245482
-0.15429105 -0.054439563 -0.19014612 -0.24814145 0.080100276 -0.12588151 0.026097976 0.1461006
-0.15223756 -0.1105131 0.019056339 -0.40415496 -0.19520421 0.10882278 -0.12864016 0.15792176
-0.048438855 -0.14872174 0.13717571 0.20228381 0.0053179483 0.46657455 -0.19216573 0.14961034
0.072703294 -0.0076751844 -0.02538346 0.07927413 -0.27171704 0.30126366 -0.14044325 0.2206389
0.033398762 -0.062768415 -0.12452388 0.023831233 -0.23732194 -0.22208007 0.19243163 0.19541374
0.2767972 -0.08271055 -0.11503916 -0.012371782 -0.20204706 -0.09822881 0.012006317 0.038151387
-0.21445124 -0.2224814 -0.007016072 0.036657456 0.052373897 0.048080847 -0.17910086 -0.3047791
0.19778489 0.2916284 0.10774259 -0.16575079 0.03991392 -0.2681526 -0.12219412 0.121490255
-0.11186577 -0.08305753 0.31796214 0.03427577 -0.115746796 0.21823636 -0.12562437 -0.009153911
-0.05695075 -0.29880318 0.1560648 0.16122425 0.19680129 -0.22950616 -0.041267544 -0.2075693
-0.08578916 -0.16549674 0.13793387 0.018807178 -0.15637104 -0.017850107 0.2993691 0.023596747
-0.25479797 -0.07424733 0.105662495 0.047955908 -0.17177245 -0.24932304 -0.29528123 0.040123224
0.037739366 0.15714863 0.3156958 -0.055331543 0.16151814 -0.025353381 0.12786408 -0.16412799
-0.19377252 -0.15190448 -0.33652723 -0.24090062 -0.09498742 0.051916752 0.28352818 -0.16040303
-0.17490998 0.023769349 0.17218663 -0.1938065 -0.1766532 0.21915944 -0.04549312 0.03835571
-0.014526289 0.18801293 0.25085756 0.079262294 0.10693207 -0.21524854 -0.21621786 -0.07301705
0.091108985 -0.3071275 -0.15368262 0.20751086 0.08425773 -0.2893971 0.30709997 0.1253478
0.12873058 -0.15634966 -0.04583867 0.056887414 -0.059979122 0.07066429 -0.2635612 0.34432602
0.12425589 0.25466046 -0.021281058 0.23652068 0.25475168 0.07968987 0.23127149 0.11337404
-0.18801257 0.21303187 0.22226445 -0.0072611934 0.041360874 -0.23211144 0.095819294 -0.26791078
0.21533497 -0.19574961 0.23322412 0.36438304 -0.008244208 0.069137424 -0.19319838 0.0017986008

cnn_features.4.1.weight f4 [32]
00000000: 7aaa 583f 4336 503f a932 453f 607f 6a3f
00000010: 0f12 3a3f ea1f 373f f62f 4a3f 721a 4e3f
00000020: e3fb 443f 4911 1f3f e94e 5f3f 0722 3b3f
00000030: 0c5b 413f c291 543f 08f5 2e3f 89bd 2b3f
00000040: 77f2 6c3f cec1 473f ebe1 453f 26af 183f
00000050: 0253 3b3f 52d0 3a3f c846 463f daec 3b3f
00000060: ffac 503f 9ae3 393f 7315 273f 544a 363f
00000070: 9889 473f 932b 243f be9e 553f c65b 323f
0.84635127 0.81332797 0.77030426 0.9160061 0.72683805 0.7153307 0.7897943 0.805091
0.7694685 0.6213575 0.8722978 0.73098797 0.7552955 0.8303491 0.6834264 0.6708608
0.9255747 0.780301 0.7729785 0.59642255 0.73173535 0.7297412 0.77451754 0.7340828
0.8151397 0.7261292 0.65267104 0.71207166 0.77944326 0.6412899 0.83445346 0.69671285

cnn_features.4.1.bias f4 [32]
00000000: 0865 7dbe d54c 293c 9c60 083c 7136 bdbd
00000010: 116c 84be 5a6d a53d 28cd c03c 9d28 af3d
00000020: ec04 32be d33f 223d 0af4 8f3d d97b 1a3c
00000030: b94c 38be 7b5d 783d 94d1 ddbd b9e1 e4bc
00000040: 69a2 013c d1c4 803e 8898 edbc c2ff 88be
00000050: 4f2b 103d 4ad5 413d e771 5fbe e3eb 9bbd
00000060: a68f e03c b9c8 51be 2217 07be d431 28bd
00000070: a467 70be 9da5 f4bc 2bd6 babb ce7c 35bd
-0.24745572 0.01033326 0.008323815 -0.092388995 -0.25863698 0.08077498 0.023535326 0.08552668
-0.1738469 0.03961165 0.07028969 0.009428942 -0.17998017 0.060636025 -0.108309895 -0.027939664
0.007912257 0.2515016 -0.029003397 -0.26757628 0.035197552 0.04732255 -0.21820794 -0.07613351
0.027412247 -0.20486726 -0.13192418 -0.041063145 -0.23477036 -0.029864127 -0.0057018003 -0.044308476

cnn_features.4.1.running_mean f4 [32]
00000000: af6b 9f3e 8a9f 5fbd 523e a93d 0b40 823c
00000010: 6240 d03c ed4c 18be 7c5d 5cbe 2f91 673e
00000020: a511 6abd c38f 0a3e 0681 72be 5313 1bbe
00000030: 303e 0d3e 3adc f0bd 1341 913d c241 a0be
00000040: 7b86 0b3d 2c05 4dbd 5c85 1cbd 6acd efbb
00000050: 160e 5ebc 07a3 ffbe 8284 c9bc 4372 b53d
00000060: 01d9 893d 4905 923c a7ae af3e 3d44 fb3d
00000070: 8a73 07be e6d1 da3d cc47 9fbc 609b d83d
0.31136844 -0.054595508 0.0826384 0.015899679 0.025421325 -0.14873095 -0.21520036 0.22613977
-0.057145733 0.13531403 -0.23682031 -0.1514409 0.13793254 -0.11760755 0.0709249 -0.3130017
0.034063797 -0.05005376 -0.03821312 -0.0073181884 -0.013553163 -0.49929067 -0.024599317 0.08859684
0.06730843 0.017824786 0.34312937 0.12268875 -0.13227668 0.10684566 -0.019443415 0.105765104

cnn_features.4.1.running_var f4 [32]
00000000: 0c5b ed3d 24b0 823d 89af 943c a23f 813d
00000010: 3742 033c 2a96 253d 10d3 df3d a77f 253d
00000020: 5624 fe3c 323a 413d b783 953d 08aa 933d
00000030: 7da5 be3d e102 133e 4b36 1e3d 4beb f93d
00000040: 1462 223d 762b a83d 262b 6f3e b4bd 9a3c
00000050: 0088 413c db95 613e 2dc7 4c3c 6154 873d
00000060: dfe2 d43c 098c b53b 8995 213e b792 1f3d
00000070: c4ca b53c 181d f73c 604e d63c af13 813d
0.115896314 0.063812524 0.018150108 0.06310965 0.008011392 0.04042641 0.10928929 0.040404942
0.031023186 0.04717464 0.07300513 0.07210165 0.09308908 0.14356567 0.038625997 0.12203082
0.039644316 0.082114145 0.23356304 0.018889286 0.01181221 0.22029822 0.012498659 0.06607891
0.025987087 0.005540375 0.157797 0.038958278 0.022191413 0.03016524 0.026160419 0.063025825

cnn_features.4.3.weight f4 [64, 32, 1, 1]
00000000: b588 febc 6d68 e33d dd25 483c 8c2d 28be
00000010: f034 90bd b208 b0bd 2a48 363d 2ead 37bb
00000020: dd49 cb3c 1f31 1a3d b29f 73be 2e8e 0ebe
00000030: ee61 f63b e56b 563c 46b8 12bd 494e f13d
00000040: 490d 82bd 15b0 98bd 7dcc 9c3d 5387 23bd
00000050: 716c 04be e73b 053e bb66 16bd 4bb7 743e
00000060: b984 93bd 2d45 423e dd60 e03d e637 f9bd
00000070: 73db 633b 18e0 893d 3954 94bd f070 4e3e
00000080: 0fd2 2c3d 77a4 273c be64 7c3d 915d 003e
00000090: ef58 83bd 763f f93d f3b6 43bd 8bcb a5bd
000000a0: 3484 91bc 046c d1bd f047 70bd b561 91be
000000b0: e120 5d3d 0cc5 03bd 11ef afbc 5ada 603d
000000c0: 5611 5e3e 42f2 0ebd ffd7 a5bd 2687 90bd
000000d0: 47eb 7cbe 328f d93c ebe6 12bd 5ca8 74be
000000e0: 6cbc 72bd 1248 f03d dcef 4f3e 09fb f53d
000000f0: 7de7 a13d 1e0e 0c3c 9103 4fbe 4da7 3f3e
00000100: fbcf 00bd c74a 833d 782a 1c3e bea3 fd3c
00000110: e0f9 653d deb1 7fbe 51a9 70be 166a dfbd
00000120: bed3 5b3c 20e1 2ebd 0d82 853d 3b1b 9f3d
00000130: 604a 7b3e 14c4 67be f15f ecbc 41af 4c3c
00000140: c87a 7d3e 6384 663d 8f3f febc 26a1 a1ba
00000150: 093c f63c 85df 853d 6f5a 1b3d 5bef ee3b
00000160: 6cc6 0d3e 2edc 953c 44d2 e5bd 5052 cd3c
00000170: da4f 97bc cf02 2a3e a3f6 9abc 6cbb 6c3c
00000180: 8a8a f53d 878d e63d 736c 81bd 4de4 eebd
00000190: 0528 1fbd 07c5 c63c 30a3 383e f950 693e
000001a0: 9882 0abc 34b9 73bd cd55 c2bd be83 0c3e
000001b0: c258 b4bc dab7 ae3c 376f 9fbd c59a dfbd
000001c0: eaf2 5cbd dc93 edbd 0575 b43d 6aaa 0e3e
000001d0: 9b4a 01be a12e 073e 2754 c23b beec 893e
000001e0: d87e 87bd 6088 3d3e 54c7 1d3d 8353 08bd
000001f0: da9d 10be 5364 c7bd e9fa 30be 3462 d8bd
00000200: 0d21 263d 37a7 f5bd f97a 50be 7293 b9bd
00000210: 949e 2d3e 3e6e cdbc 18d3 eb3d d704 783d
00000220: 9b35 8e3e 4b0d 17be a145 b8bd fea1 90be
00000230: b4d3 e43d 7a17 053d 7f54 06be 3603 a5bc
00000240: e9d9 0ebe d769 2c3e 133b 85be f8c5 963d
00000250: 7eed b6bd 1f70 bfbd a12c 653d 1a10 29be
00000260: 029d c3bd 382c b0bc 3872 99bd c49e 46be
00000270: 8b92 c2bd 66da 263d 0a72 1e3c d30a 84bd
00000280: b3f8 80bd a6ff 60be 5d8f 3e3c 5dd0 9dbc
00000290: 58ef a9bc 7c35 59bd 1d44 dcbd 2967 c4ba
000002a0: 63c3 243e b221 fb3b 7bd6 0b3e 6496 093e
000002b0: 160c 103e 03c0 013d bae4 02be faa0 a1bd
000002c0: b5e6 cbbc 8a8d c2bd a1cf eebd 5548 18bd
000002d0: 20c9 e53d f37f 983d 56cd 2c3c 1ca5 ab3d
000002e0: 48a3 6c3d 892d a63e e258 b53d 03a9 11bd
000002f0: 46d2 703d 5832 c13d f195 863d 29b0 0b3e
00000300: 1ea6 0c3e a9ee 853e 8d08 e2bd d250 1ebe
00000310: 31b0 11be f061 6c3d 6659 83bd 226d 8f3e
00000320: e85c 0b3d 77c9 213e 1878 acbd 3e6f 9cbd
00000330: 3117 66be 0949 38be 0384 403a ee38 33bc
00000340: b7e7 36bd bc34 c2bd 3574 0d3d 6f95 e13d
00000350: b432 f8bb b2ec 9d3d c4fc 00be b424 173d
00000360: 38f0 f1bc ffed 8ebd 310d 6a3d 4eed fe3d
00000370: c020 01bd 02c9 02be f8b7 cbbd cba2 543e
00000380: 6af1 2abe 0b4e 3bbe be6a 84be 04d5 5fbe
00000390: 2c3f 113e 9f0f 94be 90dd 603d 54e2 a0bd
000003a0: 57fa d43c 891d e9bd 2830 44bd 59d0 0c3d
000003b0: 8b61 9cbd 80c3 50be 7037 4e3d dda1 523d
000003c0: 836b 84be 65d2 1f3e 4cd2 8f3c 4a74 88bd
000003d0: f6a7 1d3d ce4c 063c d9c5 ef3d ef9c a4bd
000003e0: 54e0 42be 8f86 123d 130e 883d 7f32 edbc
000003f0: 0659 b93d 5b3a d83d 926c 243d 4e8e da3c
-0.031071046 0.11103902 0.012216059 -0.16423625 -0.07041347 -0.085954085 0.044502415 -0.0028026807
0.024815494 0.0376445 -0.23791388 -0.13921425 0.0075189983 0.0130872475 -0.035820268 0.1178251
-0.0635019 -0.0745546 0.076561905 -0.039923977 -0.12931992 0.13011132 -0.036719065 0.23898046
-0.07203049 0.18971701 0.10955975 -0.12168865 0.0034768253 0.067321956 -0.07242627 0.2016027
0.042192515 0.010232083 0.061619513 0.12535693 -0.06413447 0.12170307 -0.047781896 -0.08095463
-0.017763235 -0.102256805 -0.058662355 -0.28394857 0.053986434 -0.03217034 -0.0214763 0.054895736
0.216863 -0.034899004 -0.080978386 -0.070570275 -0.24699126 0.026557539 -0.03586475 -0.23892349
-0.059261724 0.11732496 0.20306343 0.12010772 0.07905481 0.008548288 -0.20216204 0.18716164
-0.031448346 0.06410747 0.15250576 0.030961867 0.056146502 -0.24970195 -0.23502089 -0.10908906
0.0134171825 -0.042695165 0.06518946 0.07768866 0.2454009 -0.22633392 -0.028854342 0.012492956
0.24753869 0.056278598 -0.031036166 -0.0012331351 0.030057924 0.065367736 0.03792804 0.007291717
0.13845223 0.018293466 -0.112217456 0.025063664 -0.018470693 0.16602634 -0.018916434 0.014448982
0.11989315 0.11257463 -0.06319513 -0.11664639 -0.038856525 0.024263872 0.18031001 0.22784795
-0.008453988 -0.059502795 -0.094890215 0.1372213 -0.02201498 0.021327902 -0.077848844 -0.10918192
-0.0539426 -0.116004676 0.08811382 0.13932195 -0.12626116 0.13201381 0.005930442 0.26938432
-0.066159904 0.18509054 0.038520172 -0.033282768 -0.14122716 -0.09735932 -0.17283215 -0.10565606
0.040558863 -0.11994784 -0.2035941 -0.09061326 0.16955024 -0.025076982 0.11514872 0.06055149
0.27775273 -0.14751165 -0.08997656 -0.2824859 0.11173192 0.032493092 -0.1311817 -0.020143133
-0.13950314 0.1683725 -0.26021633 0.07361978 -0.08932017 -0.09347557 0.055950765 -0.16510049
-0.09551431 -0.02150546 -0.074924886 -0.19396502 -0.09500607 0.040735625 0.009670744 -0.06447377
-0.062974356 -0.21972522 0.01163086 -0.019264394 -0.02074401 -0.053029522 -0.10755179 -0.0014984357
0.16090159 0.007663929 0.13656037 0.13436276 0.1406711 0.031677257 -0.12782565 -0.07892032
-0.024890283 -0.09499653 -0.11660696 -0.037178356 0.11220002 0.074462794 0.010547003 0.083811015
0.057772905 0.32456616 0.08854844 -0.035561573 0.058794282 0.094334304 0.06571568 0.13641419
0.13735244 0.26158646 -0.11036787 -0.15460518 -0.14227368 0.057710588 -0.06413536 0.2801295
0.03402415 0.15799509 -0.084213436 -0.07638405 -0.22469784 -0.1799661 0.000734389 -0.010938866
-0.044654574 -0.094827145 0.03453465 0.1101483 -0.0075744037 0.07711162 -0.12596422 0.036900237
-0.02953349 -0.06978988 0.057141487 0.12447606 -0.031525373 -0.12771991 -0.09947199 0.20765226
-0.16693655 -0.1829149 -0.25862688 -0.21858603 0.14184254 -0.28918168 0.0548988 -0.07855669
0.025998278 -0.113825865 -0.047897488 0.034378383 -0.07635792 -0.20387077 0.050345838 0.051423896
-0.25863275 0.15607603 0.017556332 -0.066628054 0.03849026 0.008197023 0.11707658 -0.08037745
-0.19030887 0.035772856 0.066433094 -0.028954742 0.09050183 0.105580054 0.040142603 0.026679184

cnn_features.4.4.weight f4 [64]
00000000: 1dcb 4b3f a73e 4c3f e4a2 183f f6e3 083f
00000010: 27e3 153f a760 3e3f 821d 613f 56bb 8f3e
00000020: abfa db3e 0bd6 383f 4b94 dc3e a793 bc3e
00000030: 54ba 2c3f a4b9 9a3e 8d32 353f 1411 603f
00000040: e083 853f 6457 703f fcd6 d43e 4485 8d3e
00000050: 6f6d 633f 9c0d 8d3e e9af a93e 9547 293f
00000060: 0197 0a3f b6df 003f 546a 463f fa97 8b3e
00000070: c044 823e 17ee 663f 149f 2a3f 21b3 523f
00000080: f113 303f a402 293f c955 003f 8f49 433f
00000090: 0afa 113f a566 483f 06b1 7f3f 73a3 5a3f
000000a0: c30c 1d3f 91fc 4f3f 24d1 7c3f 5697 453f
000000b0: 70d8 7f3e 869c 3a3f e7d1 e13e db00 ca3e
000000c0: 92ab 373f 239a 183f b190 e13e 0ad7 1a3f
000000d0: 8ac1 2f3f 0eb1 753e 5a74 1f3f 799f 3a3f
000000e0: 15c5 ed3e 4891 173f 3350 483f cb16 783f
000000f0: 373a 093f cf11 0e3f b0de a53e 6c77 423f
0.796068 0.797831 0.5962355 0.5347284 0.5854973 0.7436623 0.8793565 0.28072613
0.42964682 0.72201604 0.4308189 0.368314 0.67471814 0.30219758 0.7078026 0.8752606
1.043087 0.9388335 0.4157027 0.27640736 0.8883886 0.27549446 0.3314202 0.6612485
0.54136664 0.50341356 0.77505994 0.27264386 0.25443077 0.90207046 0.66648984 0.8230458
0.6878043 0.66019654 0.501309 0.76284117 0.57022154 0.78281623 0.9987949 0.85405654
0.613476 0.8124476 0.98756623 0.77184045 0.24984908 0.72895086 0.44105455 0.39453778
0.7174617 0.59610194 0.44055703 0.60484374 0.6865469 0.23993322 0.62286913 0.72899586
0.46439424 0.59206057 0.78247374 0.9690978 0.53604454 0.55495924 0.3239646 0.75963473

cnn_features.4.4.bias f4 [64]
00000000: 6835 2a3d e8bc a4bd c777 54be 0968 61be
00000010: e0e6 7cbe bd17 bdbd 50e5 6dbd fb39 cebe
00000020: c025 b4be 5cad c5bd ee70 a6be 46b0 b0be
00000030: f585 f9bd 83f6 ccbe 724b d3bd 1dc7 8f3b
00000040: 578a fdbc 72e0 69bd 5de7 89be 34a5 cbbe
00000050: 7e5c afbd 462e bdbe d273 bfbe 47fc 44be
00000060: 558d 48be de6b 6bbe d793 a6bd e387 c6be
00000070: 3787 d2be cdb4 173c a3f3 0abe ce74 42bd
00000080: ba95 d4bd e843 60be 79d6 71be 0cb8 c4bd
00000090: a3a3 57be e42f 01be 0f38 8bbc 1e6d 58bd
000000a0: e94d 20be 3c55 b6bd cf3f 55bc b984 91bd
000000b0: 43a7 e4be c63f fc3d c33e 84be 0ac6 9fbe
000000c0: c2c8 00be d7e7 35be 9f30 97be bac4 35be
000000d0: 8015 f0bd 2dfb dabe 8759 13be 5ff4 9d3d
000000e0: 9ef0 8cbe 490f 2abe cd34 c8bd 7ae4 88bd
000000f0: d60a 73be 2df5 74be e450 bfbe d270 c7bd
0.04155484 -0.080438435 -0.20748816 -0.22012343 -0.24697447 -0.09233043 -0.058080018 -0.4027861
-0.3518505 -0.09652206 -0.32508034 -0.34509486 -0.121837534 -0.40031824 -0.103171244 0.00438775
-0.030949755 -0.057098813 -0.2693433 -0.39774477 -0.08562563 -0.36949366 -0.3739305 -0.19236861
-0.19585164 -0.22990367 -0.08133667 -0.38775548 -0.41118786 0.009259415 -0.13569503 -0.047474675
-0.103801206 -0.21900904 -0.23616971 -0.09605417 -0.21058516 -0.12615925 -0.016994504 -0.052838437
-0.1565472 -0.08902976 -0.013015701 -0.07105393 -0.4465886 0.12316851 -0.25829133 -0.3120578
-0.12576583 -0.17764221 -0.29529282 -0.17750826 -0.11722851 -0.42769757 -0.1438962 0.07712626
-0.27527326 -0.16607393 -0.09775696 -0.066842034 -0.23734602 -0.23921652 -0.37366402 -0.09738316

cnn_features.4.4.running_mean f4 [64]
00000000: 6f16 52bd c37b 90bd 760b 953d ea49 313d
00000010: 0124 afbe 454f 0c3e 4085 18bc be79 c0be
00000020: 9eaf 30be 8f4f c8bc 7a5c 38be ed5b 2cbf
00000030: 3da2 693d 621f efbe cf70 3f3d c16c babd
00000040: de92 0fbe 5e63 1fbf fdd7 97be 6751 44be
00000050: 584c 3d3d 5e43 9dbe 81fd 79be 65c7 5c3d
00000060: ce01 16be 50f8 6c3d bebf 6ebe 31f1 cdbd
00000070: f8df dabe b962 01bf bbab c7bc 24ec 58be
00000080: 3f2a b6bd a6de 9abe 9e01 013e 1cd7 243d
00000090: 4b8f abbe afe4 f0bd 0629 66bd e83c a13e
000000a0: 54d4 47be beb9 b1bd a0a7 8fbe 7141 3e3e
000000b0: a968 e6be 2c0d 10bc 4eca 04be 3381 973e
000000c0: 4a39 633e 0503 b23e d069 96be e61d 02be
000000d0: 2c60 4f3d 416b fcbe ebca 063e 793e 773e
000000e0: 056f c7bc b4f1 0bbf b76d 003e 5f03 67be
000000f0: 2346 88bd ab4a 99be d262 cf3e 91b5 10be
-0.051290926 -0.07054856 0.072775766 0.04328338 -0.34207156 0.13702114 -0.009309113 -0.37592882
-0.17254493 -0.024451999 -0.18004027 -0.6732777 0.057039488 -0.4670363 0.046738442 -0.091027744
-0.14020869 -0.62261 -0.29656973 -0.19171678 0.046215385 -0.3071546 -0.2441311 0.053901095
-0.14649126 0.057853997 -0.23315331 -0.10055769 -0.42749 -0.50541264 -0.02437388 -0.2118383
-0.088947766 -0.30247992 0.12598273 0.040244207 -0.3350776 -0.11762368 -0.056191467 0.3149178
-0.1951459 -0.08678006 -0.28057575 0.18579651 -0.45001724 -0.008792203 -0.12967798 0.2959076
0.22189823 0.3476793 -0.29377604 -0.12706718 0.050628826 -0.49300578 0.13163345 0.24144925
-0.02434493 -0.54665685 0.12541853 -0.2255988 -0.066540025 -0.2993978 0.4050508 -0.14131762

cnn_features.4.4.running_var f4 [64]
00000000: a95b cb3d 9d48 023e 87f1 013e d9de eb3d
00000010: 2172 f03d 43c1 a03d 743c 0a3e 3dd9 133e
00000020: 0342 3e3e a40a 833d 39a7 d43d 8dc0 9d3e
00000030: 7941 fd3d 2b8b 743e de05 053e 02fb b63d
00000040: d02d be3d 87d2 893e 6627 023e ab0f db3d
00000050: 4728 b23d 08a5 253e 10d9 483e 4312 883d
00000060: 32ec 123e eaff e23d bcc9 133e 3666 033e
00000070: c4ca 143e b9c9 703e 3e2d 163e fe0c d63d
00000080: b1f8 ba3d 5393 2f3e 6b68 fd3d 0530 093e
00000090: b891 b53d 7bd6 fb3d d27c 413e 0faf 3d3e
000000a0: 3403 153e c2a9 2d3e 00ec 043e 0b53 d63d
000000b0: 4feb 323e 7b9f 873e 564d eb3d 42de cb3d
000000c0: 03ae b03d 9f45 023e 9f74 9d3d 76a8 c33d
000000d0: 94d4 223e 1a55 2a3e f2ae 973d 8a39 c33d
000000e0: d022 043e 4e60 7e3e c302 293e e193 2f3e
000000f0: c26c af3d 645a f83d e297 af3d 7c97 023e
0.09929592 0.12723012 0.12689792 0.11517114 0.11740518 0.07849362 0.13499624 0.14438339
0.18579869 0.06398514 0.10383458 0.30810967 0.123660035 0.23881213 0.1299052 0.08934595
0.09286082 0.26918432 0.12710342 0.10696348 0.086990885 0.16176236 0.19614053 0.06644108
0.14347914 0.11083968 0.14432424 0.12831959 0.14530474 0.23514451 0.14665696 0.10451697
0.09129465 0.17146043 0.12373432 0.13397224 0.08865684 0.12296768 0.18895271 0.18523811
0.14552003 0.16959289 0.12980652 0.10465058 0.17472576 0.2648886 0.1148936 0.09954502
0.0862694 0.12721871 0.07688259 0.09553616 0.15901405 0.16634026 0.07406415 0.09532459
0.12903905 0.24841425 0.1650496 0.17146255 0.08565666 0.12126616 0.08573891 0.12753099

cnn_features.7.0.weight f4 [64, 1, 3, 3]
00000000: f01c febe 4af4 ebbe 7bb2 debe 716b c83d
00000010: 2d6f 54be 80a4 253e 2979 56be 40f8 98bd
00000020: 92fb 0b3e 07dd d2bd e42e 1f3e 59b4 4f3e
00000030: 5af7 a2be 9303 87be 5ca0 273d 7ae1 15be
00000040: 3f1d 2bbc 238d f4bd 740e 8cbe 0d4c 90be
00000050: ba83 88be a9c9 7cbd 4802 86bc c3b3 6abd
00000060: e248 adbd 89ff 3bbe c8fc babd ee1b 1abc
00000070: c688 51bd 3cf8 943d 887d 8dbe ddeb 9abe
00000080: 4ae9 6dbe 2d1f 84be 1b87 69be fa81 3fbe
00000090: 9266 fc3d dc13 0f3e bc35 1c3e ea73 173e
000000a0: f5d0 0c3e 5368 bf3d e6b5 a33d d189 123e
000000b0: f6d1 a03d 89af 4d3e 49ca af3c c3d3 be3d
000000c0: 0d43 8dbe 6c60 72be 0ce0 20be c7ff 063e
000000d0: 7aea 173e 7643 cf3c 7bb7 05bd b996 833e
000000e0: fb3c 1c3d 7c56 00bd 71aa c1bd a20f 003e
000000f0: fbe2 adbe 9e53 a3be 60d5 83be 6cfd 4a3e
00000100: 2c0f 863e 61d4 c43d df3d 283e 61a3 fe3d
00000110: 3f7e cabd a546 ba3d a8ee 9f3d a208 99bb
00000120: dc84 513e 7fd5 4e3e dd43 123e a80a e13d
00000130: 8ed7 4d3e af4a 2f3e 15bf d83d b954 213e
00000140: c5a1 f13d 06b6 133e 489e e93d cf9f 763d
00000150: dfeb 67bd 5450 46be 48a1 46be 517a f7bd
00000160: 3bd8 31be a364 6cbe e788 903e c53f 00be
00000170: 46dc 84bd 55fe a5bd 380c da3d 8005 0ebd
00000180: dd03 1ebe 79b5 3f3c 67a0 8b3a 1abb 433d
00000190: fad1 173e c622 ba3d bea2 4e3e e43b 7a3e
000001a0: 3c74 ea3d 07e2 473e d80a cb3d 195a e83d
000001b0: 8bf6 3fbe 08b2 95be 7373 5ebe 2631 183d
000001c0: def5 a3bd 2bd6 79bd 9cd9 b0bd f95b 00be
000001d0: e2ec 94bd e159 8e3e 4fd8 773e e491 023e
000001e0: 77c7 463e 4de4 643e 91dd e43c 632b 3f3d
000001f0: 488b b53d 7027 3ebe df0e 523e 18e8 9ebd
00000200: ede0 063d b10b 14bc b4bb 8d3d 7495 a93d
00000210: 0f25 f5be 3153 b2be db1e cbbe 4028 bf3e
00000220: b166 dd3e e559 aa3e fda2 0c3e aefe 073e
00000230: b0e7 d4bd 213a 91bd a374 abbd 6cae 703e
00000240: 7a14 1f3e f311 48be 659e 33be 07d5 283e
00000250: 7631 99be 6364 41bc b106 55be cb12 1f3c
00000260: a5ac ff3a 161d 573e ed98 593e e996 993d
00000270: 9752 cabd 0f67 87bb 7788 4fbe 93e5 97be
00000280: 62f0 8c3d 5d71 0cbe 95df 133e fdd2 2a3e
00000290: 5d49 3b3e e26c 143e 6fb7 f53d 4091 a03d
000002a0: 3eb7 423e c599 6b3e 2d23 6e3e 86db 50be
000002b0: eeba 523e a5cd 26be c080 2c3e 5634 d23d
000002c0: 4230 853e 977c 9fbe 14c2 85bd f5ce c33d
000002d0: da04 9dbc 22b2 8ebe 4273 8bbe 6670 26be
000002e0: cdc3 cfbd 4f3e 61bd 26f0 463e 65de 683e
000002f0: 1d2c 253d c849 073e fa23 e0bd 87a8 a93d
00000300: ae89 27be 323d dc3d a85e 8abd 3db0 df3e
00000310: 0761 d63e cc16 f13e d712 0d3e be44 ad3d
00000320: 7573 03bd 9b60 583e e1f1 6c3e 907b e83d
00000330: a578 643e ec1c 4d3e cae6 2c3e 8aee 7f3d
00000340: 24a6 2b3d 8dd9 723d 4884 9fbd 9492 2f3e
00000350: 9b8f 143e a4bb 29bd 08ec 5bbe 129a 8bbe
00000360: 59fb 1ebe 6d10 0fbc 74a7 ebbd 06b1 453e
00000370: ae9b e93d dbb7 eb39 7612 4d3e 224a 173e
00000380: 87ab 7a3e e3ca bdbd 9383 04be 28df e3bd
00000390: afe7 96be dc6b 18bd 5485 2f3d fd8a 583c
000003a0: 6a1e 323e ec8b 113e 6c2a ff3c 2cca 86be
000003b0: ca78 a0be 1e5d 3c3e cd20 b63d eaa8 2c3e
000003c0: 9785 4cbe 4930 033e 606a 45be 4650 423e
000003d0: 4e20 133e 8e53 013e ca29 5a3e 682b 6b3e
000003e0: 9108 493e b795 3a3d 224c 653d 93b4 4b3d
000003f0: 0acd 9a3e b686 543e 3939 7d3d 7698 8e3e
-0.49631453 -0.46084815 -0.43495545 0.09786118 -0.20745535 0.16176033 -0.20944656 -0.07469225
0.13670185 -0.10296064 0.15545231 0.20283641 -0.3182934 -0.26369914 0.040924415 -0.14636794
-0.0104439845 -0.11940982 -0.27354777 -0.28183022 -0.26663 -0.061715756 -0.01635851 -0.05730034
-0.08461167 -0.18359198 -0.091302454 -0.009406073 -0.051155828 0.072739094 -0.27634835 -0.30258074
-0.23233524 -0.25805035 -0.22805445 -0.18701926 0.12324251 0.1397242 0.15254873 0.14790311
0.13751586 0.0934607 0.07993679 0.14310385 0.07852547 0.20086493 0.021458762 0.09317734
-0.27590218 -0.23669595 -0.15710467 0.13183509 0.1483554 0.025300723 -0.032645684 0.2570093
0.038144093 -0.031332478 -0.09456337 0.12505963 -0.33962235 -0.31899732 -0.2574873 0.19823235
0.2618345 0.096108206 0.16429852 0.12433506 -0.09887361 0.090955056 0.07809192 -0.0046702186
0.20460838 0.2019863 0.142837 0.10988361 0.20101759 0.17118333 0.10583321 0.15754975
0.11798433 0.14424905 0.11407143 0.060211 -0.05662143 -0.1936658 -0.19397461 -0.12083877
-0.17367642 -0.23085265 0.28229448 -0.12524326 -0.06487326 -0.081051506 0.10646862 -0.034673214
-0.15431161 0.011700981 0.0010652662 0.047785856 0.14826193 0.09088664 0.20179269 0.24436909
0.11447951 0.19519816 0.09914178 0.1134531 -0.18746392 -0.2923739 -0.21723728 0.037156247
-0.0800588 -0.060995262 -0.08635256 -0.12535085 -0.07271744 0.27802947 0.24203609 0.12750965
0.19412027 0.22352715 0.027937682 0.046672236 0.088644564 -0.18569732 0.20513485 -0.07759112
0.03292935 -0.009035991 0.06920567 0.08280459 -0.47879836 -0.34829095 -0.39671978 0.37335396
0.4324241 0.3327171 0.1373405 0.13280746 -0.103957534 -0.07091165 -0.08371856 0.23504037
0.15535155 -0.19538097 -0.17540891 0.16487513 -0.29920548 -0.011803719 -0.20803334 0.00970907
0.0019506408 0.21007189 0.21249743 0.07499487 -0.09879034 -0.0041321586 -0.20266901 -0.2966734
0.06881787 -0.1371512 0.14440759 0.16682048 0.18289705 0.1449466 0.11997878 0.07840204
0.19015214 0.23007877 0.23255606 -0.20396242 0.2057912 -0.16289385 0.16845989 0.102638885
0.2601338 -0.31149742 -0.06531158 0.09560958 -0.019167352 -0.2787028 -0.27236372 -0.16253814
-0.10144768 -0.054991063 0.19427547 0.22741087 0.040325273 0.13211739 -0.10944362 0.08284097
-0.16361114 0.107538596 -0.067563355 0.43689147 0.418709 0.47087705 0.13776718 0.08460377
-0.03209253 0.21130602 0.23139144 0.11351693 0.22311647 0.20030564 0.16884914 0.062483348
0.04190649 0.059289504 -0.077889025 0.17145759 0.14507906 -0.041438714 -0.21476758 -0.27265984
-0.15525569 -0.008731944 -0.115065485 0.1930581 0.11406647 0.00044959676 0.20026574 0.14774373
0.24479495 -0.09267213 -0.12940817 -0.11126548 -0.29473636 -0.037212238 0.04285176 0.013216731
0.17394415 0.14213532 0.031148158 -0.2632612 -0.31342155 0.18394896 0.08892975 0.1686131
-0.19972835 0.12811388 -0.1927886 0.18975934 0.14367792 0.1262953 0.21305004 0.22965777
0.19632174 0.045552935 0.05598081 0.049732756 0.30234557 0.20754513 0.06182215 0.27850693

cnn_features.7.1.weight f4 [64]
00000000: a3e1 313f 18cd 363f 49c1 363f 7c65 2b3f
00000010: d422 2a3f 1f17 4f3f 8647 5e3f a1b4 5e3f
00000020: ec57 423f 6371 353f 1174 443f 710a 263f
00000030: a874 1f3f e1dc 533f 8ecc 463f f1b5 1b3f
00000040: 062d 1e3f f52d 3d3f a41b 393f 486c 313f
00000050: 85f9 393f 5cc5 353f e23d 473f c773 473f
00000060: 8282 373f 6dc0 753f 8895 243f 13b7 433f
00000070: ba61 453f 45cc 503f 3de4 323f 1e47 673f
00000080: 1924 463f 37da 343f 7324 373f c80f 353f
00000090: 9879 403f 34da 253f 1e38 463f 3099 4b3f
000000a0: 793a 303f 38b1 263f b82c 0d3f bfee 113f
000000b0: e187 633f 5ca5 5d3f 17dc 513f c052 393f
000000c0: 4b29 2f3f 4dad 283f 0ed7 323f a570 213f
000000d0: a835 493f f4b8 5d3f d9cd 2b3f 71f2 173f
000000e0: 2c8d 563f e8a2 373f fd05 3d3f dc89 7b3f
000000f0: fad8 393f 6dad 263f f1d7 283f 6b96 133f
0.6948492 0.714067 0.7138868 0.6695173 0.66459394 0.80894655 0.86827886 0.8699437
0.7591541 0.7087614 0.76739603 0.6485968 0.6228738 0.8275891 0.77655876 0.60824496
0.6178745 0.7389825 0.723078 0.6930585 0.7264636 0.7100427 0.778288 0.7791104
0.71683514 0.95996743 0.64290667 0.76451224 0.77102244 0.8156169 0.69879514 0.9034289
0.7739883 0.7064547 0.7153999 0.70727205 0.7518554 0.64786077 0.7742938 0.7953062
0.6883922 0.65114164 0.5514636 0.5700492 0.8887921 0.86580443 0.81976455 0.7239189
0.68422383 0.65889436 0.698594 0.63062507 0.785975 0.8661034 0.67110974 0.5935431
0.8380916 0.7173295 0.7383726 0.9825723 0.72596705 0.65108377 0.659545 0.57651395

cnn_features.7.1.bias f4 [64]
00000000: 653d afbd a6ab 14bd a37f 10bc 07b0 f7bc
00000010: 74bb 6cbe 5bda 88be 283a 0fbd 8cf8 93be
00000020: a44d 81be 85ee e2bd 0f20 18bf cf01 98be
00000030: b7b2 06be beff 61be b126 843d 4f2d cebd
00000040: c95e 02be c014 07be 0780 9dbe 83e4 5abe
00000050: 5ccf 97bd 6ca7 7bbe 650f 29be 9f23 d1be
00000060: e941 10be 23ac 03be adb9 03be d3ac 18be
00000070: 6ca2 74be 0423 b9bb 8526 5cbc 9376 d8bd
00000080: b21f 45be 4f0b 0cbe fff5 d1bd 364e c43c
00000090: cb64 40be ae15 4abe 14f0 2fbe c873 8ebd
000000a0: 71f3 19bb 0285 fbbd cb90 2ebe 5eb5 47be
000000b0: dba6 76be 237a 1abe 880f 93be 8c0a 2abe
000000c0: 0f7c 98be e1a2 cabd fb67 62be 8472 5bbe
000000d0: 121e 263c 474c 69be 2a4c debc cfc6 46be
000000e0: 7bd7 a9be ca7f 9bbe 7427 063d 3520 afbd
000000f0: 39c3 13be c814 70be 6d2d 7dbe 8656 abbe
-0.08556632 -0.03629651 -0.008819493 -0.030235304 -0.23118383 -0.26729092 -0.03496757 -0.28900564
-0.25254548 -0.1108065 -0.5942392 -0.2968888 -0.13154112 -0.22070214 0.06452692 -0.10067236
-0.1273147 -0.13191509 -0.3076174 -0.21376233 -0.074125975 -0.24575585 -0.16509779 -0.4084749
-0.14087643 -0.12858634 -0.12863798 -0.14909677 -0.23890084 -0.005649926 -0.013436918 -0.10569491
-0.19250372 -0.13676189 -0.10251998 0.023963075 -0.1878845 -0.19734833 -0.17181426 -0.06955677
-0.002349105 -0.122812286 -0.17047422 -0.1950278 -0.24087088 -0.15085654 -0.28722787 -0.16605586
-0.2978215 -0.09894348 -0.22109978 -0.21430403 0.010139005 -0.22783004 -0.027135927 -0.19411777
-0.3317221 -0.30370933 0.03275247 -0.08551065 -0.1442994 -0.23445427 -0.2472436 -0.3346445

cnn_features.7.1.running_mean f4 [64]
00000000: d62d 60bf cbbe 83be fe06 9cbe 6343 b1be
00000010: 5eb4 923e 7558 4dbd ce0a 9cbe 3651 493b
00000020: 79fd da3d f3e3 8ebe 0329 9dbb 5315 ba3c
00000030: b9a9 aabe aecc 343b d719 9dbe 9040 4f3f
00000040: 3746 bdbe 1892 d1bd 9a7b 273e c476 e73a
00000050: 56e5 7abe d74a ad3c a338 153d 7094 0ebd
00000060: 8d0c 093e 302f 9fbd 5075 14be 3134 0c3d
00000070: eca6 8a3b ca47 23be 08b8 37be 468a 37be
00000080: a32d cfbd f31c 4abc bab7 4b3e ac5c 3fbe
00000090: 270f a63e 893f 153f 6c34 05be 3581 1abe
000000a0: be0b 9bbd 1e71 ddbe c9bf a4bc 1270 263f
000000b0: 16b1 653a c25c adbd cf75 b1bc d09d 413e
000000c0: a7cb e3bc caf7 dabe dea9 233e 1553 c43e
000000d0: 07ad 61be 4678 5c3a 364f 78be 9ce8 8d3e
000000e0: fbe5 eabc 1da9 f23e 6120 1dbe 8109 f7bd
000000f0: cc86 7a3e 9980 be3e 49c2 6f3d cdf4 213f
-0.8756994 -0.257315 -0.30474085 -0.34621724 0.28653234 -0.050133187 -0.30476993 0.0030718572
0.10692877 -0.27908286 -0.0047961487 0.022715246 -0.33332613 0.002758782 -0.30683777 0.8095789
-0.36967632 -0.10232943 0.16355744 0.0017659296 -0.24501547 0.02115385 0.036430966 -0.03480953
0.13383694 -0.07772672 -0.14497876 0.03422946 0.0042313244 -0.15945354 -0.17941296 -0.17923841
-0.101161264 -0.012336004 0.19894305 -0.18687695 0.32433435 0.5830007 -0.13008279 -0.15088351
-0.07570599 -0.43250364 -0.020110982 0.65014756 0.00087620446 -0.08464958 -0.02166262 0.18907857
-0.02780707 -0.42767173 0.15982768 0.38344637 -0.22038661 0.0008410256 -0.24248967 0.2771653
-0.028674116 0.47394648 -0.15344383 -0.120623596 0.24465483 0.37207487 0.058534894 0.6326416

cnn_features.7.1.running_var f4 [64]
00000000: 3028 993f aa93 053e e0a0 873e 3cbf 923e
00000010: 2fb9 5c3d 2178 763e dad4 883e 94fa 5a39
00000020: f062 8c3c 5a24 253e a515 b93a 5f37 df3a
00000030: 65b4 813e 3a68 5839 3967 883e 6742 f93e
00000040: 1b87 3a3e 71e3 223d cc29 b13c 55a6 2d3a
00000050: be71 223e 19af bb3b 829b 8d3b 10fe 053d
00000060: 81ae d83c cd6e ef3c 012c 743d 91ce 1e3c
00000070: 98d6 b239 0f11 8f3d 9e70 d93d ee4f dc3d
00000080: b30d 173d fa57 003d 0346 e63d c88c 133e
00000090: 3ce2 8e3d cade 503e ee3e e23d 5653 773d
000000a0: fa02 483d 93fa 9b3e 56de 563d 116b a73e
000000b0: 038c d738 8fe7 c13c 71ac 983b d0f4 9f3d
000000c0: 131e f83d 396a ee3e 8dba c73c 91f4 c73d
000000d0: 04b4 573e 747d 1938 00d9 1f3e 80bc 323e
000000e0: b278 fb3c b0ba 903d 4d02 ab3d 643a a43d
000000f0: 4651 6a3d 291a 033e c996 e43c 5e44 8f3e
1.1965389 0.1304461 0.26489925 0.28661525 0.053887542 0.24069263 0.26724893 0.00020883448
0.01713702 0.16127148 0.001412083 0.0017030052 0.25332943 0.00020638193 0.26641253 0.48683473
0.18215601 0.039767686 0.021626376 0.00066242117 0.15863702 0.0057276604 0.0043215165 0.032712996
0.026450397 0.029227639 0.059612278 0.009692804 0.0003411069 0.069856755 0.10617183 0.10757433
0.0368783 0.0313339 0.112438224 0.14409173 0.069767445 0.20397487 0.11047159 0.06038221
0.048830964 0.3046461 0.05245813 0.32698873 0.00010278078 0.023669986 0.0046592285 0.07810366
0.12115111 0.46565416 0.024380947 0.09763444 0.21064764 3.659488e-05 0.15610123 0.1745472
0.0306972 0.07066858 0.08350048 0.0801895 0.057206415 0.12802948 0.027903931 0.27981848
